DRLND/P2_Continuous Control/checkpoint_actor.pth (torch_old, 312183 bytes, 14 tensors)

fc1.weight f4 [256, 33]
000000 3d 27 5e 3d 05 21 14 3e 9c fa 5e bb e2 20 f1 bc
       0.05423664 0.14465721 -0.0034023887 -0.029434625
000010 eb ec 87 3d 5d 67 0c be 3b 14 2b be cb 25 83 bc
       0.066369854 -0.13711305 -0.16706936 -0.016009232
000020 84 77 b7 3d a1 fe b7 3c a2 0e e9 3c be 76 fd 3c
       0.08958343 0.022460284 0.02844936 0.03094041
000030 54 9d c5 bd 7f 46 02 3c 38 21 2d 3d e8 1e 3a bc
       -0.096491486 0.007951378 0.042268008 -0.011359908
000040 41 00 9e bc 1c 16 a1 3e 57 a3 84 3e f1 b1 01 3e
       -0.01928723 0.3146218 0.25905868 0.12665536
000050 82 7d 1b bd a5 a0 a6 39 52 2a 42 3b c4 a9 9c 3d
       -0.03796149 0.00031781677 0.0029627276 0.07649568
000060 2b 5f 9d bd 09 5b 0e 3d bb c9 ed ba 68 30 b2 3d
       -0.076841675 0.034754787 -0.0018141785 0.08700639
000070 55 4e 58 3d 8c ff 67 bd 9a 81 fc bd a6 59 0b bd
       0.05280908 -0.056640193 -0.12329407 -0.034021042
000080 3e 7f 75 3d 3c fb 44 be e0 2d 88 3d 70 a2 1e be
       0.0599358 -0.19236463 0.06649375 -0.15491652
000090 07 5c 27 bd f6 02 74 bc 45 21 18 3d fe 4b b7 bd
       -0.04085925 -0.014893284 0.037141103 -0.08950041
0000a0 0e c0 a5 3d 48 f4 86 3c cc 09 2c bd 65 71 9d 3b
       0.08093272 0.016473904 -0.04200153 0.0048047774
0000b0 18 2d 45 bc 44 88 66 bc 04 d6 e4 3d e4 81 eb bd
       -0.012034677 -0.014070574 0.11173633 -0.11499384
0000c0 07 cb 0f 3d ea 6c d3 bd b1 cf 24 bd 4a c1 09 be
       0.03510573 -0.10323508 -0.040237132 -0.1345264
0000d0 8c b0 c2 bd c6 e9 82 3d 68 3d 08 3d db b7 06 3b
       -0.0950633 0.06392245 0.033261687 0.0020556364
0000e0 da d9 42 3d 15 c7 a8 bc 7c 75 59 3d ac 15 ac 3c
       0.04757104 -0.020602742 0.053090557 0.021006428
0000f0 80 50 d8 3d 2e b3 f9 3c aa 7c 12 3d ef 46 b7 bd
       0.10562229 0.030480947 0.03576342 -0.089490764
000100 b8 f0 fb 3c 13 af 7d be 6c 58 4c 3d dc 48 10 be
       0.030754432 -0.24773817 0.049889013 -0.14090294
000110 bb 92 ba 3d 83 3b e9 3c 6e f0 01 bd fd c9 37 be
       0.09110018 0.02847076 -0.031723432 -0.17948146
000120 7b 78 4e 3d f6 3d 77 bd 3b ab e6 3d 49 21 96 3c
       0.050407868 -0.060361825 0.11263128 0.018326418
000130 20 8f fc 3b 5b 83 be bd c7 94 06 3e cd 49 06 bd
       0.0077074915 -0.09302398 0.13142692 -0.032785226
000140 24 04 ef 3c 94 92 86 bd 34 68 85 be a5 de e7 3d
       0.02917678 -0.06570926 -0.26056063 0.11321763
000150 de 77 df bd 1f f2 a5 bd 62 85 cf 3c 34 9e c6 3c
       -0.10911535 -0.081028216 0.025332157 0.024245359
000160 f2 95 8b 3d 7a 19 e7 bd 87 56 4b bc 88 e0 36 3a
       0.06815709 -0.11284156 -0.012410766 0.0006976207
000170 6f 2d cf 3b 82 ae aa bd 9c 09 55 bd 06 4e 5c bd
       0.006322555 -0.08334066 -0.052011117 -0.053785346
000180 ce 1f 82 3d ec aa 8f bc 0d fd 42 3c 12 52 4a 3d
       0.063537225 -0.017537557 0.011901152 0.049394675
000190 32 e5 11 3e 09 33 0f 3e 22 e1 12 be 96 a2 ea 3c
       0.14247587 0.13984312 -0.14343694 0.02864198
0001a0 8d 5a 36 3e 6f 53 94 bc 67 0d a1 bb 3a b9 87 3d
       0.1780798 -0.01810619 -0.0049149278 0.06627126
0001b0 f1 32 51 3d 05 a3 6e 3d ef 59 44 3d d5 07 86 bc
       0.051073972 0.058260936 0.04793733 -0.016361156
0001c0 f9 bc 0d bd 57 0e 87 bd 28 d3 92 bd 71 ce 80 3a
       -0.034604046 -0.06594532 -0.07169181 0.0009827149
0001d0 af 04 00 3e ab 9d 53 ba cf b4 8b be 13 33 cb bc
       0.12501787 -0.00080725056 -0.27286384 -0.024804628
0001e0 8d e5 0d 3c d9 68 d7 3b 71 7e 41 3d eb a5 9d bd
       0.008660686 0.006573778 0.047239725 -0.07697662
0001f0 03 da 0d 3d 13 60 05 3d 9a 5d 01 3e d8 6b a8 bd
       0.03463174 0.032562327 0.12633362 -0.082236946
000200 98 11 62 bc af 31 c0 bd 80 d0 45 3b 5a c0 2b 3d
       -0.01379814 -0.093844764 0.003018409 0.041931488
000210 6c fc 79 bb 58 a3 6b 3e ec e7 39 3d da b4 ab 3d
       -0.003814484 0.2301153 0.045387194 0.08384104
000220 21 11 1e 3c 6a 09 26 3d d4 ef 4c 3d d5 d1 ab 3c
       0.009647639 0.04053632 0.050033405 0.02097408
000230 77 d2 99 bd 69 1a bd bc 1e db 92 3c 3f 2c a3 3b
       -0.07510846 -0.023083882 0.017926749 0.00497964
000240 a4 1a f1 bb 78 36 87 bd f0 1c 3b be f6 1f b0 bd
       -0.007357912 -0.06602186 -0.18272758 -0.08599846
000250 e9 b2 3b 3e 8b 09 40 bd 3c 91 cb 3d 8b f0 e7 bc
       0.18329968 -0.0468841 0.09939811 -0.028312942
000260 b9 9d 0f 3c f7 5a 02 3c 71 11 3b 3c f1 55 44 bd
       0.008765631 0.007956258 0.011417733 -0.047933523
000270 5b 90 15 bd 45 7f 4e bc 8d e2 85 3d d1 f0 fb bc
       -0.03651462 -0.012603586 0.06537352 -0.030754479
000280 75 46 3a 3d 20 54 db 3c 39 34 93 bd 90 79 f2 bc
       0.04547735 0.026773512 -0.07187695 -0.029598981
000290 aa 8f a0 3c 71 40 25 39 2c 27 9f 3d 73 b7 98 3c
       0.019599754 0.00015759633 0.07771143 0.018642163
0002a0 53 63 71 bd 01 f5 a8 3d f1 57 86 be d5 33 80 3d
       -0.058932614 0.08249856 -0.2623897 0.06259886
0002b0 b7 cf 60 3d 9d 2b 26 bd 61 61 94 3c 2d 02 21 bc
       0.054885592 -0.040568937 0.01811284 -0.009827179
0002c0 8b 4e a2 bc 24 52 b0 3b a6 17 97 3d ce d3 80 bd
       -0.019812843 0.0053808857 0.073775575 -0.062903985
0002d0 ef 55 a6 bd 85 fb d7 bd 95 77 0a 3e 95 ca 11 bd
       -0.08121859 -0.105460204 0.1352218 -0.035593588
0002e0 68 7e cb 3c e6 71 32 3d d5 9a f7 bc 4b a8 92 bc
       0.024840549 0.043565653 -0.030225197 -0.017902514
0002f0 e0 13 4f 3c ce 83 79 bc 2a f3 fb bc 20 e8 b5 3c
       0.012639016 -0.015229179 -0.030755598 0.022205412
000300 b9 7b 70 3e 5b 65 3e bd 4a e7 59 3d 73 20 51 be
       0.23484696 -0.04648338 0.05319909 -0.20422535
000310 16 5d 22 3d d8 0e c4 be 59 86 86 bd d6 ed 65 3d
       0.039639555 -0.38292575 -0.065685935 0.05613502
000320 b4 61 a8 bb 2c fa ac be 6f 8d 60 3e 44 78 c0 bd
       -0.0051386002 -0.33784616 0.21928953 -0.09397939
000330 6c dd 35 be 71 d2 11 bb 6f de ae bd 8e 15 2c bd
       -0.17760247 -0.0022250677 -0.085385196 -0.042012744
000340 6f 23 28 bc b1 95 88 3c 49 6d 34 3b 06 73 4b bd
       -0.010262354 0.01667294 0.002753096 -0.04967024
000350 55 cf c2 bb bc 29 b2 3d 86 b7 6e ba 06 26 11 be
       -0.005945126 0.086993665 -0.00091063266 -0.14174661
000360 85 9c d5 3d 11 5e 7a be 33 2d 8d bb a7 13 1d bc
       0.10430244 -0.24449946 -0.0043083667 -0.009587205
000370 be f0 12 3c 94 e3 41 bc 64 d8 10 bd 6e c0 11 3d
       0.00896853 -0.011834044 -0.035362616 0.035583906
000380 39 e5 44 3c a6 56 05 3e 72 80 9a bd a4 fb 52 bd
       0.012017542 0.13021335 -0.0754403 -0.051509514
000390 37 9b 17 be 48 3f 21 3d 96 54 89 3d 60 31 59 bd
       -0.14805304 0.03936699 0.067055866 -0.053025603
0003a0 d6 14 0a bd db ef 1e be d4 05 2f 3e 05 94 06 be
       -0.033711277 -0.15521185 0.17092067 -0.13142402
0003b0 9e 23 a2 3e 51 93 36 bd 79 26 54 bd 5c bc 78 3d
       0.316678 -0.044574086 -0.051794503 0.06072651
0003c0 3e b5 2e 3d 2f 4f 8b bb d1 b7 27 bd 45 78 f2 bc
       0.042653315 -0.004251383 -0.040946785 -0.029598365
0003d0 91 56 bf 3c 4d 54 17 3d 1f ce e5 3d 6a 34 bc 3b
       0.023356708 0.03694563 0.11220955 0.005743553
0003e0 1e 17 92 be 32 00 37 be ae 8f 21 3e ca b9 df bc
       -0.28533262 -0.17871168 0.15777466 -0.02731027
0003f0 4f 9f 28 bd 13 5f 8b 3c 9c 39 3a 3d 83 69 d9 bc
       -0.041167554 0.017013108 0.045465097 -0.02653957

fc1.bias f4 [256]
000000 10 32 a3 3c b6 f2 ba 3c 8e 90 15 3d ac 4b 6a 3d
       0.019921333 0.022820812 0.03651481 0.057201073
000010 f5 59 75 bc ea ed b9 be d9 2a 7e be d9 c0 37 be
       -0.014975061 -0.36314327 -0.24821033 -0.1794466
000020 44 93 53 be 69 e5 8b bd 88 50 37 be 6f 90 9a bc
       -0.20661646 -0.06830866 -0.17901814 -0.0188677
000030 e3 3f d6 3d 68 89 d9 bd a1 c5 dd bd 6a 30 eb 39
       0.10461404 -0.10621911 -0.1082871 0.00044858764
000040 6a 98 9f bc c8 05 48 be 6b e8 2b 3e 42 a2 6d be
       -0.019481856 -0.19533455 0.16787879 -0.23206428
000050 0a 02 21 be 57 26 4b 3d f0 d0 89 bd 30 e5 6b be
       -0.15723434 0.04959711 -0.06729305 -0.23036647
000060 db 1b e3 bc 08 f4 33 be bb 92 e5 bd 1c 62 d0 bd
       -0.027723243 -0.1757356 -0.11209627 -0.10174963
000070 7b bb 87 3d 7c 6b c0 bb ee 34 89 bd 0c d5 51 be
       0.06627556 -0.005872188 -0.06699549 -0.20491427
000080 78 ff 84 be d7 f0 9f bd 7d 6b 49 be 84 6f 0e be
       -0.25976157 -0.078096084 -0.1966991 -0.13909727
000090 e5 7f 08 3e eb b8 4d bc ed 84 a4 bd a1 4d 01 bd
       0.13330038 -0.012556295 -0.08033166 -0.031568173
0000a0 18 6b ac bd 02 a0 ad bd 69 db db b9 55 7b 21 bd
       -0.08418864 -0.08477785 -0.00041934408 -0.03942426
0000b0 0b 63 d2 ba 63 14 43 bd 45 0e a6 bc 44 de 71 3d
       -0.0016051246 -0.047626864 -0.020270476 0.05904986
0000c0 e1 ca 1a bd fa 98 32 3d f9 f1 98 be 30 9c 14 bd
       -0.037791137 0.04360292 -0.2987211 -0.036281765
0000d0 aa 31 67 be 61 67 1c be 7b 5b 37 be 36 4e 0f 3e
       -0.22577539 -0.15273811 -0.17905991 0.13994679
0000e0 80 9e a1 bc 20 5b 78 3c 63 5d fb bd 8f bc c7 3c
       -0.019728899 0.015158445 -0.122736715 0.024381904
0000f0 ce f8 a5 bd b2 94 9b 3d 0b 20 33 be da ae 09 be
       -0.08104096 0.07596721 -0.17492692 -0.13445607
000100 95 8e 81 be 42 ee 70 be bf 59 13 3d d4 27 ed ba
       -0.25304094 -0.23528388 0.03597426 -0.0018093535
000110 43 d2 4a bd 1f 91 ab bd d8 d8 7c 3b d0 6b 99 bd
       -0.049516927 -0.08377289 0.0038581397 -0.07491267
000120 16 93 95 bd 10 46 17 bd 8d 41 8b 3c 78 dc ec bc
       -0.07303445 -0.03693205 0.01699903 -0.028913721
000130 30 97 c4 bd 1c 83 6b bd 10 7d 02 3e 34 f4 64 be
       -0.09599149 -0.057498083 0.1274302 -0.22358781
000140 b1 fe 5f bb 88 20 9a 3d c0 ea e4 bd cc 4d a6 3d
       -0.0034178908 0.07525736 -0.111775875 0.08120307
000150 e6 36 29 3d d4 8c 4b be 67 ca ac 3d b9 14 f0 3d
       0.04131212 -0.1987794 0.08437043 0.117227025
000160 ed 1c bf bd b8 fa 73 bd 3b b2 0f 3e f5 23 ce bd
       -0.09331689 -0.059565276 0.14032833 -0.10065452
000170 f8 69 15 3d c9 f3 a5 bd b0 0c 60 be e1 9f 78 bd
       0.036478013 -0.08103139 -0.2187984 -0.060699347
000180 ac ed 81 3c 1e 54 f6 bd e1 7e 3a bd 95 0d d5 bd
       0.015860401 -0.12027763 -0.045531157 -0.10402981
000190 74 36 df bd 19 49 42 be 20 24 24 3e bb d0 20 be
       -0.10899058 -0.18973197 0.16029406 -0.15704624
0001a0 ec 5e de bd 00 eb ae 3d 9a e9 09 be 5d bf d3 3d
       -0.10857949 0.085409164 -0.13468018 0.10339234
0001b0 52 cf 23 be 4f 8a 27 be 83 11 8e 3d 21 57 3b bd
       -0.15997055 -0.16361354 0.06936934 -0.04573739
0001c0 80 ec 72 be ab e0 b6 3d fe b2 b4 3c 01 b0 c5 bd
       -0.2372303 0.08929571 0.022058006 -0.09652711
0001d0 16 66 e9 bb c8 6b 56 be fd 08 1b bc 10 d4 70 be
       -0.0071227653 -0.20939553 -0.009462592 -0.23518395
0001e0 71 13 f1 3c 98 be 08 bd e6 80 59 bd ed 26 e2 bd
       0.029428216 -0.03338489 -0.053101443 -0.11042581
0001f0 4c e9 35 bd 09 2c 30 3e 8d 24 0f be 06 07 e4 bb
       -0.044411942 0.17204298 -0.13978787 -0.006958845
000200 d9 d6 36 be 09 8e 6b 3d d3 27 26 be 8c 15 72 be
       -0.17855395 0.057508502 -0.16226129 -0.23641032
000210 15 d2 90 bd 4c f0 1f 3e 5a 2d 0a 3d 1f 22 dd bd
       -0.0707132 0.1561901 0.033734657 -0.10797524
000220 4c 2f 5c be 55 10 e7 bd 96 46 42 be aa 42 85 bd
       -0.21502417 -0.11282412 -0.18972239 -0.06506856
000230 8c 6e a4 3d d6 1b 1b be 52 1e ec bd 5a 1f 16 be
       0.08028898 -0.15147337 -0.11529221 -0.14660397
000240 fa 5d d2 bd 06 3e 0d be 12 f1 e1 bd 03 b0 db bd
       -0.10271831 -0.13793191 -0.11032309 -0.10726931
000250 b1 e5 d8 bd cb d9 a5 bc 47 3c 4a 3c 46 89 13 be
       -0.10590685 -0.020245453 0.012343473 -0.14407834
000260 37 4a 87 bd f7 e4 5d bc 71 e0 45 bd 8a 0a f3 bc
       -0.06605952 -0.013543359 -0.048309747 -0.029668111
000270 86 b4 59 3a e8 46 ee bd 7f 61 07 3d 1a d5 78 be
       0.0008304793 -0.11634618 0.033051964 -0.24300042
000280 68 ce a3 3d c2 a1 38 be 2e 61 2c be 95 84 31 be
       0.07998353 -0.18030456 -0.16833946 -0.17335732
000290 1a 75 e0 3c c2 17 9f 3d 4e b6 b5 bd 99 75 8a 3c
       0.027399588 0.07768203 -0.088726625 0.016901778
0002a0 19 66 ed bd 2a 22 79 bd b3 cf b3 bd b1 f3 38 3e
       -0.11591739 -0.060823597 -0.0877985 0.18061711
0002b0 8d 59 42 3d 98 75 99 3c a8 54 00 3d ce 0a c4 3d
       0.047448684 0.01873283 0.031330734 0.09572373
0002c0 c6 31 e1 3d 3d e1 9d bb eb c4 32 bd 5b 43 3a be
       0.10995822 -0.0048181103 -0.043644827 -0.18189757
0002d0 70 b9 48 be cd 87 a1 3d 46 9f 12 be 54 23 2d be
       -0.19601989 0.0788723 -0.1431857 -0.16908008
0002e0 3b b0 f5 bd 86 5d f1 bc 93 76 5d 3d ed a8 18 be
       -0.11996504 -0.02946354 0.05406816 -0.1490819
0002f0 5c a3 16 3d 68 31 46 3d c2 b3 33 be 2e 50 f5 bc
       0.036776885 0.04838696 -0.17549041 -0.02994546
000300 e8 eb 12 3d bb 90 1c bd 41 ff 81 3a fe eb bf bd
       0.03586951 -0.038223963 0.000991799 -0.09371184
000310 9b 90 44 bd dc 6c 2b be a7 7b 24 be a6 86 82 bd
       -0.04798947 -0.16740745 -0.16062795 -0.063733384
000320 da 00 d1 bb 3a bf ac bd 23 61 1a bc 52 2c e4 bd
       -0.0063782753 -0.08434911 -0.009422573 -0.11141266
000330 62 e6 ae 3d bd 15 52 3c df 6c f1 bd 8c f3 99 bd
       0.08540036 0.012822566 -0.11788344 -0.07517156
000340 c0 c0 0e be b1 8c 99 bd 8b 68 b2 bd 85 6b 19 3e
       -0.13940716 -0.07497538 -0.08711346 0.14982422
000350 a3 e3 3c 3d 37 3d 0a be a8 88 45 be bb 83 9f 3e
       0.04611553 -0.13499914 -0.19290411 0.3115519
000360 b1 14 05 be 59 66 06 bb 0f 1f 82 bd 0b 01 ba 3b
       -0.12996174 -0.0020507781 -0.0635358 0.005676394
000370 c0 37 f9 bd c9 f2 3f be 27 1b 96 be 7f 80 37 be
       -0.121688366 -0.18744959 -0.2931759 -0.17920111
000380 14 53 3c 3d 54 ce 78 be 48 4b 43 be 14 21 87 bd
       0.045977667 -0.24297458 -0.19071686 -0.06598106
000390 28 42 7e be a6 2b 2c bd 79 17 31 be 28 5a 41 3c
       -0.24829924 -0.042033814 -0.1729411 0.01180128
0003a0 cb 3f 07 be 56 89 7b be 94 3c 07 3e d9 e0 3b be
       -0.13207929 -0.24564108 0.13206702 -0.18347491
0003b0 d6 99 57 bd 33 b4 3c be e2 5c da bd 23 b2 4a be
       -0.052636944 -0.18428116 -0.10662247 -0.19794516
0003c0 56 a9 0e be d0 f3 56 be d4 94 7f 3d 67 65 41 bd
       -0.13931784 -0.20991445 0.062397793 -0.047215845
0003d0 51 c1 37 3e a2 11 ce bd 79 32 d8 bd ee c1 12 bd
       0.17944838 -0.10061957 -0.10556502 -0.035829477
0003e0 14 be 04 be ed 97 58 be 58 84 d1 3d be a7 a6 bd
       -0.12963134 -0.21151705 0.10230321 -0.08137463
0003f0 4c 43 bb 3d df 68 33 be cb 99 90 bd 7b b8 24 bd
       0.09143695 -0.17520474 -0.07060584 -0.040214997

fc2.weight f4 [256, 256]
000000 f3 a9 cf bd 6f 91 18 be b9 cc e2 ba 2d ba 9e 3d
       -0.10139837 -0.14899229 -0.0017303444 0.07750354
000010 9d 96 4e 3e 79 46 86 be dc 86 af be ee 39 c8 bd
       0.20174642 -0.2622564 -0.34282577 -0.09776674
000020 25 40 a1 bd 9a 94 9f bc 4d bd d7 bd d1 f0 d2 3d
       -0.07873563 -0.019480038 -0.10534153 0.10299838
000030 e6 2f b2 3c ce 6f d2 bc 43 bd 07 3d 59 94 55 bd
       0.021751355 -0.025688078 0.03313948 -0.05214343
000040 24 c1 18 bd ae fb bd be 89 91 1b be 27 13 70 bc
       -0.03729357 -0.3710608 -0.15192236 -0.014653004
000050 e1 b9 5a 3d 65 71 69 3e 3a 0d 1d bd 1c e7 37 3d
       0.053399924 0.22797163 -0.038342692 0.044898137
000060 cd 08 92 3d 27 20 04 3d cd 1e 45 3c 86 f5 4a 3d
       0.07130585 0.032257225 0.012031269 0.049550556
000070 35 04 35 3e ac 13 34 be dc ae b2 3a 34 76 f0 3d
       0.17677386 -0.17585629 0.0013632434 0.117412955
000080 06 aa 59 3e d0 fc 43 3d 30 ea 83 3e d2 63 20 bd
       0.21256265 0.047848523 0.25764608 -0.039157696
000090 d5 1b 17 3e 55 c1 a0 bd 72 b2 59 be 38 38 d6 3c
       0.14756711 -0.07849375 -0.21259478 0.026149854
0000a0 01 ad f1 3d e1 a0 a9 bd f2 7c 15 3e 22 7c 49 3d
       0.11800576 -0.08282638 0.14598444 0.049190648
0000b0 26 a9 4f bd 75 34 d1 3c dd 8e 89 bd 5a bc 2b bd
       -0.050698422 0.025537709 -0.06716702 -0.041927673
0000c0 a3 0f 59 bd b5 a8 bb 3d 09 5a db bc b8 7a 1a 3d
       -0.052993428 0.09163038 -0.02677633 0.03771469
0000d0 32 c5 22 be 30 04 1e 3e 69 1b 2d 3e ab 16 cb bd
       -0.15895537 0.15431285 0.16904987 -0.09916433
0000e0 cc 73 41 be 1b 8b bc 3d 72 bd 8e 3d c7 23 30 39
       -0.18891829 0.0920622 0.069697276 0.00016797996
0000f0 94 9c b0 bd 0c 57 28 be 8e d1 74 3d 9f 67 51 3d
       -0.08623615 -0.16439456 0.05977016 0.05112421
000100 43 70 be 3d 67 55 42 3d 02 82 f9 3c a4 84 14 be
       0.09298756 0.047444727 0.0304575 -0.14503723
000110 56 cd 10 3a db 1f 51 3d 30 f8 10 bd d4 9c 5e 3e
       0.00055237615 0.05105577 -0.03539294 0.21739513
000120 98 2d 23 bd ae 7a 88 be 04 0e 61 3d 83 bc 0b be
       -0.039838403 -0.26656097 0.054945007 -0.1364613
000130 3e 8a 49 3d b7 e9 08 3d a1 de 8c 3d b0 01 c2 3c
       0.049204104 0.033426013 0.068784006 0.023682445
000140 38 3e 8d 3e e9 32 65 3b 29 71 ca 3a a1 9a c7 bd
       0.27586532 0.0034972972 0.0015445101 -0.0974629
000150 38 69 60 bb e8 a0 24 bd 1d 89 ac 3d 65 32 bf 3d
       -0.0034242403 -0.040192515 0.0842459 0.09335784
000160 0f af 24 be 60 05 e8 bd 8a dd 28 3e 57 d0 03 3e
       -0.16082405 -0.1132915 0.1649076 0.12872444
000170 26 87 f6 3d f7 dd e2 bd cd 6e 39 3d 80 c5 ea 3c
       0.12037496 -0.11077493 0.045271683 0.028658628
000180 db 3a 83 bd 4e e2 58 3c 5b 59 92 3d 25 04 54 bd
       -0.0640771 0.013237549 0.071459495 -0.051761765
000190 f1 c5 4c 3b 13 3c 07 3c ee 5b 25 3e a2 fd 78 3d
       0.0031245912 0.008254069 0.1614835 0.060788758
0001a0 ad 54 35 3e 85 09 80 be 2e 46 88 be 39 47 1f bd
       0.17708082 -0.25007263 -0.26616043 -0.038886283
0001b0 f0 fe 35 be 34 ff 0a 3e 37 ef 68 3d d5 21 8f 3d
       -0.17773032 0.13573915 0.056868758 0.06988875
0001c0 66 2d 70 be a6 f2 e1 3d 78 ca 33 be a0 86 4c bc
       -0.23454818 0.1103261 -0.17557704 -0.012483269
0001d0 39 53 a2 bd 85 4c 27 3e f2 3d 59 3d 08 44 7a be
       -0.0792603 0.16337784 0.05303759 -0.24440014
0001e0 d3 31 f7 bd 5a d7 1a bc 85 d5 59 3e d6 a8 39 bd
       -0.1207005 -0.009450758 0.21272857 -0.04532703
0001f0 0b 85 ec 3d 28 8b 90 3d 77 6b 83 bd ac 24 e7 ba
       0.115488134 0.07057792 -0.06416982 -0.001763483
000200 84 87 d7 be 3d 78 fa bd ea 5b 09 be 67 07 43 3d
       -0.42095578 -0.12229965 -0.13413969 0.04761448
000210 ff 17 0e be 09 b1 82 3e c2 d6 9e ba ce 43 11 bd
       -0.13876341 0.25525692 -0.0012118446 -0.035465054
000220 d4 b9 94 bb c2 71 b5 3d 50 ae 15 be 9d 95 12 3e
       -0.004538754 0.08859588 -0.14617276 0.14314885
000230 fb 98 8a 3b fd f6 c6 bc 76 3b 4d 3c f3 00 df bd
       0.0042296625 -0.024287695 0.012526384 -0.10888853
000240 f9 60 65 3d f3 6a 2a 3e e0 d8 f0 bc 6d 24 2c be
       0.056000683 0.1664236 -0.029400289 -0.1681077
000250 97 27 05 bd 2e a6 eb 3d 07 9e 76 3d c6 eb 17 3e
       -0.03250846 0.11506306 0.0602093 0.14836034
000260 f0 51 9a 3d 04 91 60 bc 25 65 08 bd 1b 7a 9e 3e
       0.075351596 -0.013706449 -0.033299584 0.30952534
000270 32 e2 6c bd 2d 50 03 3e ad 80 9d bb fa e8 2b be
       -0.057832904 0.12823553 -0.004806599 -0.16788092
000280 e8 f0 06 be 88 f3 6f be 78 54 93 3d 9c 59 83 3d
       -0.13177836 -0.23432744 0.071938455 0.06413576
000290 80 9e 97 3d e3 5a 28 be 6f 42 ac 3d 12 46 69 3d
       0.07403278 -0.1644092 0.08411109 0.05695159
0002a0 d8 7d 7c 3e 68 78 0d be 57 7a 03 be 95 60 2e bd
       0.2465738 -0.13815463 -0.12839638 -0.042572577
0002b0 cd 67 09 3e 49 80 1b 3e 01 7f 65 3d fa 6b ac bc
       0.13418503 0.15185656 0.056029323 -0.021047581
0002c0 7c b3 73 be d5 a8 6a bd b3 a2 ea 3c 01 af aa bc
       -0.23798937 -0.057289917 0.028642034 -0.020835401
0002d0 69 65 ff 3d 5a a4 86 3d 3f 66 91 3e e1 c0 98 3d
       0.12470514 0.06574316 0.2839832 0.07458664
0002e0 d9 2d a3 3d 90 a6 20 bd 1f bb 5d bd e2 f0 f3 3d
       0.07967729 -0.039221346 -0.05413353 0.11911179
0002f0 f2 29 cf 3c 87 72 4e be 91 de 58 be b1 6c 24 3e
       0.025288556 -0.20160876 -0.21178652 0.16057087
000300 1e d5 f0 3b 4f 08 8a bc cc a1 61 3d 05 71 c3 be
       0.0073496243 -0.016849665 0.055085942 -0.38172165
000310 e2 80 09 3d c5 20 b9 be 87 eb 5c 3e 50 9a 72 bd
       0.033570178 -0.36157814 0.21574222 -0.059229195
000320 28 75 27 3e 54 b4 74 3d 16 9d b5 3d 71 3e f1 3c
       0.16353285 0.059742287 0.088678524 0.02944872
000330 73 1b 33 bd 96 e1 01 3e f0 e5 66 be 96 fe a4 3e
       -0.04372735 0.1268371 -0.22548652 0.32225484
000340 84 5a db 3d 5e 91 4b 3e 4e a1 61 bd 84 59 85 bd
       0.10710624 0.19879672 -0.055085473 -0.065112144
000350 93 47 24 3e 61 48 a4 bd e5 74 4c 3d 1a 92 24 be
       0.16042928 -0.08021618 0.049916167 -0.16071358
000360 10 05 4c 3e 10 c8 12 3e a9 84 f2 3d 14 71 5b bd
       0.19923806 0.1433413 0.11841709 -0.053574637
000370 b4 a9 0d be 3f 42 9b bd 32 9b 0c be 9b 6a 22 3d
       -0.13834268 -0.07580995 -0.13731077 0.03965245
000380 84 ba d2 3d 51 c9 16 bc 31 29 f9 bc a4 46 2e 3e
       0.10289481 -0.009203271 -0.03041515 0.17019135
000390 7b 56 0c 3e d0 78 99 3d 5f e8 54 be 22 1d 42 be
       0.13704865 0.07493746 -0.20791768 -0.18956426
0003a0 ae 7f 83 3b dd 51 6e 3d 5a e4 fd bb 4b 1a b6 bb
       0.0040130233 0.05818354 -0.007748169 -0.0055573336
0003b0 e4 7f b5 bd bb cd 58 be 4b 8f 54 be ae 5f aa bd
       -0.08862284 -0.2117223 -0.20757787 -0.08319031
0003c0 3c f9 e4 3b 7a 74 b8 3d d4 6e cd bc 89 b0 8f bd
       0.006987719 0.09006591 -0.025077261 -0.07016093
0003d0 a2 4b 4e bd 7a dd 3f bd 8c fa 11 bd 93 01 f6 bd
       -0.050365098 -0.046842076 -0.03563933 -0.12012019
0003e0 ac f0 51 be a8 84 19 3d 81 13 86 3d 01 21 89 be
       -0.20501965 0.037480026 0.06546689 -0.26782992
0003f0 aa ff ea 3c 53 38 66 3d bf 13 35 3e b2 16 0d 3e
       0.028686363 0.05620606 0.17683314 0.13778189

fc2.bias f4 [256]
000000 8b f3 1d be 29 84 80 3d 9d 2e 00 be 92 0e 41 bb
       -0.15424936 0.062752075 -0.12517782 -0.0029458147
000010 61 61 37 be a1 4b b5 3c 4f 4f 87 bd 4d e8 9d bd
       -0.17908241 0.02213079 -0.06606924 -0.077103235
000020 69 b2 bb 3d c4 72 17 3d 35 37 64 bc 50 63 b6 3b
       0.091648884 0.036974683 -0.013929178 0.005566038
000030 be 41 84 3d 38 de 5e bd a1 77 69 bd 22 6b 02 3d
       0.06457852 -0.054411143 -0.056998853 0.03184045
000040 4a d1 53 bd ac 7e d2 bd 0f 27 a5 bd 33 28 3d bd
       -0.051713265 -0.10278067 -0.080640905 -0.046180915
000050 c7 9f 29 bc b8 47 27 3d bd 1d 9c 3d 2a 10 ba 3d
       -0.010353035 0.04083988 0.076228596 0.09085114
000060 79 1f 6f 3d 32 4a b4 bd 46 1e 0b 3c 64 be c7 bd
       0.058379624 -0.08803214 0.0084911045 -0.09753111
000070 ca 2b 68 bc ef 46 0d 3d b1 65 2e 3d db c7 1e be
       -0.014170596 0.034491476 0.04257745 -0.15505926
000080 3d 65 c4 3d 0c 9e 46 3b e0 bb cf 3d 6b 10 c3 bd
       0.09589622 0.0030306606 0.10143256 -0.09524616
000090 31 30 f0 bc 0f 1c 2b be 3a 18 d7 bd 44 5a 29 3e
       -0.029319854 -0.16709922 -0.10502668 0.1653834
0000a0 a8 f3 8b bd f3 8b 49 3d a9 5f 8c 3e 3d 4f 1d 3d
       -0.06833583 0.04920573 0.27416733 0.038405646
0000b0 5c 3e b1 3a c9 5e f1 bd 07 b0 6e bd 00 59 15 be
       0.0013522613 -0.11785657 -0.05827334 -0.14584732
0000c0 0e ae af 3b 2f 15 06 3d df f8 37 bd 12 71 a4 bd
       0.005361325 0.032735046 -0.044915076 -0.08029379
0000d0 9e 31 12 be ed 5a 1b 3d 61 63 04 3e e5 6a e3 bc
       -0.1427674 0.03792851 0.12928535 -0.027760932
0000e0 ac a8 5d 3c a4 62 64 be 3f 29 dd bc 53 c9 97 3d
       0.013528984 -0.22303253 -0.026997207 0.074114464
0000f0 31 ed fd bc 01 dc b8 3d 45 87 04 be f6 fd 62 bd
       -0.03099689 0.090263374 -0.12942226 -0.055417977
000100 38 57 17 3d 46 3d 9e bd 51 e8 8f 3d a1 4d 6f bd
       0.036948413 -0.07726531 0.07026733 -0.058423642
000110 8e ef ac bc 7d 78 14 be 0f da 4d bd 01 31 ac bd
       -0.021110322 -0.14499088 -0.050256785 -0.08407784
000120 36 6f 49 be 30 68 8a 3c 09 d8 cf bd d5 6f 3f bd
       -0.1967133 0.016895384 -0.10148627 -0.04673751
000130 18 a8 41 3d 17 d1 96 bd 2b 63 bd 3b 97 68 54 3a
       0.047279447 -0.073640995 0.005779644 0.00081027433
000140 fd a2 f3 3d f5 34 8d bd 92 19 16 bc 2c 05 b7 3c
       0.11896322 -0.068948664 -0.00916137 0.022341333
000150 6c dd e0 bb 41 49 5e 3d 47 4b 94 3d a0 41 07 bc
       -0.006862333 0.05426908 0.072409205 -0.008255392
000160 e3 89 d7 3d 62 00 9e 3c d9 bc 2c bd 37 39 2f 3d
       0.10524347 0.019287292 -0.042172287 0.042779174
000170 e9 ed c5 bd 79 cb 5f be c5 35 13 bd 3c 2d 05 3e
       -0.096645184 -0.21854962 -0.03593995 0.13005537
000180 aa 44 f7 3c d8 c5 8d 3d af 75 9c bd c5 58 0c bd
       0.030184109 0.06922501 -0.07639634 -0.034264345
000190 2f 9b 7b bd 40 9a 3b 3d 88 a0 30 3c aa 34 78 bb
       -0.06142729 0.0458014 0.010780461 -0.0037873187
0001a0 89 b2 1e 3e b1 e1 83 3b 0e d9 4d bc e5 6d 07 be
       0.15497793 0.0040247072 -0.012563957 -0.13225515
0001b0 28 f7 02 be 03 44 ba bb 27 ed 1c bd 23 e7 18 be
       -0.12789595 -0.005684377 -0.038312104 -0.14931922
0001c0 bf 25 0c be 57 25 51 be bc aa fd bd 29 aa 24 bd
       -0.13686274 -0.204244 -0.123860806 -0.04020134
0001d0 41 b6 0d be 86 fb 0b be 13 f9 9a 3c 94 6e 6f bd
       -0.13839056 -0.13670167 0.018917596 -0.058455065
0001e0 83 96 08 3d 8c 50 d9 bd e3 65 bc bc dd e6 57 be
       0.033346664 -0.10611066 -0.022997802 -0.21084161
0001f0 2d 3f 18 3e 9e 28 df bd 47 ca df bc c0 ef 5f bc
       0.1486785 -0.10896419 -0.027318133 -0.013668001
000200 d3 c7 7a bd e6 a4 88 3d ab 69 cb bb 80 5a e8 bd
       -0.061225723 0.06672077 -0.006207665 -0.113453865
000210 fd 50 00 bd e4 15 01 be ed c8 bb 3d af 23 6a be
       -0.031327236 -0.12606007 0.09169183 -0.22865175
000220 3d ad c1 bc 80 5d ba bd 28 bf 66 be 7c 1d 7d be
       -0.023642177 -0.09099865 -0.22533858 -0.24718279
000230 1f 85 21 3d 80 d4 48 3d 89 8a 97 bc 2a ca b5 bd
       0.039433595 0.04903078 -0.018498676 -0.0887645
000240 b6 a2 01 bc 1d e6 9f bd 97 e1 ea bc e6 e3 b5 3a
       -0.0079123285 -0.078075625 -0.028672023 0.0013877123
000250 84 c9 12 be 72 b3 bd bd a1 db 65 3d 6a 65 28 be
       -0.14334685 -0.09262742 0.056117658 -0.16444936
000260 41 52 83 bd 3e 03 27 3e 74 61 64 bd 5a 50 16 be
       -0.06412173 0.1630983 -0.055757 -0.14679089
000270 1d 73 33 bc 59 2c 93 3d 43 80 78 be de a0 66 bc
       -0.010952738 0.07186193 -0.24267678 -0.01407644
000280 5c a8 c9 bd a2 73 3a bd 42 a0 a7 3d 94 08 df bd
       -0.09846565 -0.045520432 0.081848636 -0.10890308
000290 0a d7 15 3d 49 c4 55 be 56 4a 86 3d 04 75 b6 3d
       0.03658203 -0.20875658 0.06557147 0.08909038
0002a0 08 ed ba bd 50 ba 84 be 6b 13 75 3d 43 ec 50 3d
       -0.091272414 -0.25923395 0.05983297 0.051006567
0002b0 69 34 1e be 74 21 36 be 19 5b b3 3c 57 14 99 ba
       -0.1544968 -0.17786199 0.021894025 -0.0011679035
0002c0 5b 7f 6c be 23 1b cf bc 23 56 16 be 63 60 38 be
       -0.23095457 -0.025281494 -0.14681296 -0.18005519
0002d0 f7 cc f3 bd 48 1c 35 bc 61 bc 9c bd cd 2c 10 be
       -0.11904328 -0.011054106 -0.07653118 -0.1407959
0002e0 32 5c 3c be 94 99 8b bc 5f ea 80 3d 04 72 dc bd
       -0.18394545 -0.017041005 0.06294703 -0.10763934
0002f0 50 a7 7c 3b 44 fd 36 3d ee 08 0a be 51 55 80 3d
       0.0038551874 0.044675127 -0.13479969 0.06266273
000300 28 4d d0 bd 40 03 10 bd f5 38 27 3b 11 e1 90 3d
       -0.101709664 -0.03515935 0.0025516127 0.07074178
000310 8f a9 25 bd 85 02 78 3d 94 c8 74 bd 7e a1 7a bd
       -0.040444907 0.060549278 -0.0597616 -0.061189167
000320 6f 90 2f 3d 05 44 9a bd 54 fa 62 bd be 19 fd 3b
       0.042862352 -0.07532505 -0.055414513 0.007724016
000330 04 7c c7 3d ad ee fb bd a5 03 02 be 80 92 51 be
       0.09740451 -0.12301383 -0.12696703 -0.20466042
000340 b0 19 a6 bd 1a 3f 06 be fd 4d 51 be 28 a8 52 3e
       -0.08110368 -0.13110009 -0.20439906 0.20571959
000350 04 ad 52 3c a0 dd df 3c b9 ab bc bd ec a7 2e be
       0.012858633 0.027327359 -0.09212441 -0.17056245
000360 f7 da d8 3d 6e ed f4 bd 30 23 6b bd d1 81 bd bb
       0.10588639 -0.119593486 -0.057406604 -0.0057832976
000370 30 ef 06 bd c6 bc 93 bc 6f 11 5e bb 66 50 bd 3b
       -0.03294295 -0.01803435 -0.0033884903 0.0057774065
000380 37 5c 55 3d 42 02 11 3d 6a b4 5d bd 36 5c 1c 3e
       0.052089896 0.035402544 -0.054127134 0.1526955
000390 1b 02 b0 3d f1 82 b0 bb 1c 48 cd bd 02 d7 6a 3c
       0.085941516 -0.005386703 -0.100235194 0.014333488
0003a0 1d 4e 08 3d c5 2f 63 be 65 2f 9b 3b 4b ea c3 3d
       0.03327762 -0.22186191 0.0047358745 0.09566172
0003b0 49 0c 9c 3d 53 d6 e1 bd 54 62 85 3d 48 48 e1 3c
       0.07619531 -0.11027207 0.06512895 0.027500287
0003c0 ac 69 d9 3c db 50 dd 3d 92 de d9 bd cb 6f 0b bd
       0.026539646 0.108064376 -0.10638155 -0.03404216
0003d0 2d 3d 5a 3b 45 69 52 be da 04 e1 3d ea d5 4d bd
       0.0033300624 -0.2054797 0.109872535 -0.050252832
0003e0 f4 9b ba bc 38 ea 77 be 84 2c 01 bd bb 5a 10 3c
       -0.022779442 -0.24210441 -0.031536594 0.008810694
0003f0 8a df 84 3d e2 87 b3 bc 9b 8c 81 bd a9 1c ac 3d
       0.06487949 -0.02191538 -0.063256465 0.08403904

fc3.weight f4 [4, 256]
000000 dd e6 d2 bd b2 75 d3 be 03 85 9f 3e 12 f9 9e be
       -0.1029794 -0.41300732 0.31156167 -0.310494
000010 db 49 44 3f 7e d1 94 3e 5f 2c 2b 3e 45 30 a4 3c
       0.76675195 0.2906608 0.16716145 0.020042548
000020 12 ff bd be 5b 18 97 be d5 11 ca bc ca c9 54 be
       -0.37108666 -0.2951077 -0.024666706 -0.20780101
000030 80 a0 a5 be f8 06 74 3c 7b 66 b5 be bb ac ec 3e
       -0.32349014 0.01489424 -0.3542975 0.46225533
000040 53 6b 9b be 8b f5 69 be 37 4a 7b 3e 56 79 7c be
       -0.3035532 -0.22847573 0.2454003 -0.24655661
000050 41 a6 94 bd cc 3d 45 be 99 f6 e9 bd cf 02 e7 3d
       -0.07258273 -0.19261855 -0.11423988 0.112798326
000060 a5 72 c6 be b0 47 4f 3c 9b fe 52 be 16 9d 37 3e
       -0.38759342 0.012651369 -0.20604937 0.17931017
000070 52 d7 06 3f 3d 39 b3 3a 28 5c 72 be a5 6d 1c 3e
       0.526723 0.0013673675 -0.23667967 0.15276201
000080 42 52 7c 3d 3d dc fa 3e 7b d9 26 be dd 49 49 3e
       0.061601885 0.48996153 -0.162939 0.19657083
000090 f5 76 85 bd f9 01 e4 3c 0f 09 9a 3d b4 1b a8 3d
       -0.0651683 0.027832972 0.07521259 0.08208409
0000a0 bd 34 91 3d ce 5d 73 bd 2c 57 34 be 04 c8 0b 3f
       0.07090137 -0.05941563 -0.17611378 0.54602075
0000b0 f4 64 37 3e 36 48 61 3e 1d 23 e8 be 9c da 8b 3e
       0.17909604 0.22000203 -0.4533929 0.27315223
0000c0 36 c3 c1 3e 8b 20 4e 3c 54 2a 88 3e 8d 1d 7a be
       0.37844247 0.012581001 0.26594794 -0.24425335
0000d0 9c bc 96 be 0a 3d 39 3e bf d9 53 be df 04 64 3e
       -0.29440773 0.18089691 -0.20688532 0.22267483
0000e0 83 09 5e 3e e3 e8 cf 3e 35 b0 73 be 33 ae 24 3e
       0.21683316 0.40607366 -0.23797686 0.16082077
0000f0 7e 87 89 be 23 70 8d be b3 7e b4 3d 2e 8d 29 be
       -0.26861185 -0.27624616 0.088132285 -0.16557762
000100 a9 2d 8e be 4b c8 c5 bd 5b b9 b1 3d 71 34 6f be
       -0.2776921 -0.096573435 0.08677932 -0.23359849
000110 b6 f8 c4 bc 2e f6 42 bd ae e7 05 3d 6a 68 ce 3e
       -0.024044376 -0.047598056 0.03269165 0.40314037
000120 27 77 89 be 8b 4e 46 be 06 75 02 be bc 64 18 bf
       -0.2684872 -0.193659 -0.12739953 -0.5952871
000130 a4 1d 8f be ad ba 8a be 98 1f c3 3e 97 fa c6 3e
       -0.27952302 -0.27095547 0.38110042 0.3886306
000140 ee b4 2d be bf 1c f6 3e 77 a8 b6 3d b6 22 af bd
       -0.1696355 0.48068807 0.08918851 -0.085515425
000150 67 9a 7e 3d 7f 97 6d be bc 73 04 3d 98 b4 96 bd
       0.06215897 -0.23202322 0.032336935 -0.07358664
000160 b8 65 05 be f5 b2 4c be 86 ec 10 be e1 10 47 be
       -0.13027084 -0.19990142 -0.14152727 -0.19440033
000170 07 ad 11 3d d9 b9 1b 3f 84 fc 12 be 7c 2d 7c be
       0.035565402 0.60830456 -0.1435414 -0.24626726
000180 7b 55 72 3e 5f a1 46 be 2f 94 8f 3e 24 14 5c 3d
       0.2366542 -0.19397496 0.28042743 0.053730145
000190 23 56 cd bd 6e 36 91 be ea ed bd be 9b 8b c1 be
       -0.10026195 -0.2836184 -0.37095577 -0.37801823
0001a0 19 0b b8 be 29 ed b9 be 07 c4 14 bd ca c5 2e 3f
       -0.35945967 -0.3631375 -0.03631976 0.6827055
0001b0 19 37 e6 be 08 a3 ab be 7b 30 1f 3d 74 25 0f 3f
       -0.4496391 -0.3352282 0.038864594 0.55916524
0001c0 12 a2 6a 3e 24 31 d4 3e 1e 29 ee bc d4 f6 2a 3f
       0.22913387 0.4144374 -0.02907234 0.6678288
0001d0 c3 3a e6 3e 74 6d 95 3e a5 d3 ac 3d 73 14 7b 3e
       0.44966707 0.2918507 0.084388055 0.2451952
0001e0 be 57 0c 3d 56 a7 be 3e f3 ef 2a 3f 86 4c 8c 3e
       0.034263365 0.37237042 0.66772383 0.27402133
0001f0 37 dd 91 bd b2 f8 b5 be 51 51 15 bd 4f e7 46 be
       -0.071222715 -0.35541302 -0.036454502 -0.19424175
000200 80 bf 0d 3f 97 c4 4a be f1 21 9e 3e d4 b8 95 3e
       0.5537033 -0.19801556 0.3088527 0.29242575
000210 5b e2 43 3e a9 5b 14 3f f1 ad bf bc 43 25 f0 3e
       0.19129317 0.5795236 -0.023398371 0.46903428
000220 fb 7a 9d 3e 47 80 bc bd 21 07 12 3f e5 65 49 3f
       0.3075789 -0.092041545 0.5704213 0.78671104
000230 b2 73 95 be 64 c8 1d 3f 60 29 36 be eb 84 a6 3e
       -0.2918983 0.61633897 -0.17789221 0.32523283
000240 19 58 24 bd b7 65 52 be 60 51 cb be 1c 14 ee 3e
       -0.04012308 -0.20546614 -0.39710522 0.46499717
000250 bf 7f 8f 3e 74 6b bc be 58 6c 11 be 94 b0 47 3f
       0.2802715 -0.3680073 -0.14201486 0.7800381
000260 57 9f e5 bd bd 06 b5 3d cb 5b 9c be 23 93 b4 3e
       -0.11212032 0.08839176 -0.30538782 0.35268506
000270 e4 b0 41 be cd 39 cd bd c8 0e fa 3e 28 2f aa be
       -0.18915135 -0.1002079 0.48839402 -0.33239102
000280 8e 84 b4 3e b5 81 a6 3c 86 9c 41 be c7 d7 00 bf
       0.3525738 0.020325521 -0.18907365 -0.5032925
000290 4b 36 32 3e 0d 60 07 3f 7c 5b 87 3e 7f 2f ca 3e
       0.17403524 0.52880937 0.26436985 0.39489362
0002a0 d2 2c b7 3e 57 b2 c3 bd 51 fc 3b bb 3f fc 19 be
       0.35776383 -0.095555 -0.0028684328 -0.1503763
0002b0 51 fd 78 3e de 29 8f be 5d 73 9b 3e 34 9d 88 be
       0.24315383 -0.2796163 0.30361453 -0.26682436
0002c0 dc 4d fb bd 55 fa 66 be 98 ff 14 be bc b9 ee 3e
       -0.1227071 -0.22556432 -0.14550626 0.4662608
0002d0 17 f4 63 bb a8 c3 dd bd 78 34 66 3e 64 95 95 3e
       -0.003478294 -0.10828334 0.22480953 0.29215539
0002e0 01 d9 09 be a6 a1 2a 3e d0 61 02 be 8a 71 1d 3b
       -0.13461687 0.16663226 -0.12732625 0.0024023973
0002f0 18 c3 e7 3c f8 53 39 be ca 4c 15 3d ff 3e 8f be
       0.02829127 -0.18098438 0.036450185 -0.2797775
000300 ea f8 24 3e a8 e2 e2 be 27 26 0a be ab e6 65 3e
       0.16110578 -0.4431355 -0.13491116 0.22451274
000310 18 51 ed 3d 8e 48 dd 3d 6e 86 7a bd 46 99 c2 3d
       0.11587733 0.10804854 -0.06116336 0.09501891
000320 55 15 0e bf 55 9c 0c bf 9a 5d fd 3e e0 87 e8 bd
       -0.555013 -0.54926044 0.49485475 -0.11354041
000330 75 1f 42 3e 60 c0 c1 bd 87 8e 8b 3c 4e 52 41 3f
       0.18957312 -0.09460521 0.017035736 0.7551621
000340 8c 8f 4e 3e a4 a9 ad 3e 8b ba 0d 3e bf 05 48 be
       0.20171946 0.33918488 0.13840692 -0.19533442
000350 3c ac 88 be 1e a7 c5 bd e9 38 b4 3e 56 e2 8f 3e
       -0.26693904 -0.09651016 0.3519967 0.28102368
000360 9c d5 5f be ae 2d 87 be 94 ba ea bd 0f d4 5a be
       -0.2185883 -0.26402038 -0.11461368 -0.21369956
000370 1e f0 b1 be 9e 70 2a be bd 25 c8 be f7 88 eb 3d
       -0.34753507 -0.16644523 -0.39091292 0.11500733
000380 92 50 b7 be ab 7a b3 3e cc 68 83 3e 5e 22 c6 3e
       -0.35803658 0.35054526 0.2566589 0.38698095
000390 1b 3f 23 be ed a8 b8 be 02 59 83 3e bd 1d a4 be
       -0.15942042 -0.3606638 0.25653845 -0.32053939
0003a0 1a dd c4 be 37 93 19 be 04 1e b0 bd 44 95 20 be
       -0.38449937 -0.14997564 -0.08599475 -0.1568194
0003b0 7a 42 7a 3c 62 b8 f0 be de 61 6d bd e9 58 74 be
       0.015274638 -0.47015673 -0.05795466 -0.23862042
0003c0 62 e6 43 be 33 29 cc bd 06 7a 0d 3f c8 1a 34 be
       -0.19130853 -0.099687956 0.5526432 -0.17588341
0003d0 9a 54 1a 3f 34 c0 81 3e de dc 11 be ab 41 f9 bc
       0.6028534 0.25341952 -0.1424441 -0.03042682
0003e0 00 9d 8f 3d a4 b8 32 3c d2 33 0a be dc 5b 9c be
       0.07012367 0.01090828 -0.1349633 -0.30538833
0003f0 f4 38 ce be 90 f9 3a be f3 07 0b 3f 5e d8 31 3e
       -0.40277827 -0.18259263 0.54309005 0.17367694

fc3.bias f4 [4]
000000 57 b5 77 be 71 29 60 bd 84 7d 0a 3e 11 20 46 3d
       -0.2419027 -0.05472702 0.13524443 0.048370425

bn1.weight f4 [256]
000000 1e 69 12 3f ca b7 97 3f 3c ca 24 3f 29 3d 9c 3f
       0.57191646 1.1852963 0.64371085 1.2206165
000010 e2 c5 8e 3f 62 71 d6 3e 0f d2 34 3f 4a a9 07 3f
       1.1154139 0.4188338 0.70633024 0.5299269
000020 db b5 95 3f 4f 0c 88 3f 84 48 56 3f 1c 16 75 3f
       1.1696123 1.0628756 0.837044 0.9573686
000030 6a 65 84 3f 20 e1 91 3f df d6 5d 3f e8 45 12 3f
       1.0343449 1.1396828 0.8665599 0.5713792
000040 26 8e 94 3f fc 87 1c 3f 1d 40 81 3f 5f d5 8a 3f
       1.160588 0.61144996 1.0097691 1.0846366
000050 73 6c 81 3f f6 6a a0 3f 1a fd 0c 3f 88 d6 ff 3e
       1.0111221 1.2532642 0.550737 0.49968362
000060 97 97 1b 3f 02 ce 18 3f 0e 1f 47 3f 64 e0 94 3f
       0.6077818 0.5968934 0.7778176 1.1630979
000070 bd bf 65 3f 90 aa 73 3f 67 d8 25 3f 3f b8 9a 3f
       0.89745694 0.9518213 0.6478333 1.2087477
000080 7f 75 84 3f 11 19 9a 3f 2f 35 06 3f c3 23 08 3f
       1.0348357 1.20389 0.524249 0.5317957
000090 fa 13 49 3f 26 df 2a 3f a9 55 67 3f 11 31 81 3f
       0.78546107 0.6674675 0.9036508 1.0093099
0000a0 19 3e fb 3e b7 67 46 3f 94 a5 3b 3f c1 89 1c 3f
       0.49070814 0.77502006 0.7329953 0.61147696
0000b0 63 78 96 3f 1a 64 83 3f ba e8 8c 3f e4 af f4 3e
       1.1755489 1.0264924 1.1008523 0.47790444
0000c0 33 f8 1b 3f df 91 88 3f 6f 3e 8c 3f a3 ab 99 3f
       0.60925597 1.0669516 1.0956553 1.2005504
0000d0 e5 e2 92 3f 9d 97 a2 3f 9c 76 04 3f 98 61 58 3f
       1.1475493 1.2702519 0.51743484 0.84523916
0000e0 1e 10 73 3f 62 4b 60 3f 16 6f 88 3f 97 b4 8f 3f
       0.9494647 0.87615025 1.0658901 1.1226987
0000f0 6d 25 37 3f f2 fd 6e 3f 02 31 f3 3e b2 0b 1d 3f
       0.7154148 0.9335624 0.47498327 0.6134597
000100 70 e8 bd 3e 3d 5e 53 3f 21 29 d5 3e 7e 51 74 3f
       0.37091398 0.8256567 0.4163294 0.9543685
000110 be 06 2d 3f 32 7b 39 3f 7d 8d a3 3f 4c 38 dd 3e
       0.6758841 0.72453606 1.2777554 0.43207014
000120 5a 00 0d 3f 58 ba 5c 3f e7 73 43 3f 91 cc 6a 3f
       0.5507866 0.8622184 0.7634873 0.91718394
000130 38 b3 9a 3f c0 12 77 3f 3b 58 8e 3f 32 bf 47 3f
       1.2085943 0.96512985 1.1120676 0.78026116
000140 79 10 66 3f 81 49 54 3f 93 f2 b6 3f 20 03 90 3f
       0.89868885 0.8292466 1.4292778 1.1250954
000150 f7 46 7e 3f 1f 86 6f 3f 99 db 59 3f 79 4a 3e 3f
       0.99327034 0.9356403 0.85100704 0.74332386
000160 47 38 42 3f c4 5f 04 3f 7f aa d7 3e 30 46 a6 3e
       0.7586712 0.51708627 0.42122266 0.32475424
000170 e5 1f 8e 3f 08 c8 74 3f d2 af a7 3f b5 4f fa 3e
       1.1103483 0.95617723 1.3100531 0.48888937
000180 2e 4c 91 3f 8f ec fe 3e 04 21 28 3f 9e 10 8b 3f
       1.1351373 0.49789855 0.6567538 1.0864446
000190 ff 0d 00 3f 91 3e 99 3f a9 69 bb 3e 1b 00 8e 3f
       0.50021356 1.1972219 0.3660405 1.1093782
0001a0 4a 0f 9f 3f 57 53 8f 3f 5f be 6b 3f 40 c2 92 3f
       1.2426541 1.1197308 0.9208736 1.146553
0001b0 81 5b 6b 3f 65 3b a5 3f d9 28 db 3e 68 e3 17 3f
       0.919365 1.2908751 0.42804602 0.5933137
0001c0 9d 12 2a 3f e9 8c 9d 3f c1 d0 71 3f 8d c2 47 3f
       0.6643465 1.2308627 0.9445916 0.78031236
0001d0 d8 19 52 3f 00 de a0 3f 6b 14 9e 3f 31 4b 12 3f
       0.82070684 1.2567749 1.2349981 0.57145983
0001e0 f6 72 51 3f 54 b3 9d 3f ee d6 00 3f 45 cc 95 3f
       0.8181604 1.2320352 0.50327957 1.1702963
0001f0 c2 cc 67 3f e8 18 25 3f b0 6e e3 3e a8 54 83 3f
       0.9054681 0.6449113 0.44420385 1.026021
000200 21 fc 0a 3f 2d 7e 91 3f 7c d1 72 3f 3b 9a 33 3f
       0.5429097 1.1366631 0.948509 0.7015721
000210 0b 58 32 3f 43 8b ca 3e 03 16 86 3f e2 cd 7c 3f
       0.6966559 0.39559373 1.0475467 0.9875165
000220 4c 4f 2a 3f e7 d9 e7 3e 1b 8e 1b 3f 9d c5 2c 3f
       0.6652725 0.45283434 0.6076371 0.67489034
000230 4f 04 79 3f 72 6f fb 3e 6e e0 35 3f 92 e5 82 3f
       0.972722 0.49108464 0.7104558 1.0226309
000240 3c 8d 1b 3f b7 f4 b0 3f 15 2e 07 3f f7 66 65 3f
       0.6076238 1.3824681 0.5280469 0.89610237
000250 76 04 36 3f 1f b6 67 3f 66 7f 89 3f c9 6a 46 3f
       0.71100557 0.9051227 1.0742004 0.7750669
000260 38 18 81 3f 8c e2 05 3f cf e2 6f 3f d5 a5 e6 3e
       1.0085516 0.5229881 0.9370546 0.45048395
000270 f0 cb 6c 3f cf 41 8b 3f cf 06 8e 3f f0 49 86 3f
       0.92498684 1.0879458 1.1095828 1.0491314
000280 21 a6 44 3f 2c 54 8f 3f 0b f0 71 3f 62 44 63 3f
       0.7681599 1.1197562 0.945069 0.8877622
000290 63 39 04 3f 3b a3 72 3f 74 36 3a 3f fc c8 38 3f
       0.51650065 0.9478032 0.7273934 0.7218168
0002a0 47 65 42 3f 9e 1d 08 3f ba de a4 3f f1 78 2e 3f
       0.75935787 0.5317019 1.2880471 0.6815329
0002b0 ff 2b 25 3f 15 3c 06 3f af ec da 3e 41 39 88 3f
       0.6452026 0.5243543 0.427587 1.0642473
0002c0 04 2a 78 3f 81 2e 89 3f a4 72 0f 3f f8 7d 1d 3f
       0.9693911 1.0717317 0.560343 0.6152034
0002d0 f1 6c ae 3f 00 88 92 3f e5 08 e1 3e 0b 29 6d 3f
       1.3626996 1.1447754 0.43952098 0.9264075
0002e0 c6 38 62 3f 34 0c 62 3f d1 76 84 3f 6c a5 10 3f
       0.8836788 0.8829987 1.034876 0.56502414
0002f0 06 cd 10 3f 17 57 61 3f 5c 3a 1c 3f 71 03 91 3f
       0.5656284 0.88023514 0.6102655 1.1329175
000300 33 07 62 3f 4e 22 68 3f 68 f7 8b 3f 8c 4e 38 3f
       0.88292235 0.90677345 1.0934877 0.71994853
000310 fd 32 2e 3f 1c e4 04 3f 49 3d 57 3f 25 17 59 3f
       0.6804655 0.5191057 0.8407789 0.8480094
000320 7b 21 14 3f 71 5d 50 3f 08 ba fb 3e cd 97 00 3f
       0.5786359 0.8139258 0.49165368 0.5023163
000330 2e 6f 4f 3f 22 b2 6e 3f 0b 98 ac 3f f7 99 33 3f
       0.8102902 0.9324056 1.34839 0.70156807
000340 4e 9a 8d 3f ca a0 3a 3f f2 b3 88 3f 25 dd 83 3f
       1.1062715 0.72901595 1.0679915 1.0301863
000350 75 31 26 3f 0e 24 89 3f 7c 0a 63 3f f4 18 6f 3f
       0.64919215 1.0714128 0.8868787 0.9339745
000360 a6 b4 32 3f b4 7c 90 3f 22 71 8a 3f 43 1d 94 3f
       0.698069 1.1288056 1.0815775 1.157143
000370 f6 d4 25 3f c3 ef 79 3f 1c ce 88 3f 68 67 86 3f
       0.6477808 0.9763147 1.06879 1.0500307
000380 9f bf 00 3f 64 85 ee 3e c4 89 79 3f b5 d2 23 3f
       0.5029239 0.46586144 0.9747584 0.6399339
000390 c4 1a 2e 3f 5b 63 2b 3f ac 03 6a 3f ed 8f 61 3f
       0.6800959 0.6694848 0.9141185 0.8811024
0003a0 3a c3 9e 3f 21 f4 57 3f e5 e4 8e 3f f5 59 a0 3f
       1.2403328 0.84356886 1.1163603 1.2527453
0003b0 d1 25 76 3f 2b f9 1a 3f 16 f2 34 3f 9f a0 d3 3e
       0.96151453 0.6053645 0.70681894 0.41333482
0003c0 5c 1c 7e 3f c6 60 82 3f 74 99 f4 3e c7 95 90 3f
       0.9926202 1.0185783 0.47773325 1.1295708
0003d0 af 84 80 3f c4 19 73 3f 56 6d 30 3f 37 dd 87 3f
       1.0040492 0.9496119 0.68916833 1.0614384
0003e0 98 4d 45 3f 21 f7 33 3f 89 62 98 3f da 79 8f 3f
       0.77071524 0.70298964 1.190507 1.1209061
0003f0 a3 25 a5 3f d8 55 66 3f af ca 7f 3f 5f 5f 0c 3f
       1.2902111 0.8997474 0.99918646 0.54833025

bn1.bias f4 [256]
000000 76 58 43 3e 43 e8 8c 3e 31 26 5f be 71 3b 9b 3d
       0.19076714 0.27520952 -0.21791913 0.07579697
000010 db 80 45 be 38 fd b1 3d 0e 5a 49 3e 61 f2 e9 3d
       -0.19287436 0.08690876 0.1966326 0.11423183
000020 51 6b 4b 3c 4c 07 ce 3d 2e d5 17 3e f0 a3 28 bd
       0.012415723 0.100599855 0.14827415 -0.041171968
000030 76 dd aa 3d 95 4d f6 3b 15 2e 81 3d 83 2d 25 3e
       0.083430216 0.0075165727 0.063076176 0.16130643
000040 31 b8 05 be 05 90 00 3e 48 26 19 bd ee 1c 98 bd
       -0.13058545 0.12554939 -0.037390023 -0.07427393
000050 2a 9b 33 3e 57 2a da 3d 40 25 5d bc e7 30 7f 3e
       0.17539659 0.10652607 -0.013497651 0.24920999
000060 0a 60 fb bd da b2 3d 3d e6 1f d2 bc ca 88 f2 bd
       -0.12274177 0.046313144 -0.025649976 -0.11842497
000070 62 d4 bf 3d 9d 84 42 3e c4 70 f6 bd b6 a3 1d be
       0.09366681 0.189959 -0.12033227 -0.15394482
000080 9b 4e 7e 3e c0 aa 72 3e 8c a7 38 be 5f ae a4 bb
       0.24834673 0.23697948 -0.18032664 -0.0050256695
000090 35 24 a7 3d 27 0d 1a 3d 5b db d4 3c e3 9f 24 3d
       0.08161203 0.0376102 0.025983503 0.040191542
0000a0 73 92 a7 bc 76 35 4f 3d c6 b2 61 bc a0 29 73 bd
       -0.020455575 0.050588094 -0.013775533 -0.05936587
0000b0 67 ab 28 3e 34 d0 a8 bd a7 10 8f 3d 23 76 3b 3e
       0.16471635 -0.082428366 0.06985598 0.18306784
0000c0 e1 40 12 3d c7 c3 00 3e 89 74 e8 bd bc 54 96 3c
       0.035706405 0.12574683 -0.11350352 0.018350951
0000d0 b6 3b ac 3e f6 ca 4c 3e 97 c9 13 3e 22 e2 2e 3e
       0.33639306 0.19999298 0.14432369 0.1707845
0000e0 d5 bd 14 3d 93 0f ea bd a2 d0 48 3b 95 31 a3 bd
       0.03631385 -0.11428752 0.0030641933 -0.079684414
0000f0 49 3b 0b 3e 41 12 bd 3d fc 8d a2 bd ef 83 d7 bd
       0.13596834 0.09231997 -0.079372376 -0.10523211
000100 b8 50 90 bd cb 37 82 3d b6 9f 07 3e ff c0 d4 3d
       -0.07046646 0.06358298 0.13244519 0.103883736
000110 c9 9c 71 bc 9e 3d e1 3d 49 b1 f8 bc 22 35 0a be
       -0.014746853 0.10998081 -0.030357974 -0.13496831
000120 fd d5 27 3d 8c bf 49 3e 71 99 2d 3c 57 1d 13 be
       0.04097556 0.19701976 0.010595665 -0.14366661
000130 ac 7a 3a bc 7c a9 d7 3b 42 ce f3 bd 61 9b 9e 3c
       -0.011381786 0.0065814834 -0.11904575 0.0193612
000140 fc f2 f9 3d 35 58 8a bb 7e 71 0e 3e a6 47 2d be
       0.12204549 -0.004221941 0.13910481 -0.16921863
000150 7f 51 29 bd 15 f7 d2 bb cc bf 44 3e a2 df b5 3d
       -0.041337486 -0.006438146 0.1921379 0.08880545
000160 e2 18 41 3e ec b5 92 3d 6a 9e aa 3d f0 73 5f be
       0.18857148 0.07163605 0.08330996 -0.2182157
000170 ee 3b 9b 3c 7a da 81 3c 62 df 27 bd 91 db 40 bd
       0.018949475 0.015851248 -0.04098452 -0.047084395
000180 ac 0b 23 bc a8 4b a9 ba 70 b7 5e be ca 1c 0d 3e
       -0.009951513 -0.0012916224 -0.21749663 0.13780513
000190 a9 6d e3 3c 28 f7 16 3e ce e9 a6 3a b2 76 0b 3e
       0.027762251 0.1474272 0.0012734474 0.13619497
0001a0 42 ce 2f be e8 00 12 3e da aa a2 3d 60 3c 87 3e
       -0.17168525 0.14258158 0.079427436 0.2641325
0001b0 c8 59 dc 3d 43 b5 ba bd 27 69 e3 bd 7f 9b 5c bd
       0.10759312 -0.09116604 -0.111040406 -0.05385923
0001c0 b3 d4 2a 3d 28 d0 1d 3d fe 7e 33 3e e3 05 ec 3c
       0.041706752 0.03852859 0.17528912 0.0288114
0001d0 8e 28 9a 3d 08 60 48 be f0 8a 49 bc ab b0 ff 3d
       0.075272664 -0.19567883 -0.012301192 0.124848686
0001e0 52 c9 53 3d 74 71 87 bc 25 7c 5c be a6 2b 98 3d
       0.051705666 -0.01653359 -0.21531732 0.074302
0001f0 82 48 5d bb b0 09 11 3c c0 4d a6 bd 41 5c ed 3d
       -0.0033765142 0.008852407 -0.081202984 0.11589862
000200 67 76 1b 3e 6c 53 df 3d b1 82 13 3e fd a2 98 3c
       0.15181886 0.10904583 0.14405324 0.018632406
000210 81 e5 15 3d 69 f6 1f be 03 d4 ce bd 84 f0 dd bd
       0.036595825 -0.15621342 -0.10099032 -0.1083689
000220 dd 8a 2c bd eb c3 2d 3b ef 71 73 3d 7f c3 a3 3c
       -0.042124618 0.0026514481 0.059434827 0.01999068
000230 ac de c8 3c 0d 20 1b 3e 02 82 14 be 61 9e 86 3e
       0.02452024 0.15148945 -0.14502719 0.2629271
000240 11 3b 2a 3d 45 2e e2 bc c2 73 c4 bd aa 41 32 3e
       0.041560236 -0.027609954 -0.095923916 0.17407861
000250 29 d3 11 3d 2a ec 84 be f7 53 c0 3c c0 8a b9 3d
       0.03560177 -0.2596143 0.023477538 0.090596676
000260 93 74 8b 3d 3d 5d fd 3c c6 6f 1c be bd 12 14 be
       0.06809344 0.030928249 -0.15277013 -0.14460273
000270 7d 10 10 3e f4 06 1f 3d 82 c1 c8 3d c0 7e ae 3e
       0.1406879 0.03882499 0.09802534 0.34081078
000280 7b 6d 8d bd 22 fd 1b 3e ad d1 df 3d 3a fe 3f be
       -0.06905647 0.15233281 0.10928664 -0.18749323
000290 88 7a 3e bd 92 04 91 3d e9 5f a5 3c 00 6a 5f be
       -0.046503574 0.0708095 0.020187335 -0.2181778
0002a0 6c 37 44 3e 84 31 19 3d 42 ad 4e 3c 7d f8 e5 3d
       0.19161767 0.037400737 0.01261455 0.11229036
0002b0 37 7b 81 bd 70 a2 9d 3d ae e3 cb bd 58 ae 0d 3e
       -0.063223295 0.07696998 -0.09955536 0.13836038
0002c0 67 32 f1 3b 87 41 06 3e 9f 1b cd 3d 7e 8c a8 bd
       0.0073607448 0.13110934 0.10015034 -0.08229922
0002d0 7d 76 af 3d ed 02 99 bd c8 11 1d be a6 0c 15 bd
       0.08567522 -0.07471261 -0.15338814 -0.036389016
0002e0 66 c6 f2 bb c2 95 61 3e ad dd 83 3e 7a 40 b5 ba
       -0.007408905 0.22029784 0.25755063 -0.001382842
0002f0 44 23 a9 3d 02 29 0d 3d 53 fc e1 3d 1c 40 05 3e
       0.082586795 0.034462936 0.11034455 0.13012737
000300 7a 0d 0a 3e f9 07 9c 3d e5 80 1c be 29 8a 0b 3e
       0.13481703 0.07618708 -0.15283544 0.13626923
000310 26 9c 25 3d cb cb 0e 3e e2 cd 7d be 15 ee 09 3e
       0.040432118 0.13944928 -0.2478557 0.13469727
000320 0a e1 f2 bb 25 f1 31 3e ce 2c c1 bd 17 74 7a bd
       -0.0074120807 0.17377146 -0.09432374 -0.06114587
000330 ca 00 2a 3e d7 6c 2d be c7 fa 82 3d 3d 18 3d be
       0.16601864 -0.1693605 0.06395488 -0.18466277
000340 56 2e 26 3e b0 38 3c be 8c 0a 99 3e ee 2d 0e 3e
       0.16228613 -0.18381 0.2989086 0.13884708
000350 01 c9 c9 bd 88 f7 86 3e f9 51 10 3e 7d 29 07 3e
       -0.098527916 0.26360726 0.1409377 0.1319942
000360 7c 30 75 bd f3 4d f9 bc 4c 87 29 be 78 03 3b 3e
       -0.05986069 -0.030432677 -0.16555518 0.18263042
000370 be 17 03 3e 95 91 f4 3d 9d d4 15 bd a5 02 90 bd
       0.12802026 0.1194183 -0.036579717 -0.070317544
000380 07 05 2b be 71 7a 35 be 4c 40 34 3d cd df d6 bd
       -0.16701137 -0.17722489 0.04400663 -0.10491905
000390 5a ed d8 bd 62 04 8f 3d 09 4a 48 3c 35 d8 21 3e
       -0.10592146 0.06983258 0.012224683 0.15805133
0003a0 a1 9d 35 3d 53 d5 3e 3d b9 e3 8e 3d 78 57 5f be
       0.04433978 0.04659016 0.069770284 -0.2181071
0003b0 8f bd 1f 3d e2 33 0f 3e c0 5b c5 3d 70 7d 59 3d
       0.038999137 0.13984635 0.096366405 0.053098142
0003c0 db da 89 3e ed 25 1e bd b5 aa 96 3d 4d 55 24 3e
       0.26924786 -0.038610388 0.073567785 0.16048165
0003d0 24 da 14 3e 2a 64 6e 3d 04 e1 a0 3b 53 3f 20 3e
       0.14536339 0.058200993 0.0049096365 0.15649156
0003e0 38 16 1f bd 87 a1 73 3d 91 86 ef bd a6 f7 75 3e
       -0.03883955 0.059480216 -0.116955884 0.24020252
0003f0 29 27 b1 3d 0f 8a 7c 3b 4d 1b 09 3e 00 2d 6e 3c
       0.08650047 0.0038534438 0.1338932 0.014537096
