DRLND/P2_Continuous Control/checkpoint_critic.pth (torch_old, 313198 bytes, 13 tensors)

fcs1.weight f4 [256, 33]
000000 a7 9c ee 3b b0 bd 2f 3d 9e b6 bf 3c 89 d9 9b 3d
       0.007281858 0.04290551 0.023402508 0.07609851
000010 6c 6b de 3d f8 80 af 3e ed b5 1e bd 54 d5 77 3c
       0.10860333 0.34278083 -0.038747717 0.015126545
000020 42 33 c2 3d 63 39 d6 bc 58 81 38 3d 11 ec 57 3c
       0.09482433 -0.026150411 0.045045227 0.013178841
000030 c8 61 f1 bb ea 21 43 bb 11 d4 14 bd 67 50 17 3d
       -0.0073663928 -0.0029774853 -0.036335055 0.036941912
000040 c7 74 9b bd 1f bf 0c 3d d8 d9 d6 bc da 63 d7 bd
       -0.07590633 0.034361955 -0.026226923 -0.10517092
000050 3a 14 be bc 66 d4 02 bc a1 41 4c bc 24 6c e2 3c
       -0.023203004 -0.00798521 -0.012466819 0.027639456
000060 c9 dd 04 bd b9 5a ec 3c cd 9b c6 3d 81 ab 0f 3e
       -0.032438073 0.028851854 0.096976854 0.14030267
000070 40 74 a9 bd 00 c0 9a bc 23 7b cc bd 26 b3 40 bd
       -0.08274126 -0.01889038 -0.09984424 -0.04704585
000080 41 07 f2 be 3e 1e 14 bd ac fa 25 be 69 39 88 3d
       -0.4727116 -0.036161654 -0.16208905 0.06651575
000090 ff 0a 25 3a 1e 95 0d 3d 8b eb fb 3d ab b0 8d 3e
       0.0006295889 0.034566037 0.12300786 0.2767385
0000a0 26 42 18 bb a6 2f 84 3d b6 5f 06 bd 6c dc c0 bd
       -0.0023232787 0.06454401 -0.03280612 -0.09417042
0000b0 4f 84 9d bc 8e 55 2b 3c 46 eb d6 bd 14 22 0a 3e
       -0.019228129 0.01045741 -0.104940936 0.13489562
0000c0 8c 6e b2 3c 12 b0 c3 3d 54 17 fc bb 18 fc 03 bd
       0.021781228 0.09555067 -0.0076932106 -0.032222837
0000d0 15 8a b6 bb f7 e0 23 3c 60 e5 82 bc e2 3d e4 bc
       -0.00557066 0.010002366 -0.015978515 -0.02786154
0000e0 54 87 18 bd 95 20 44 3d 8f 17 9e bc e9 2c 40 3d
       -0.037238434 0.047882635 -0.019298343 0.04691783
0000f0 1c 6f a9 3d b2 7b e4 bd 8c 92 b6 bc 25 96 08 be
       0.082731456 -0.111564055 -0.022286676 -0.13338526
000100 28 8f 36 bc e5 07 7a bd 04 5d b9 bd 16 57 89 3d
       -0.01114253 -0.061042685 -0.090509444 0.067060634
000110 72 4c d4 3d cf 52 42 3e 2e 90 8f 3e aa 39 a7 bd
       0.10366143 0.18976901 0.28039688 -0.081652954
000120 50 12 6d be 81 78 93 3d 37 0d 8e bc 17 37 bf 3c
       -0.23151517 0.07200719 -0.017340286 0.023341699
000130 6f 0d a3 bb 2e 20 38 bd 34 48 87 bb 1c e3 d1 3d
       -0.0049759666 -0.044952564 -0.0041284803 0.10248396
000140 08 e2 88 bd 7a af 4c bd a8 f4 e8 3d 0b 85 d8 3d
       -0.06683737 -0.049972035 0.113747895 0.10572251
000150 f8 74 39 be 57 b2 19 3e 1c 6a 61 bd 2d 8d 47 bb
       -0.18111026 0.15009438 -0.055032834 -0.0030449138
000160 fa ad 28 bc 50 a6 1c bc 81 ee 96 bb 56 e6 8c bc
       -0.0102953855 -0.009561136 -0.0046060686 -0.017199676
000170 9c 06 c2 3c 3e 48 19 3e de fe 93 bd 70 21 e6 3c
       0.023684792 0.14968964 -0.072263464 0.028092116
000180 9c f8 38 be b2 9e 36 bd 10 4b d0 bb 7e 99 82 3d
       -0.18063587 -0.044584937 -0.0063566044 0.063769326
000190 ec 71 b7 3d 14 d0 c5 3d 86 3a 6b bd 5d de 8f 3d
       0.08957276 0.096588284 -0.05742886 0.07024834
0001a0 6d 78 25 3e 69 a8 dc 3d 4e c9 e1 3c db d8 26 3d
       0.1615922 0.10774309 0.02756181 0.040734153
0001b0 f1 ab a8 bd 39 c5 e0 3c fd 95 e6 3c 5f c8 db bb
       -0.0823592 0.027437793 0.028147692 -0.0067072357
0001c0 38 30 46 3a 24 22 9b 3c 55 7e 3f 3b a5 32 8d bd
       0.0007560286 0.018937178 0.0029219587 -0.06894425
0001d0 2f bc 0b be 24 af d7 bc 00 76 3d be 76 24 41 bc
       -0.13646005 -0.02632863 -0.18502045 -0.011788478
0001e0 3d de e7 bc 70 aa 1b bd fc 15 f0 bc 71 1b 3f 3d
       -0.028304214 -0.03800434 -0.029307358 0.04665703
0001f0 e6 ac 29 bd 47 17 04 be 9b 73 41 3e 19 e1 b8 3d
       -0.041424654 -0.12899505 0.18891756 0.09027309
000200 3e 79 0e 3d d3 ab 7d be 40 f7 ee 3c f4 d5 4d bc
       0.034783594 -0.24772577 0.029170632 -0.012563217
000210 cb 07 c5 bc c9 e3 85 bc ae 49 04 bd f5 19 6c 3e
       -0.024051568 -0.016343968 -0.03229683 0.23056777
000220 e9 5f 3e bd b4 09 1b 3d 80 c9 4e 3d 27 f1 35 bd
       -0.046478186 0.03785105 0.050485134 -0.044419434
000230 be cb 08 be e2 0f 13 be 6d 0e 44 3c 80 e0 30 3d
       -0.13358971 -0.14361528 0.01196633 0.04318285
000240 5c f5 4e bd 90 05 f3 bc c0 75 20 3d fd 91 e9 3c
       -0.05052696 -0.029665738 0.039174795 0.028511995
000250 af 0f 0c bd d6 08 1a 3e 1c 39 df bd 35 61 b5 be
       -0.034194645 0.15042433 -0.108995646 -0.35425726
000260 b2 45 5e 3c 04 68 84 bd 7c f5 aa bb d0 6a 08 be
       0.013566421 -0.06465152 -0.0052172523 -0.13321996
000270 ed ef ce 3c e4 a0 15 3c c8 70 b9 bd 0b 35 10 3e
       0.02526089 0.009132598 -0.090547144 0.14082734
000280 1a 00 61 bc e0 ff cc 3b 7f b9 ee bd 50 59 c8 bc
       -0.013732934 0.0062560886 -0.11656474 -0.02445665
000290 e1 af d2 3d 9b 1d 38 3d 65 79 82 bd 7c 86 2a bd
       0.102874525 0.04495011 -0.063708104 -0.04163216
0002a0 bb 24 61 bd b8 2b 43 3e ed c7 02 3e cc 75 e0 bd
       -0.05496667 0.19059646 0.12771578 -0.10959968
0002b0 c6 e6 64 3c 66 39 33 3d 30 81 ee bb 18 27 0f 3d
       0.013971036 0.04375591 -0.007278584 0.034949392
0002c0 53 6a 45 bc 0e 18 86 bc a7 89 b4 bc 30 c6 96 3d
       -0.012049275 -0.016368892 -0.022038294 0.0736202
0002d0 68 1e 7c 3d c0 95 1a be d7 fc 2b 3d 39 75 42 bd
       0.061552435 -0.15096188 0.041989174 -0.047475073
0002e0 bf 50 ab 3c 50 60 2d 3b f2 45 8a bb ca ab cc bb
       0.020912526 0.0026455112 -0.004219764 -0.006246065
0002f0 d3 68 c2 3c fb d7 a5 3c a3 19 51 bb 71 05 33 3d
       0.023731625 0.02024459 -0.003190615 0.04370636
000300 2a 80 17 3e 4f 43 15 be b8 33 29 bd f8 e6 47 be
       0.14794984 -0.14576457 -0.04130909 -0.19521701
000310 66 13 54 3d b0 1b 75 3e b8 be bd bc d2 62 3d bc
       0.051776312 0.23936343 -0.02316223 -0.011559205
000320 c5 1e 55 bd a6 30 a2 3e 71 fd b6 bd f4 4e a0 3e
       -0.052031297 0.3167774 -0.08935059 0.31310236
000330 8c 57 ee bd c3 c6 5c bc ef 24 60 bd ed 65 bc 3b
       -0.11637792 -0.013475123 -0.054722723 0.005749455
000340 0f 5c f4 3c 9a 17 f3 3c 5f db 3a bc f7 62 14 3d
       0.029829053 0.02967434 -0.011404841 0.036227193
000350 05 49 65 3c d6 f3 83 3d 11 de 2f be 73 68 be be
       0.01399446 0.064429924 -0.17174555 -0.37189063
000360 80 73 8a ba 62 e2 85 3d cb 77 1b 3d 61 a0 84 3c
       -0.0010562986 0.0653732 0.03795604 0.016189756
000370 98 16 85 3c 53 91 44 3d d1 82 09 3c 76 a6 8f 3d
       0.016246125 0.047990154 0.0083930055 0.07014172
000380 6c 58 20 3b e4 67 ff 3d a4 3a 29 bd c4 e6 c5 bc
       0.0024466766 0.124709874 -0.04131569 -0.02415789
000390 dd a4 a1 bd bc 68 0f 3d 7e d8 9f 3d e3 04 cc bb
       -0.07892773 0.03501199 0.078049645 -0.0062261685
0003a0 00 4a 99 3d 11 c1 97 bb 36 13 5e bc 9c 44 d3 bd
       0.074848175 -0.0046311696 -0.013554385 -0.103158206
0003b0 fe ea f2 bd 8f 1d 30 3e a7 5c 6b bc f0 95 d9 3d
       -0.118612275 0.17198776 -0.014365352 0.106243014
0003c0 c8 7c 93 3e d9 cf 02 3d 79 5a 10 3c 26 52 8c bc
       0.28806138 0.0319365 0.008810633 -0.017129015
0003d0 4f bb 04 3d 03 08 3f 3a 9d ac 8e bd d9 60 32 3d
       0.032405194 0.00072872656 -0.06966517 0.043549392
0003e0 e1 76 6a 3e 4d 3a b4 be 81 09 49 be 4a bc 55 bd
       0.22896911 -0.3520073 -0.19632532 -0.05218152
0003f0 a3 9d b6 bc 30 05 61 bd 42 f1 00 37 87 84 84 3b
       -0.022291964 -0.054936588 7.685567e-06 0.004044119

fcs1.bias f4 [256]
000000 28 c4 84 bd 6e 26 2e 3d e8 15 60 be 8d d4 36 bd
       -0.06482726 0.04251712 -0.21883357 -0.044636298
000010 df 67 f2 bd 81 91 bb be e2 bf 69 be 2a 65 67 be
       -0.11836218 -0.36634448 -0.22827104 -0.22597185
000020 ba 0d 2c be 35 96 7f 3c 6a 07 17 be 2f e7 a7 bd
       -0.16802111 0.015599777 -0.14748922 -0.08198392
000030 f8 67 a3 3d ea 69 17 be da b8 08 3d c9 8f aa bd
       0.07978815 -0.14786497 0.033379413 -0.08328206
000040 83 47 dc bd 32 39 16 be ea ca 00 3e 0b cd 32 be
       -0.10755827 -0.14670256 0.12577406 -0.1746103
000050 43 20 4d bd 7e bc 08 be 75 a5 d8 bd bf cb e3 bd
       -0.050079595 -0.13353154 -0.105784334 -0.11122846
000060 a7 60 0f be ad 5f db bd 42 4f da bd e4 1d 3d be
       -0.14001714 -0.10711608 -0.106596485 -0.18468434
000070 f2 71 70 3c 0b 81 b0 3d 36 da 60 3d 84 62 20 be
       0.014675604 0.08618363 0.054895602 -0.1566258
000080 1b fd 53 be 78 5f 75 be 01 04 72 bd 4e 3a 1d be
       -0.20702021 -0.239622 -0.05908585 -0.15354273
000090 ff 39 12 3e 9f b1 24 3d 3a ad dc bd d1 c2 e9 bb
       0.14279936 0.040208455 -0.10775228 -0.0071338196
0000a0 74 9d 22 be 51 ca 76 bd fc e7 3f 3c 58 33 30 be
       -0.15880376 -0.060251538 0.011713024 -0.17207086
0000b0 70 e5 18 be f6 38 50 be 1c 38 60 bd 08 72 a0 3d
       -0.14931273 -0.20334229 -0.05474101 0.0783425
0000c0 00 22 a1 3c 1b 5d 01 be e5 4a 15 be 46 e9 86 3d
       0.019669533 -0.12633173 -0.14579351 0.06587462
0000d0 a6 33 3d be dc 3f 4d be ed 84 60 be f9 05 08 3d
       -0.18476734 -0.20043892 -0.21925707 0.03320882
0000e0 44 15 95 3c 05 ff 85 3d 5e 90 45 be dd dd 0c be
       0.018198617 0.06542782 -0.19293353 -0.13756509
0000f0 fd 54 99 bd e4 23 42 3e fc 26 3a be 59 37 31 3d
       -0.07486913 0.18959004 -0.18178934 0.043265674
000100 07 c0 27 be 10 98 45 be 93 75 21 3e 69 43 fe bb
       -0.16381846 -0.19296288 0.15767507 -0.0077595008
000110 6e 19 04 be 5a 6a 46 3b 49 c2 f5 3c ef ac 5a 3d
       -0.12900326 0.0030275793 0.029999869 0.05338758
000120 0a 03 18 be 0f 38 0c be 81 70 25 bd f0 16 b6 3d
       -0.1484491 -0.1369326 -0.040390495 0.08891094
000130 96 43 01 bd 71 34 1f bd 25 0a 13 3e 8a 26 3b be
       -0.031558596 -0.03886837 0.14359339 -0.1827642
000140 ed ba 8c bc 02 c3 ba 3c 19 30 72 bd 82 95 61 bd
       -0.017178977 0.022798065 -0.0591279 -0.055074222
000150 51 42 6a 3b e8 7c 33 be 90 f4 c9 3d 39 11 8f 3c
       0.0035745094 -0.17528117 0.098611 0.017464267
000160 c9 bd f0 3d c7 d0 ca 3d 82 e8 0c 3c 20 38 b1 bd
       0.11754949 0.09903102 0.008600356 -0.08653283
000170 0f 3a 9c 3c 86 d0 51 be 8a d5 6a be 70 29 2e 3d
       0.019070653 -0.20489702 -0.22933021 0.042519987
000180 09 02 81 3d 4b 90 ca bd 6b d9 44 3d 8f ec 41 be
       0.06299216 -0.09890803 0.04805891 -0.18937896
000190 1b 45 f4 3d 42 2a 23 be a6 a7 6e 3d 64 10 ec bc
       0.11927243 -0.15934089 0.05826535 -0.02881641
0001a0 6e 24 45 be e0 f3 c2 3d e5 8a d7 bd d7 1a dc 3c
       -0.19252178 0.09519172 -0.10524539 0.026868267
0001b0 07 63 55 be 3c ab 14 be 1a 5f 28 3e ef d0 5c 3d
       -0.20838557 -0.14518446 0.16442528 0.053910192
0001c0 8d b5 73 be a0 5b 10 3e 88 f2 eb bd 54 f2 38 be
       -0.23799725 0.14097452 -0.115208685 -0.18061191
0001d0 94 ca ba bc 03 90 4e be da ea 64 3d 2e ee 57 be
       -0.022801675 -0.20172124 0.055888034 -0.21086952
0001e0 c3 be 32 bd f8 75 51 bc e2 a2 08 be 78 2b d6 bd
       -0.043638956 -0.012784474 -0.13343385 -0.1045751
0001f0 1b 40 3b be 84 90 80 bd 53 d1 b7 bc 26 13 54 bd
       -0.18286173 -0.06277564 -0.02243868 -0.051776074
000200 a3 e1 64 3b 33 8f fd bb 14 9e 7d bd 0e 0a a3 be
       0.003492453 -0.007738018 -0.061918333 -0.3184361
000210 a8 eb 87 bd 69 e3 c2 bc 17 9f 07 bc 98 3a be bd
       -0.06636745 -0.023790078 -0.008277676 -0.092885196
000220 6c b1 61 be e9 78 1e bd 72 38 ac be d2 fe 41 be
       -0.22040337 -0.038689528 -0.33636814 -0.18944862
000230 8a c1 15 3e 00 8f 40 be 7b b5 95 bd 30 0b cc bd
       0.1462461 -0.1880455 -0.07310005 -0.09963071
000240 02 a2 aa b8 31 70 c5 bd 77 5a 78 bb fc 5c fb bd
       -8.136408e-05 -0.096405394 -0.0037895718 -0.12273595
000250 41 58 13 bd 9d 43 e0 bc 19 63 04 bd 6f 1a 92 bd
       -0.035972837 -0.02737599 -0.03232107 -0.07133948
000260 79 b5 3a 3c 75 91 b8 bb 74 38 af 3d 03 e8 cf bd
       0.0113958055 -0.005632574 0.085556895 -0.101516746
000270 7b 6d f6 3d 71 67 28 bd 91 5f 65 bd c7 3d c3 bd
       0.120326005 -0.041114274 -0.055999342 -0.095332675
000280 88 36 69 3c 8e cf 5d be 30 3d f4 bd 23 e9 4b be
       0.014234193 -0.21661207 -0.11925733 -0.19913153
000290 81 49 f8 bd fa d4 c0 bd e7 f6 70 bc 1a 9d 16 be
       -0.12123395 -0.09415622 -0.014707304 -0.14708367
0002a0 e0 92 a2 bd 42 48 44 3c 31 5d 27 be 4a 28 95 3d
       -0.079381704 0.011980118 -0.16344143 0.07283075
0002b0 6f a8 d3 3d 41 d3 2e 3d 8d b9 80 bd 44 f8 fd 3d
       0.103348605 0.042681936 -0.06285391 0.124008685
0002c0 bb d7 1f 3d c1 d6 80 3d 6a fe 06 3e c7 56 3c be
       0.039024096 0.06290961 0.13182989 -0.18392478
0002d0 69 77 00 be 07 fb fa 3d 28 48 25 be 16 7f 43 be
       -0.12545551 0.12254911 -0.16140807 -0.19091448
0002e0 88 85 9e bd 07 1a 16 be d0 c8 19 bd 53 dc 2c be
       -0.07740313 -0.14658366 -0.037545025 -0.16880922
0002f0 2f 93 c0 bd d1 23 1f bc 22 8d 57 bd c7 37 32 3c
       -0.09403073 -0.009713129 -0.05262483 0.010877556
000300 bb a6 ea bd 45 ad 8d 3d a3 95 65 3d 5f ba 22 be
       -0.114575826 0.06917814 0.056050908 -0.15891407
000310 7f e6 0b be ef 36 eb bd 68 a6 ad bd e2 ef e0 bd
       -0.13662146 -0.11485087 -0.08479005 -0.10983254
000320 d7 70 3b be 81 fc 02 bd ab 5a 7c bd bf db dc bd
       -0.18304764 -0.031979088 -0.061609905 -0.10784101
000330 56 26 16 3d cd ea 52 bd 3c 24 16 be 4c 1f a4 3d
       0.036657654 -0.051493455 -0.1466226 0.08013782
000340 e0 59 4e 3d d1 77 70 3c 17 08 ef bc da 13 b9 bd
       0.05037868 0.014677004 -0.029178662 -0.090369895
000350 7f e7 42 bd 17 c9 03 be 51 b0 4e be 46 a5 a3 bd
       -0.047584053 -0.12869678 -0.20184447 -0.07990508
000360 58 fe 31 3d d7 47 e0 3c da 27 52 bd 66 29 62 bb
       0.04345545 0.027378006 -0.051307537 -0.0034509539
000370 6e 3a ff bc 82 f6 1a be bf 43 47 be 43 e7 5b be
       -0.031155791 -0.15133098 -0.19459437 -0.21474938
000380 72 93 e9 3d f8 6c ea bb ca 09 d4 bd 8a fc 54 3d
       0.11405076 -0.0071541034 -0.103534296 0.051998653
000390 8b 64 e9 bc d6 6f 8b 3d eb 73 4e be 4b 92 d9 bd
       -0.028490325 0.068084404 -0.20161407 -0.10623606
0003a0 42 e2 8c be a5 55 0c be 1b a0 d6 3d c3 17 4b be
       -0.2751637 -0.13704546 0.104797564 -0.19833283
0003b0 81 13 89 b8 6f 7b f8 3d ba 2d 83 bd e9 3d 1a be
       -6.536302e-05 0.12132918 -0.06405206 -0.1506268
0003c0 c9 d6 d5 bd 8b b0 4b be 5a 74 12 3e 12 16 b2 bc
       -0.10441358 -0.19891565 0.14302197 -0.02173904
0003d0 70 49 4e 3d d8 94 92 3c bc 06 0e 3c 97 a1 38 bd
       0.050363004 0.01789324 0.008668598 -0.04507598
0003e0 65 2f aa bd e4 d4 04 be e7 de ba 3d 16 eb 2e be
       -0.08309821 -0.12971836 0.091245465 -0.17081866
0003f0 a6 07 98 3c 5d f4 86 3c 17 d0 b2 bc 9c 02 23 3c
       0.018558335 0.016473943 -0.02182774 0.009949353

fc2.weight f4 [256, 260]
000000 96 96 03 be 40 18 76 3d 31 e3 ef bc 18 eb d5 bd
       -0.12850413 0.06008172 -0.029283138 -0.10445231
000010 dc 22 67 bd 0d dd 2c 3d dc a3 ce bd fb dd d3 3c
       -0.05642973 0.042202998 -0.100898474 0.025862684
000020 ca b5 1d 3d ed a5 09 3e e4 31 19 3c b7 b9 6e bc
       0.038503446 0.13442202 0.009350274 -0.014570645
000030 a6 d2 c4 3b bb ea 39 bd c2 8d de bc 9f 00 ea 3d
       0.0060065566 -0.045389872 -0.027167205 0.114259
000040 a8 d2 0e bd da c2 8e 3b 77 ee 3f bc d4 cf bd bc
       -0.034868866 0.004356724 -0.011714569 -0.02317039
000050 f0 4d ba 3d d8 20 14 bb d8 87 a9 bd cb 44 75 3d
       0.09096897 -0.0022602584 -0.08277863 0.05988006
000060 b4 b0 c6 bc 66 f8 c5 3c 8b 7e b5 3c e5 1e 64 3d
       -0.02425418 0.024166297 0.022155067 0.055693526
000070 53 37 10 3b 9a a3 9d 3d 99 9e f1 bc 9c 73 93 3b
       0.0022005632 0.0769722 -0.02949457 0.0044998657
000080 d4 79 d1 bd 85 e1 35 3e 95 c9 e6 bc 9d fa 99 3d
       -0.10228315 0.1776181 -0.028172294 0.07518504
000090 cd bd 4b 3d 44 93 8d bd b7 c6 62 3b 9e d4 22 bc
       0.049741555 -0.06912854 0.0034603307 -0.009938387
0000a0 61 ab 5e 3d 9f d8 bc bd 3f 00 64 bc 42 21 da 3d
       0.05436266 -0.09221005 -0.013916074 0.10650875
0000b0 0e 18 01 bc b7 87 11 bd d1 11 7f bb 1e 1c 7a 3c
       -0.00787927 -0.03552982 -0.0038920532 0.015265493
0000c0 cc 56 04 bd b6 66 5d 3d 2f bd d8 3d 20 5b e0 3c
       -0.03230934 0.05405303 0.10582959 0.027387202
0000d0 69 08 f2 3c c0 28 e5 bb 91 a1 f3 3c f5 67 6e 3d
       0.029545026 -0.006993383 0.029740127 0.05820461
0000e0 45 86 40 3d 96 c3 90 3d e8 7b bf bd 2b 56 fa bc
       0.04700305 0.07068555 -0.09349805 -0.030558666
0000f0 01 b5 78 bd 5e 4e ff 3d 49 a0 d5 3d 0a e9 a9 bc
       -0.060719494 0.12466119 0.104309626 -0.020741004
000100 44 48 c1 bd a3 d7 0f bd 9a eb 52 3d bd 09 08 be
       -0.09437612 -0.035117757 0.05149422 -0.13284965
000110 e1 85 ab 3c a1 a6 c7 ba 0e 12 94 3d cd e4 7b 3c
       0.020937862 -0.0015232154 0.07230006 0.015374375
000120 e0 f8 00 ba 78 48 03 3e ed 8d 0b bc 2e c9 ef bb
       -0.0004919898 0.12820613 -0.008517724 -0.0073176837
000130 0b b7 b5 3d b7 cd c7 3c 0f a7 c9 bb 1f 67 7a bd
       0.08872803 0.024390085 -0.006153948 -0.0611335
000140 ab c0 b9 3c e2 6e 38 be fb 38 5f 3d 1d fa 05 3d
       0.022674879 -0.18011048 0.0544977 0.03270923
000150 8d c4 13 3c 28 87 48 bd 51 da 11 be ab 97 76 3d
       0.009019029 -0.04895702 -0.14243437 0.060203236
000160 fb 9f 7d bc fb ba 5c 3c ab 35 06 be e9 1a a7 bc
       -0.015480037 0.013472314 -0.1310641 -0.020398574
000170 db 81 82 3a 19 e2 09 bd 4d 86 3c 3d 5b d6 f1 bc
       0.0009956913 -0.03366289 0.046026517 -0.029521158
000180 ee f9 fc bc 84 1a 95 3d f8 bc b8 3c fa 08 cb 3c
       -0.030880895 0.07280448 0.022551045 0.024784554
000190 57 95 ce 3c a1 ed fc bc 4b 5c 41 3d 20 6a 21 bd
       0.025217695 -0.030875029 0.047207158 -0.03940785
0001a0 64 c0 11 bd 17 b6 41 3d 36 2d f7 bc 69 f5 56 3c
       -0.03558387 0.047292795 -0.030172925 0.013120034
0001b0 a8 c9 11 bd 21 c4 1e 3c 91 14 39 3d d2 f9 87 3a
       -0.035592705 0.009690315 0.04518563 0.0010374135
0001c0 e3 05 16 be ea 20 f7 bb 87 c5 ff bc fd 20 01 3d
       -0.14650683 -0.0075417655 -0.031222118 0.0315256
0001d0 76 a7 31 bd d9 ff fd bc 49 5f 05 bd b8 4e 95 3c
       -0.043372594 -0.031005787 -0.032561574 0.018226013
0001e0 90 e8 83 3d fc e5 37 3d 43 7a 1d bd cc 5e a1 bd
       0.06440842 0.044897065 -0.038446676 -0.07879409
0001f0 5b 52 77 bd ee 35 dc bc b1 3a 1f 3d 4e bb 8f 3d
       -0.060381275 -0.026881184 0.03887433 0.070181474
000200 49 1e 07 be 64 48 1b bd 13 5c 27 bd ab df 99 bc
       -0.13195147 -0.037910834 -0.040859293 -0.018783411
000210 3c d4 32 bc 51 1e 96 3d eb b5 98 bd 25 e5 15 3d
       -0.010914858 0.07330001 -0.07456573 0.036595482
000220 85 d8 bf bd 3e 87 2e bd 05 f4 35 bc f9 4e d8 3a
       -0.0936747 -0.042609446 -0.011105542 0.0016503028
000230 77 69 11 3d 90 da e0 3c 20 fb 00 3e 79 b0 92 3b
       0.03550097 0.027447969 0.12595797 0.0044766036
000240 8d 65 ac 3b 28 2c 20 bd e0 2d ca 3c de 11 e2 3d
       0.0052611292 -0.03910461 0.024680078 0.11038564
000250 e7 16 6a bb 29 47 a9 3d b3 c3 ae 3d 0d b3 19 3e
       -0.0035719217 0.08265526 0.085334204 0.15009709
000260 57 ca 2b 3e 1f 12 fd bc e4 3e 93 3c 28 56 50 3b
       0.16776405 -0.03089243 0.017974325 0.0031789634
000270 b9 b6 35 3d 93 ea 02 3b d4 41 ed bb e7 ec 98 3c
       0.04436371 0.0019976243 -0.0072405133 0.018667651
000280 b8 d8 80 bc 8b 23 94 bd e6 ec 89 3d f9 9e 90 bd
       -0.01572834 -0.07233342 0.06734638 -0.07061572
000290 71 e1 4e bb bf 51 54 3e cf 84 6d bd 69 5b 1f 3d
       -0.003156748 0.20734309 -0.057987984 0.038905535
0002a0 eb 0e aa bd bb 8b e8 3c 6b 50 b0 3c 15 c8 51 3d
       -0.083036266 0.028386941 0.021522721 0.051216204
0002b0 f1 c4 1c 3d 51 95 80 3e e6 22 f2 bc cf 69 45 bd
       0.038273755 0.2511392 -0.029557656 -0.04819661
0002c0 f3 64 03 be b4 49 36 3c 49 0c 63 bb 71 05 86 bb
       -0.12831478 0.011125971 -0.0034644774 -0.004090004
0002d0 51 40 a4 bd 96 84 c1 bd ac 01 bc ba fb bf 0a 3e
       -0.0802008 -0.09449117 -0.001434376 0.13549797
0002e0 ec 77 e3 3d a8 11 25 bd c7 83 15 3e ea df ec 3d
       0.11106858 -0.04030004 0.1460105 0.11566146
0002f0 e4 07 21 bd 45 b4 fb 3d 87 da 8d 3c 86 54 13 bd
       -0.039314166 0.12290243 0.017316116 -0.03596928
000300 0e 71 98 3d ea 28 92 bb bb 1d 0e bc 19 b5 8c bd
       0.074434385 -0.0044604437 -0.0086740805 -0.06870479
000310 0f 55 3f bc 92 78 1d 3d 47 d2 62 bd 74 89 eb bd
       -0.011677994 0.038445063 -0.055376317 -0.115008265
000320 e8 67 75 3c 92 54 91 bd ac 8a 9a 3d 15 39 ce 3d
       0.014978386 -0.07096209 0.07545981 0.10069481
000330 75 90 f1 bb 9b b4 11 be cd 21 93 3d 6c 89 a3 3d
       -0.007371957 -0.14229052 0.07184181 0.079851955
000340 77 56 ac 3d c3 20 10 3c d6 b7 1a 3d 8d 23 2c 3d
       0.08414929 0.0087968735 0.037772976 0.04202609
000350 17 0b 59 3d 05 51 56 3d d6 71 b2 bc f5 60 9c bd
       0.05298909 0.05232336 -0.021782797 -0.076356806
000360 f7 ed 2b bd d3 54 2d 3d 9a 1c b9 3d 5c aa 2e bd
       -0.041974988 0.042317223 0.090386584 -0.042642936
000370 5e 9f 69 bd 9e bf b6 3b 70 ca 3f bd 98 8b 83 3d
       -0.05703675 0.005577042 -0.04682392 0.0642311
000380 f0 a5 d3 bd 68 5a 8e bd 1d 96 37 bd 66 45 f8 3c
       -0.103343844 -0.069508374 -0.044820894 0.03030653
000390 67 b0 3b bd 3b ee 79 3c 42 fd 4e 3d fa 79 bd 3d
       -0.045822527 0.0152545525 0.050534494 0.09251781
0003a0 09 fb 99 3d 34 51 22 bd 47 76 9a bc 01 fc 80 3a
       0.07518584 -0.039628223 -0.018855227 0.0009840728
0003b0 3a 44 97 bb ba 27 a7 bd db 71 43 3d b8 94 5d 3d
       -0.0046162875 -0.08161874 0.047716003 0.054096907
0003c0 b8 fd 8e 3c 2f 1f 90 bd 44 53 e9 bc b6 b1 e1 bd
       0.017454967 -0.07037198 -0.028482087 -0.11020224
0003d0 50 b2 99 3c e8 62 cc 3c e1 38 23 be ec 2d a9 3d
       0.018761784 0.024949506 -0.15939666 0.08260712
0003e0 f2 51 24 bb c6 cf 7e 3b 8b 52 af 3d a1 ab b6 bd
       -0.0025073257 0.0038881167 0.08560666 -0.08919454
0003f0 8e eb 72 3c a9 6f dd 3c 30 8b 85 3d 21 d4 50 bd
       0.014826668 0.027030783 0.065206885 -0.050983552

fc2.bias f4 [256]
000000 6b 27 6c 3e b0 83 d0 3d 46 56 18 be 61 80 e1 bd
       0.23061912 0.101813674 -0.1487666 -0.110108145
000010 15 b5 68 3e 0e 05 4d 3e f8 61 12 be df 41 84 3e
       0.22725327 0.2002146 -0.14295185 0.25831506
000020 58 9b 84 3d 0f 41 5c be 74 ff 3b 3e f2 c8 81 bc
       0.06474942 -0.21509193 0.18359166 -0.015842889
000030 05 b8 65 3d c0 25 fc bd 52 0f c8 3d 85 56 32 3e
       0.056083698 -0.12311888 0.09768547 0.17415817
000040 9a 48 61 3e 20 88 40 3e 9c b5 19 be 37 e2 3d be
       0.22000352 0.18801928 -0.15010685 -0.18543325
000050 17 12 f9 bd 39 af 71 3d b3 9c 7b 3e ca de 5b bb
       -0.121616535 0.059004996 0.24571495 -0.003354954
000060 f4 6a 76 be 6c 0a 63 be 08 e3 58 3e b9 15 1d be
       -0.24064237 -0.22171944 0.21180356 -0.15340318
000070 3c 35 ad 3d 81 01 2f be 7b f2 e5 bd 7f 1a 3f be
       0.08457419 -0.17090417 -0.1122789 -0.18662451
000080 83 3d 20 be e6 31 91 ba 57 0c 0e be ad b9 a8 3c
       -0.15648465 -0.0011077493 -0.13871895 0.02059635
000090 6a 65 07 b9 95 0e a9 3d 99 00 2e be 24 9c 22 3d
       -0.00012912383 0.082547344 -0.16992415 0.03969969
0000a0 1a cb 04 3e f4 a0 0a 3d 87 4d c4 3d a4 5d c1 bd
       0.12968102 0.033844903 0.095851 -0.09441689
0000b0 ea da 1f 3e cb 20 3d bd fd 75 f9 bd 97 6b 87 3d
       0.15610853 -0.046173852 -0.121807076 0.06612318
0000c0 d4 4d 1c 3e ff 03 7b 3e 52 a2 e9 bd 41 86 44 be
       0.15264064 0.24513243 -0.11407913 -0.19191839
0000d0 4f 3f 4a be 71 77 6e 3e cb eb 7b bd d0 1e e3 bd
       -0.19750713 0.23287751 -0.061504167 -0.110898614
0000e0 a5 a9 38 be 86 56 12 bc 15 8a e6 bd cc ea bf bd
       -0.18033464 -0.008931762 -0.11256806 -0.09370956
0000f0 16 ad 3f 3e b8 30 6b be 6c 76 5b 3e 03 20 a5 bd
       0.18718371 -0.22967803 0.21431893 -0.080627464
000100 27 77 40 3d 16 b5 fd 3d e7 54 57 be f8 5b b1 3d
       0.046988633 0.12388055 -0.21028481 0.0866012
000110 c0 76 01 be 68 65 a2 3d 15 c1 25 be a7 9a 3f be
       -0.12642956 0.07929498 -0.16186936 -0.18711339
000120 d9 ed 36 be 6a e5 39 be d6 e8 04 be b3 e2 68 be
       -0.17864169 -0.18153921 -0.12979445 -0.22742729
000130 f2 60 8e 3e f6 84 57 be 16 71 40 3e 7c 95 c0 3c
       0.27808338 -0.21046814 0.18793139 0.02350878
000140 a5 cc 2c 3b a1 a4 54 3e ce fc 03 bd 98 06 13 be
       0.0026367095 0.20765926 -0.032223515 -0.14357984
000150 31 6f b8 bc fa d8 8e bd 1c ad 4d be be 4c e5 bd
       -0.022513958 -0.06974979 -0.20085567 -0.11196278
000160 14 19 5a 3d a6 4a 0d 3e 04 57 29 be 31 82 2e 3e
       0.053246573 0.13798007 -0.165371 0.17041852
000170 a7 c3 79 3d 65 28 2b be 4c c6 c1 bd 76 aa b2 3d
       0.060977604 -0.16714628 -0.0946165 0.08723919
000180 1b c2 ec 3d 3c bb e3 3d 2b e7 da bd 8c 84 20 3e
       0.1156046 0.111196965 -0.10688623 0.15675563
000190 6c c8 a1 be 73 b2 58 be d8 71 82 3e 77 5f 8f bd
       -0.31598222 -0.21161823 0.2547748 -0.0700063
0001a0 45 63 1f be 95 bd 83 3e 7a b6 3e be b1 19 26 3e
       -0.15565212 0.25730577 -0.18624297 0.16220738
0001b0 8f 79 0d be 28 cf 29 3e 2e 04 54 be ff aa 20 be
       -0.13815902 0.1658293 -0.2070472 -0.1569023
0001c0 91 30 00 be a4 57 27 be b7 c4 0e be af f4 1f be
       -0.12518527 -0.16342026 -0.13942228 -0.15620683
0001d0 a5 57 bf 3d 40 9a 85 be a2 d0 29 be 31 9c 82 3e
       0.09342889 -0.26094246 -0.16583493 0.2550979
0001e0 c3 32 01 be 27 45 54 be 0b 98 97 3a 57 eb 57 bd
       -0.1261702 -0.20729505 0.0011565698 -0.052714672
0001f0 e8 ce 22 3c fe 98 0d bd 62 9c 86 be c2 d2 2b be
       0.009937026 -0.034569733 -0.26291186 -0.16779616
000200 18 57 6a be df 1d db bd d6 bd 28 be 3c 02 9a 3d
       -0.22884786 -0.10699057 -0.16478667 0.075199574
000210 f7 10 32 3c 55 93 36 3e 9b 17 34 be 61 47 37 be
       0.010868303 0.1782964 -0.1758713 -0.17898323
000220 39 bd 25 3e 1f 34 3c be 2c b0 f2 3d 9a b5 04 be
       0.16185464 -0.18379258 0.11850008 -0.129599
000230 1a b8 2d 3e 73 dc 45 be 9e a0 09 be 03 fc 01 be
       0.1696476 -0.19322376 -0.13440177 -0.12693791
000240 b4 43 cf bd 68 5e 92 bd 29 0c 4e be 13 24 46 3d
       -0.10120335 -0.07146913 -0.20121826 0.048374247
000250 45 6f 6f 3e 53 17 05 be 3e 4e 42 be 9f 5f 4d be
       0.2338229 -0.12997179 -0.1897516 -0.20056008
000260 b0 98 30 be be 58 1d 3e 3d 2b 7d 3d b3 42 47 3e
       -0.17245746 0.15365884 0.061808813 0.19459037
000270 cf c6 f6 bd 4f 30 53 be e1 ca 55 be 10 cd 24 be
       -0.120496385 -0.20623897 -0.20878173 -0.1609385
000280 59 db 25 be 02 b0 62 be 63 96 17 be 76 01 3d be
       -0.16196956 -0.22137454 -0.14803462 -0.18457589
000290 e5 4f 5f be 62 80 32 be a6 e1 5f 3d 62 d3 20 bd
       -0.21807821 -0.17431787 0.054658554 -0.03926409
0002a0 be fa 13 3e 83 cf 39 be 20 a5 06 3e f2 01 d8 3d
       0.1445112 -0.18145566 0.13148928 0.10547246
0002b0 ce ed 72 3c 34 59 9f bd 97 f3 74 bb 86 5d aa 3d
       0.014827205 -0.07780686 -0.0037376636 0.083186194
0002c0 71 b5 57 be 99 13 bf bd 0f a5 c8 3d 58 5e 07 be
       -0.21065308 -0.0932991 0.097971074 -0.13219583
0002d0 fc 0e f1 bd f3 27 2f 3e 4a 23 9a bd 6b 75 46 3d
       -0.11770436 0.17105083 -0.07526262 0.048451822
0002e0 b5 a0 3f be 0d ec 32 bd af 0c 75 be 64 1d 16 be
       -0.18713649 -0.043682147 -0.2393062 -0.14659649
0002f0 c2 3c 8d be f5 f0 36 be 69 46 1d 3e 1a 10 51 bd
       -0.27585417 -0.17865355 0.1535889 -0.051040746
000300 a2 45 6c 3e 40 06 da bd 80 b0 9c bd 8a 72 c3 3d
       0.23073438 -0.10645723 -0.07650852 0.09543331
000310 79 38 28 be 12 3d 2f be 0a b8 36 be 36 6f 65 3e
       -0.16427793 -0.1711314 -0.17843643 0.22405705
000320 e3 cb 23 be 96 c3 5b be ca 26 71 be 8a 1c 65 be
       -0.15995745 -0.21461329 -0.23549953 -0.22374168
000330 a4 52 05 3e ec 12 6a be fd 11 ba 3a e8 e1 63 3e
       0.13019806 -0.2285878 0.0014196035 0.22254145
000340 d6 89 23 be 7d c9 3c be 6e 11 15 be 0a bc 4b be
       -0.15970549 -0.18436237 -0.1455743 -0.1989595
000350 95 f9 57 3d d0 f3 9a bd 7f c4 0a 3e f3 bb 04 be
       0.052728254 -0.07566035 0.1355152 -0.12962322
000360 4e e6 24 3e 78 56 25 3e c8 82 eb 3d 76 5e 24 be
       0.1610348 0.16146266 0.11499554 -0.16051659
000370 10 1e 20 be 56 67 1d 3e 2b d2 5e 3e a4 11 3d 3e
       -0.15636468 0.15371451 0.2175986 0.1846376
000380 87 e4 78 3e 0d ed c3 bd 59 1a 13 be 96 b8 21 be
       0.24305926 -0.09566698 -0.1436552 -0.1579307
000390 05 17 08 3e 63 bb 0c be 16 b9 05 be a9 66 e9 bd
       0.13290031 -0.13743357 -0.13058886 -0.11396534
0003a0 c7 5e 26 3d d8 ad 06 be 92 4a 13 be a9 88 93 be
       0.04061773 -0.13152254 -0.14383915 -0.288152
0003b0 83 8d 92 3e 94 eb c8 3d 3a 84 3d be b5 f3 32 3e
       0.2862359 0.09810558 -0.18507472 0.1747578
0003c0 d9 65 7e 3e e6 77 9d be 98 84 80 3d 9d d3 3e 3d
       0.2484354 -0.30755538 0.0627529 0.04658853
0003d0 a1 ce 18 3e c7 0a 00 3b 9a dc ad bd ae b5 5e be
       0.14922573 0.0019537674 -0.08489342 -0.21748993
0003e0 e2 17 2f be 2f 43 9d bd 84 4c 71 be 18 2d 17 be
       -0.17098954 -0.0767883 -0.23564345 -0.14763296
0003f0 5a 6d 46 be 7b d9 45 be bb d0 7e 3e 78 86 1e 3e
       -0.19377652 -0.19321243 0.24884312 0.15480983

fc3.weight f4 [1, 256]
000000 98 32 86 3d 8b 87 68 3d 57 e0 38 bd 17 c1 bd bd
       0.06552619 0.05676989 -0.045135822 -0.092653446
000010 d9 3b 87 3d 24 3f 7c 3d ab 25 06 be 48 95 89 3d
       0.06603212 0.061583653 -0.13100307 0.06717926
000020 fe 0c 6e 3d f8 de a7 bd 45 1f 41 3d 8a 89 d1 3d
       0.05811786 -0.08196825 0.04714896 0.102313116
000030 64 e9 9b 3d 14 30 38 3e 1d 2f 9c 3d 7e 16 45 3d
       0.07612875 0.1798709 0.07626174 0.048117153
000040 23 b2 91 3d 1e 57 6f 3d de 40 a6 bd f8 1a ca bd
       0.07114055 0.05843269 -0.08117841 -0.09868425
000050 4a 4d 02 be 49 e3 96 3d c7 7b 9b 3d 17 d6 03 3e
       -0.12724796 0.0736757 0.07591968 0.12874638
000060 fa db 88 bd e9 45 05 be 55 02 af 3d c4 46 85 bd
       -0.06682582 -0.1301495 0.08545367 -0.06507638
000070 c7 d2 8f 3d a2 fc 1f be 31 81 ea bd 92 73 c4 bd
       0.070226245 -0.15623716 -0.114504226 -0.09592356
000080 9b 47 e1 bc c3 fa b8 3d ea 00 93 bd 04 b1 d0 3d
       -0.027499964 0.09032204 -0.07177909 0.10190013
000090 27 fb cf 3d ed c7 b3 3d c5 a6 80 bd 78 fb 7f 3d
       0.101553254 0.08778367 -0.06281809 0.06249568
0000a0 ae 99 9c 3d eb 9d 96 3d 9d bd bc 3d 78 be 11 be
       0.076464996 0.07354339 0.09215853 -0.14232814
0000b0 0c 38 81 3d 30 f1 07 3e 29 02 a2 bd d3 d8 86 3d
       0.06309518 0.132756 -0.07910568 0.06584325
0000c0 b4 88 63 3d bb 7d 62 3d cd dd a6 bd a8 2d 05 be
       0.055550292 0.055295687 -0.08147774 -0.13005698
0000d0 ad 33 11 be 01 9b dd 3d ca 2d e3 3d b5 8c 8d bd
       -0.14179869 0.1082058 0.11092718 -0.06911603
0000e0 b9 66 02 be 34 1e fc 3d 41 e8 8e bd 4d 86 87 bd
       -0.12734498 0.12310448 -0.06977893 -0.06617413
0000f0 14 45 8d 3d 53 f2 29 be b2 3d 8b 3d 8c 4b 22 3e
       0.06897941 -0.16596346 0.06798877 0.15849131
000100 c0 aa cb 3d df a2 bb 3d 29 2c c7 bd 48 80 d2 3d
       0.09944677 0.091619246 -0.0972522 0.10278374
000110 c1 e6 16 be 17 43 47 3d bb 69 82 bd 88 6f b3 bd
       -0.14736463 0.048647966 -0.06367823 -0.08761507
000120 9a 6c 00 be 18 50 02 be 7a b1 6d bd 4d 95 16 bd
       -0.12541428 -0.12725866 -0.058030583 -0.036763478
000130 11 84 9a 3d 83 90 e5 bd 5a 22 87 3d 34 47 63 3d
       0.07544721 -0.11209204 0.06598349 0.055487826
000140 e7 30 00 3e 96 a2 5f 3d 99 60 72 bd c0 47 91 bd
       0.12518655 0.054598413 -0.059174154 -0.07093763
000150 03 d9 b9 3d ac 21 29 3e 70 bb 3a bd 75 c1 a8 bd
       0.09074595 0.16516751 -0.04558891 -0.08240024
000160 b8 43 85 3d 60 c8 96 3d b3 d6 99 bd c1 0d 60 3d
       0.06507057 0.07362437 -0.07511654 0.054700617
000170 ff 73 9c 3d 5f ab cc bd 10 09 f3 bd 04 0d c7 3d
       0.07639312 -0.09993624 -0.11866963 0.097192794
000180 51 3d 74 3d a1 22 82 3d 6f bf c3 bd b6 7d 6d 3d
       0.05962879 0.06354261 -0.095579974 0.057981215
000190 bb 18 7c bd be 14 94 bd 6d 79 c0 3d 10 c7 12 3e
       -0.061547022 -0.07230519 0.0939816 0.14333749
0001a0 43 db 8a bd 65 dc 60 3d 01 e3 85 bd 5c 56 60 3d
       -0.06780102 0.054897685 -0.06537438 0.05476986
0001b0 67 be 8b bd 0f 17 8d 3d 23 06 40 bd c3 e7 90 bd
       -0.06823426 0.06889164 -0.046880852 -0.07075455
0001c0 b4 38 42 3e 9d 9a bb bd 79 b4 01 be 05 4b 36 bd
       0.18966943 -0.091603495 -0.12666501 -0.044505138
0001d0 61 2a 36 3d 8a 6e 9d bd ff 4c af bd 7c e2 6f 3d
       0.04447401 -0.07687099 -0.08559608 0.0585656
0001e0 ac 99 06 be 52 57 3c be b9 cb df 3d 6d b5 09 3e
       -0.13144559 -0.18392685 0.10927529 0.13448115
0001f0 b3 e1 a0 3d 0e a1 9a 3d 53 56 e8 bd 61 ad 87 bd
       0.07855549 0.0755025 -0.1134459 -0.06624866
000200 d3 f1 8f bd fa 0d 89 bd 80 c8 9b bd ed e3 bb 3d
       -0.07028546 -0.06692119 -0.07606602 0.09174333
000210 23 a2 a1 3d 0b b2 82 3d f7 c3 76 3e 12 00 df bd
       0.07892253 0.06381615 0.24098192 -0.10888685
000220 e3 3e 79 3d bb d6 ba bd 76 67 92 3d e5 7f 97 3e
       0.06085099 -0.09122988 0.0714864 0.29589763
000230 f5 55 91 3d 41 84 62 be a6 cb a1 bd 30 e2 ee bd
       0.07096473 -0.22120763 -0.07900171 -0.116642356
000240 f2 d3 36 bd f9 1b 28 3e 43 2e c2 bd d3 15 84 3d
       -0.04463572 0.1641692 -0.0948148 0.06449475
000250 98 95 88 3d 34 e7 b1 bd cd 54 f6 bd 8b 54 34 bd
       0.06669158 -0.086866766 -0.12027893 -0.04402594
000260 ba 59 b5 bd aa 9b 81 3d dc 9c 59 3d f4 16 8e 3d
       -0.088550046 0.06328519 0.05312811 0.06937972
000270 bf 53 be bd cf 49 1d be 1a b9 cb bd 50 f5 a5 bd
       -0.09293317 -0.15360187 -0.09947415 -0.0810343
000280 6b 04 bf bd 36 ae 8e bd 69 a0 eb bd 97 4b a5 bd
       -0.093270145 -0.06966822 -0.11505205 -0.08071058
000290 06 62 e0 bd fb 8f db bd 05 b2 95 3d b7 98 a9 3d
       -0.109561965 -0.107208215 0.07309345 0.08281081
0002a0 f6 fc a2 3d 5b d4 b8 bd 24 2c 4e 3d 44 24 79 3d
       0.07958405 -0.090248786 0.050335065 0.0608256
0002b0 5a f7 1a 3e ae 5e e1 3d cc 9f 93 3d 35 64 a5 3d
       0.1513342 0.11004387 0.07208213 0.080757536
0002c0 22 e8 b7 bd 3f 7f 40 bd 95 98 7f 3d e2 57 9e 3e
       -0.08979823 -0.04699635 0.062401373 0.30926424
0002d0 9e d9 0a be 03 f8 81 3d 64 8c 2d bd c1 17 91 3d
       -0.13559577 0.063461326 -0.042370215 0.07084609
0002e0 11 af 42 be 1b f9 a1 3d b2 94 6b bd aa ac 9d bd
       -0.19012095 0.07908841 -0.057514854 -0.07698949
0002f0 12 aa 0b be c1 35 b4 3e eb 20 ad 3d 73 09 d9 3d
       -0.13639095 0.3519726 0.08453544 0.105975054
000300 35 81 85 3d ad 2c a3 bd 5e e9 c9 bd dc d0 93 3d
       0.06518785 -0.079675056 -0.098589644 0.07217571
000310 56 b4 a5 bd 77 54 f3 bd 6d 55 6d be 16 f0 5d 3d
       -0.08091037 -0.11881345 -0.23177119 0.054184042
000320 d1 79 a9 bd 01 4d 2e be ff b0 ad bd 6f cc cc bd
       -0.08275188 -0.17021562 -0.08481025 -0.0999993
000330 77 09 4d 3d 3f f1 90 3e 26 e9 b1 3d ab cd 5f 3d
       0.050057855 0.28309056 0.08687048 0.0546395
000340 9b 0e 9f bd fd 81 a6 bd f3 3c d6 bd 44 d0 c7 bd
       -0.07766458 -0.08130262 -0.10460844 -0.097565204
000350 15 b4 ae 3d 0f 36 25 3e a0 af 1b 3d 02 50 71 bd
       0.08530442 0.16133903 0.038009286 -0.058914192
000360 0c 58 5f 3d 4f a1 9c 3d 95 23 89 3d 01 ea 98 bd
       0.054527327 0.07647955 0.0669624 -0.07466508
000370 d9 87 04 be d2 0a 86 3d 3f f1 7e 3d 14 a6 6f 3d
       -0.12942447 0.065450326 0.06224179 0.058507994
000380 ab 82 95 3d e2 46 97 bd 15 bc cf bd e0 bb 95 bd
       0.073003136 -0.07386567 -0.10143296 -0.07311225
000390 87 dc 6d 3d d1 23 2c be f9 e3 c2 bd 9e 2b 9e bd
       0.05807164 -0.16810538 -0.095161386 -0.07723163
0003a0 65 ff 11 3e e9 22 7e bd 85 d9 e3 bd 16 83 4b bd
       0.14257582 -0.06204501 -0.11125473 -0.04968556
0003b0 5f 84 ab 3d 0e df a3 3d 60 30 b5 bd 0f b7 8c 3d
       0.08374857 0.08001529 -0.088471174 0.06870853
0003c0 36 34 b7 3d 47 ea b8 bd 26 fa 78 3d b6 4a 8c 3d
       0.08945505 -0.0902906 0.060785435 0.068501875
0003d0 6c 66 9e 3d d8 e3 cd 3d 49 ca 89 bd d6 ea f5 bd
       0.07734379 0.10053223 -0.06728036 -0.12007682
0003e0 40 6c a7 bd 9a 29 d9 bd 4d 3f 8e bd 4c 3f 60 bd
       -0.08174944 -0.10603638 -0.069456674 -0.054747865
0003f0 49 87 24 be 3f 30 bf 3e 42 ce c4 3d 49 97 e3 3d
       -0.16067232 0.37341496 0.09609653 0.1111284

bn1.weight f4 [256]
000000 b7 78 21 3f 0c 1d fd 3e 53 eb ae 3e 8f 90 ca 3e
       0.6307482 0.49436224 0.34163913 0.39563414
000010 a7 55 d3 3e 28 8e b8 3e f4 c7 03 3f 08 3c fc 3e
       0.41276285 0.36045957 0.5147698 0.4926455
000020 2c 60 35 3f c2 e5 09 3f 87 54 dc 3e a5 fc 5c 3f
       0.7084987 0.5386621 0.4303324 0.86323005
000030 1b ca 37 3f bc 87 15 3f 3c ac 26 3f 13 18 27 3f
       0.71792763 0.5841024 0.6510656 0.6527111
000040 ab 19 c3 3e 01 68 45 3e f4 e1 2a 3f d7 58 42 3f
       0.3810552 0.19277956 0.6675103 0.7591681
000050 e0 9c 3b 3f 63 39 41 3f c2 20 a1 3e 99 78 db 3e
       0.7328625 0.7547819 0.31470305 0.42865446
000060 b5 23 32 3f 02 2d d4 3e 7c 21 0e 3f f2 2f 43 3f
       0.69585735 0.41440588 0.55519843 0.76245034
000070 ac 2b 1a 3f 7b c1 05 3f 06 c6 6a 3e 0e 0c b2 3e
       0.6022289 0.5224835 0.22927102 0.34774822
000080 c7 88 9f 3f 2d 94 97 3e d8 74 ce 3e 7f 34 ff 3e
       1.2463616 0.29605237 0.4032352 0.4984474
000090 86 66 06 3f 78 b5 fc 3e 62 b6 5a 3f ba 42 b5 3e
       0.5250019 0.493572 0.85434544 0.3540247
0000a0 b9 be 10 3f 0a 9d 0e 3f d8 ef 07 3f a1 a1 05 3f
       0.5654102 0.5570837 0.5310035 0.5219975
0000b0 19 0a 98 3e c6 d9 12 3f 2c 0e e6 3e 79 41 b3 3e
       0.29695204 0.57363546 0.44932687 0.3501089
0000c0 50 cb 00 3f 39 47 06 3f bc 60 46 3f b6 ea c5 3e
       0.5031023 0.5245243 0.77491355 0.38655633
0000d0 d0 60 d6 3e 99 a2 c7 3e e8 56 0a 3f bd e4 a8 3e
       0.41870737 0.3899124 0.5403886 0.32987013
0000e0 84 26 17 3f cc dc 07 3f c7 04 ff 3e 4a 97 27 3f
       0.59043145 0.53071284 0.49808332 0.65465224
0000f0 75 66 3d 3f e4 82 8e 3e 05 b4 14 3f d2 7b 23 3f
       0.7398446 0.27834237 0.5808719 0.6386081
000100 0e d9 2e 3f 8b 26 da 3e 75 bd 0d 3f 3a b7 b5 3e
       0.6829995 0.4260753 0.55367213 0.35491353
000110 80 06 06 3f 63 7b 74 3e f9 9d 02 3f ab 45 e0 3e
       0.5235367 0.23875193 0.510223 0.43803152
000120 5b e9 b1 3e 9b 07 83 3e 87 a5 40 3f d9 04 80 3f
       0.3474835 0.2559174 0.75252575 1.0001479
000130 23 c6 c2 3e d7 99 0f 3f 65 ee 0a 3f 6a 72 f0 3e
       0.3804179 0.56094116 0.5427001 0.4696229
000140 1c 08 44 3f a5 13 61 3f 47 56 0d 3f 32 8c 8e 3e
       0.76574874 0.879206 0.55209774 0.27841336
000150 02 39 ca 3e 0a 2d 00 3f d3 7b 07 3e f1 ab 98 3e
       0.39496619 0.50068724 0.13230829 0.2981868
000160 0e 37 25 3f 25 16 fa 3e 5a 26 1a 3f 3c f7 02 3f
       0.6453713 0.4884502 0.6021477 0.511585
000170 57 28 ab 3e 5f 0e 51 3f bc 26 ca 3e f0 12 24 3f
       0.33429214 0.81662554 0.39482677 0.64091396
000180 d8 d9 12 3f a3 d2 79 3f 2b 49 03 3f 9f e3 df 3e
       0.57363653 0.9758703 0.5128352 0.4372835
000190 37 74 54 3f 97 62 32 3f 38 e0 6b 3e 51 c7 9f 3e
       0.8298983 0.69681686 0.23034751 0.31206754
0001a0 40 56 b4 3e 51 73 a3 3e 4c f9 ad 3e 72 b0 01 3f
       0.35222054 0.31923917 0.3397926 0.5065986
0001b0 08 21 8a 3e 7c d5 27 3f e1 c8 15 3f 5f 2a 36 3f
       0.26978326 0.65560126 0.5850964 0.71158403
0001c0 68 3d d3 3e b4 66 a7 3e 29 3c 67 3e d3 fe c9 3e
       0.41257787 0.32695544 0.22581543 0.39452228
0001d0 ea 9b 19 3f a1 15 67 3f 26 59 14 3f ff 7e e8 3e
       0.6000353 0.9026738 0.5794853 0.4540939
0001e0 fb 9f dc 3e 4d 48 da 3e d8 43 0b 3f 04 58 4a 3f
       0.43090805 0.42633286 0.54400396 0.7904055
0001f0 5f bd c4 3e d3 1f 18 3f 00 e9 de 3e df fd a5 3e
       0.3842573 0.5942356 0.4353714 0.3242025
000200 6d 9d b4 3e 0f eb d8 3e da 79 c1 3e e5 6d f7 3e
       0.35276356 0.42366835 0.37788278 0.4832603
000210 b0 56 f2 3e f0 f6 ef 3e 29 85 7b 3f ab 90 d4 3e
       0.47331762 0.46868086 0.9825006 0.41516623
000220 55 fc c4 3e 0a d5 98 3e b1 f5 13 3f 22 7c 3d 3f
       0.38473764 0.29850036 0.5779677 0.74017537
000230 54 6c 33 3f 96 eb a8 3e d7 e5 85 3f 34 d5 10 3f
       0.7008717 0.32992238 1.0460767 0.5657532
000240 ca 3c 03 3f 51 c1 e9 3e 83 e1 d4 3e cc b0 1d 3f
       0.5126463 0.456553 0.41578302 0.61597896
000250 f0 b3 d4 3e 3c a6 c3 3e 48 62 77 3e dd ae e6 3e
       0.4154353 0.38212764 0.24158585 0.45055285
000260 6e f5 fc 3e f8 89 c4 3e c6 5c b0 3e 3d a3 67 3f
       0.49405998 0.38386512 0.3444578 0.90483457
000270 3b c1 0c 3f 73 92 cf 3e cc 91 d5 3e 21 5c fd 3e
       0.54982346 0.4054142 0.41712797 0.4948435
000280 1e 36 b3 3e d5 53 b1 3e cf 61 f6 3e 2a 8d e5 3e
       0.35002226 0.3463427 0.48121497 0.44834262
000290 6c 77 6d 3e 39 3d f4 3e 7e 25 a9 3e 3a 40 36 3f
       0.23190087 0.4770296 0.33036417 0.7119175
0002a0 21 9c 80 3f fa bd e2 3e 18 04 1c 3f bf 8a 11 3f
       1.0047647 0.44285566 0.60943747 0.56852335
0002b0 ba 3e 04 3f 61 f7 4a 3d 3f 86 13 3f 4f 50 a9 3e
       0.51658213 0.049552325 0.5762672 0.33069083
0002c0 6c 8e 50 3f 29 6a 0e 3f 71 49 e5 3e ad 72 12 3f
       0.8146732 0.5563074 0.44782594 0.5720623
0002d0 b6 a9 cd 3e 54 1e 2d 3f c8 62 08 3f 13 2c da 3e
       0.40168542 0.676244 0.5327573 0.4261175
0002e0 10 85 2a 3f b3 64 f7 3e 90 f8 58 3f 67 b2 d5 3e
       0.6660929 0.48319015 0.84754276 0.41737673
0002f0 61 2a 05 3f d0 32 34 3f 0d ff e7 3e f2 d9 2c 3f
       0.5201779 0.70390034 0.45311776 0.6752006
000300 f2 ea 2c 3f c8 4d 2e 3f 9e 18 c1 3e 57 7e 11 3f
       0.67546 0.68087435 0.37714094 0.56833404
000310 ca 0d 1e 3e 2e 8b f6 3e 9c 3a ed 3e 57 72 6b 3e
       0.15434948 0.4815306 0.46333778 0.22992836
000320 3b 91 ec 3e 6f 8b 2b 3f 53 45 b2 3e 53 a8 5e 3f
       0.46204552 0.67009634 0.34818515 0.8697559
000330 ba 25 ca 3e e5 8f d5 3e 01 16 24 3f 52 55 82 3e
       0.39481908 0.41711345 0.64096075 0.2545572
000340 6b 90 30 3f 99 02 1e 3f 1d 01 f7 3e fb f6 cc 3e
       0.68970364 0.61722714 0.48243037 0.4003218
000350 be 97 f0 3e 2d 41 f7 3e e9 e8 13 3f 22 5f d9 3e
       0.4699077 0.48291913 0.5777727 0.42455393
000360 64 b7 18 3f da 43 da 3e 71 62 11 3f 4d 78 d8 3e
       0.5965483 0.42629892 0.56790835 0.42279282
000370 77 7d 87 3e b6 c2 d0 3e be 25 3c 3e c9 fb 5d 3e
       0.2646291 0.40773553 0.18373773 0.2167808
000380 85 f9 45 3f d0 05 2f 3f d2 c3 13 3e d6 73 9a 3e
       0.7733386 0.68368244 0.14430168 0.301665
000390 a1 4f b5 3e cd 00 21 3f b0 fe 2b 3f 5a 61 e2 3e
       0.35412315 0.62891847 0.671855 0.44214898
0003a0 29 68 f5 3e eb 06 a5 3e de 31 46 3f 5c 3e ad 3e
       0.4793103 0.3223184 0.7741984 0.3383664
0003b0 30 de df 3e c5 1b 27 3f b2 df 93 3e 02 5e 23 3f
       0.43724203 0.6527675 0.28881603 0.6381532
0003c0 35 1e 5b 3f c4 87 cb 3e 57 d9 e5 3e 5d a7 be 3e
       0.8559297 0.39752018 0.4489238 0.37237063
0003d0 f9 6b 97 3e 20 c4 21 3f 23 7f b8 3e cf 1f ef 3e
       0.29574564 0.6318989 0.36034498 0.46703956
0003e0 da 5a ee 3e fc 88 1c 3f 48 16 34 3f a0 18 a5 3e
       0.4655369 0.6114652 0.703465 0.3224535
0003f0 eb 1a ae 3e e3 0c fb 3e 02 5f ef 3e 5d 76 d8 3e
       0.34004912 0.4903327 0.46752173 0.42277804

bn1.bias f4 [256]
000000 ea 59 10 3d 98 42 48 bd cc bf 65 be be 1b d3 bd
       0.035242 -0.048891634 -0.22436446 -0.10308026
000010 ec 7a 9a 3c 9a 06 14 be b6 cc 52 3d be b7 7e 3d
       0.018857442 -0.14455643 0.05146476 0.06218695
000020 64 69 b3 3d 04 44 eb bc 98 91 25 3e 69 be 2f 3e
       0.08760336 -0.028718956 0.16168821 0.1716248
000030 4e b3 83 bc d5 15 06 3e c8 bc b7 3d d5 fc 2e 3d
       -0.01607671 0.13094266 0.08971554 0.04272159
000040 89 b4 a8 3c 3f ce 05 3e da 00 99 bd 24 cd 3f 3d
       0.020593898 0.13066958 -0.074708655 0.046826497
000050 14 ff 4d 3d 25 64 76 3d 0f f5 27 be d5 43 36 bd
       0.05029209 0.0601541 -0.16402076 -0.044498283
000060 39 73 64 be 75 81 4d 3d 60 ad a1 bd 01 f1 27 be
       -0.22309579 0.050172288 -0.07894397 -0.1640053
000070 77 ba 1c 3d 24 21 79 bd b9 89 9d 3e 10 ff d3 bc
       0.038263764 -0.06082262 0.30769137 -0.02587846
000080 ab 00 c3 3d ef a3 83 bb f1 46 ca 3c 35 5e bd bc
       0.09521612 -0.004017345 0.02469203 -0.02311621
000090 f5 d7 2f bc 02 9c 14 be 83 7a 4b 3d 98 b3 c1 3d
       -0.0107326405 -0.14512637 0.049677383 0.09458083
0000a0 bd 10 37 3e 53 59 73 3d c3 e5 12 be 43 8e 14 3c
       0.17877479 0.059411358 -0.1434546 0.009067121
0000b0 f9 47 9f bd 9f d0 b1 3b 8e 6c 44 3c 0f 84 1d 3d
       -0.077773996 0.005426481 0.011988772 0.03845602
0000c0 1e 72 60 3d 18 a9 f6 3d 81 7c 09 3d d7 54 8d 3d
       0.05479633 0.12043971 0.033566 0.069009475
0000d0 70 5a c1 bd ff 09 83 bd f5 d2 3b 3e 41 a8 8d bd
       -0.09441078 -0.06398391 0.18342192 -0.069168575
0000e0 cd 90 52 3e 7a 36 c1 bd 60 9e 87 bd 00 ba 0a bc
       0.2056305 -0.09434219 -0.066220045 -0.008467197
0000f0 a8 7f 7e 3d c9 d0 82 3c 90 b2 83 3d 2c ef 07 be
       0.06213346 0.015968697 0.064305425 -0.1327483
000100 eb a6 c5 3d 06 e4 4b 3b af 13 94 bb 87 cf e2 3c
       0.09650978 0.0031111254 -0.004518948 0.027686847
000110 d3 f4 f1 bd 41 0d a6 bd 6f ae aa 3d f2 16 60 bd
       -0.11814275 -0.08107997 0.08334052 -0.054709382
000120 55 53 58 be 6c fa 4e 3e 41 73 9c bd 94 01 0a 3d
       -0.21125539 0.20212716 -0.076391704 0.03369291
000130 92 a6 87 3d 67 47 bd 3d 2a 31 21 be 7a 39 0b 3c
       0.06623568 0.092421345 -0.15741411 0.00849759
000140 27 b1 97 3d ae ca 28 3e 98 cf 38 be 84 7b 02 bd
       0.07406836 0.16483566 -0.1804794 -0.031856075
000150 69 7b 2d be 1c 55 2d be a9 24 6c be 92 d1 0b 3d
       -0.16941608 -0.16926998 -0.2306086 0.03413541
000160 4a d0 0a 3d f4 ca 90 3e 3d fc e6 3b 70 65 ad bc
       0.033890046 0.2827984 0.007049112 -0.021166533
000170 25 98 82 bd 4d 09 a8 3b 9c 56 e0 bd cc 5c 52 3e
       -0.063766755 0.005128062 -0.109540194 0.20543212
000180 c1 f6 2c 3e 02 61 ee 3c 4f 52 85 bc 11 c5 3e 3d
       0.16891004 0.029098991 -0.0162746 0.046574656
000190 9c 9f 5b 3d 5f 55 29 bd d9 eb 6f bd 99 46 a9 bd
       0.053619012 -0.04134118 -0.05857453 -0.082654186
0001a0 7d 24 d2 3c f2 7d 6b 3e a9 ea ae 3d a8 b2 b7 3d
       0.025652165 0.22997263 0.085408516 0.08969623
0001b0 12 08 e6 3d ff 19 a6 bc 89 5a e2 bb 3c 4e 0a 3e
       0.11232008 -0.020276068 -0.0069077653 0.13506407
0001c0 11 23 64 bd b1 f0 53 be 95 91 50 3d e9 16 d2 3d
       -0.055697504 -0.20697285 0.050920088 0.10258276
0001d0 3f e5 11 3e 62 0f 24 3e 6c 58 5d 3e a2 d6 07 bd
       0.14247607 0.16021493 0.21615762 -0.033163674
0001e0 a6 c4 4e 3e 5e 21 bb 3d 66 00 6b 3e b8 cc 82 3d
       0.20192203 0.09137224 0.2294937 0.06386703
0001f0 19 3a 7b 3c 9e 22 29 bd fb 7d 4a 3e 79 cd 6c 3e
       0.015333676 -0.04129278 0.1977462 0.23125257
000200 ba b7 e2 bd 24 83 83 3c ed e6 93 3d fb dc 7b bd
       -0.11070199 0.016053744 0.0722178 -0.06149004
000210 ee 2b 03 3d b4 93 1d 3e 7c 9c ec 3d 1b ef 04 3e
       0.032024316 0.15388376 0.115532845 0.12981836
000220 34 d6 03 3c 19 06 50 be 09 1b a9 3d 17 33 3f bc
       0.0080466755 -0.20314826 0.0825711 -0.011669896
000230 06 a7 0a 3e e7 38 8c 3d db a3 e4 3d eb d2 04 3e
       0.13540277 0.06846791 0.111640655 0.12971084
000240 e0 9e 56 3e 70 74 38 bd aa 38 c6 bc 12 78 39 3e
       0.20959044 -0.04503292 -0.024196941 0.1811221
000250 c0 93 4b 3e 3f 97 1b 3d 27 4e 6c be 33 5d ed 3c
       0.19880581 0.037986036 -0.23076688 0.028975105
000260 01 79 14 3e 65 af cf 3d 3b 0a 6a 3e fa 3d ff 3d
       0.14499284 0.10140876 0.22855465 0.12462993
000270 79 5b 2f 3d aa fc 45 3d 97 97 ea 3d 82 2e 9b bc
       0.042811844 0.048336662 0.11454695 -0.018943075
000280 29 9b 47 3c 3e a5 59 bd a6 27 e4 3d 26 ad 8a 3d
       0.012182989 -0.053136103 0.11140375 0.06771307
000290 aa 7e 4e 3e f0 c0 cf 3d 39 b5 79 3d 92 08 d2 3d
       0.20165506 0.10144222 0.060963843 0.10255541
0002a0 2d 45 a5 3d 2f 8b 83 3d ce e0 51 3e d3 b4 a8 3d
       0.08069835 0.064230315 0.20495912 0.082376145
0002b0 7b 95 54 bc 54 62 7f 3e b0 f1 0e 3e 50 36 dc bb
       -0.012975092 0.24939853 0.13959384 -0.0067203417
0002c0 c7 c3 cf bc 72 02 e3 bd 54 1c c6 bc ba b4 e2 3d
       -0.025361909 -0.11084451 -0.02418343 0.11069627
0002d0 9f 13 7f bb ad f1 eb bb d7 c4 04 bd 9e 48 54 3e
       -0.0038921607 -0.007200441 -0.032414284 0.20730826
0002e0 f2 c3 53 3d d5 4b 12 bb 56 b6 89 bc f8 36 b8 3d
       0.05170054 -0.0022323031 -0.016810577 0.089948595
0002f0 f3 19 83 3d 4b 66 b9 3d 60 c4 0c 3d c7 e2 94 3d
       0.06401434 0.09052714 0.034366965 0.07269817
000300 cd 33 8f 3c 45 88 38 3e 00 a3 cc 3d b3 b9 65 3e
       0.017480755 0.18020733 0.09992027 0.2243412
000310 66 63 b1 3e d6 bf f2 bd e9 9b da 3b 88 b7 8b 3c
       0.34646147 -0.11852996 0.006671418 0.017055288
000320 e7 fa 22 bd d4 97 a5 3c 0d ed 98 3d c8 a2 e4 3d
       -0.03979006 0.020213999 0.07467089 0.111638606
000330 10 87 6e bd ba 5a a6 bd 8f 7e 32 3e 0d af 8a bd
       -0.058234274 -0.081227735 0.17431091 -0.067716695
000340 7f 08 1d 3e f4 6d 46 3d 2c 54 b2 3c 7f 36 b7 3c
       0.15335272 0.048444703 0.021768652 0.022364853
000350 b6 a2 c5 bb 7f b1 23 be ed 72 b9 3d c6 e1 62 bd
       -0.0060313595 -0.15985678 0.090551235 -0.055391096
000360 f9 99 08 bd 91 81 08 3e e4 31 7f 3c b2 28 a1 3d
       -0.033349965 0.13330676 0.01557586 0.0786909
000370 2d 10 19 bd c7 b2 f0 3d f9 b6 31 be f4 93 19 3e
       -0.037368942 0.11752849 -0.17354955 0.14997846
000380 d2 4f aa 3d 35 a7 09 3e 4b 9a 48 be 19 39 5a 3e
       0.08316006 0.1344269 -0.19590108 0.21310844
000390 1e 35 e2 3d aa 91 b4 bd 5b 83 ab bd 76 33 f8 bc
       0.110452875 -0.08816846 -0.083746634 -0.030297976
0003a0 3b 23 70 bd 14 3d 9f 3c d9 45 82 bd e4 68 ba bd
       -0.05862735 0.019438304 -0.06360979 -0.091020375
0003b0 d4 09 e0 3d fb d9 96 3e 90 48 c7 3d 25 81 16 be
       0.109393746 0.2946318 0.09730637 -0.14697702
0003c0 87 d9 82 3d 83 d4 c4 3d 4f 1d 13 3d c9 ca cf 3d
       0.06389146 0.09610846 0.035916623 0.101461
0003d0 37 92 f6 3d 01 36 d7 3d 67 30 71 3d a9 93 08 3e
       0.12039607 0.10508347 0.05888405 0.13337578
0003e0 3b fc a1 bc 01 ba 56 3d fa 5a 7c bd ea 64 3e 3d
       -0.019773593 0.05242348 -0.0616102 0.046482958
0003f0 2d af 7c be 93 e4 89 3d 72 d3 c8 3d 5d 5f bc 3d
       -0.246762 0.0673305 0.09805955 0.091978766
