DRLND/P1_Navigation/checkpoint.pth (torch_old, 28393 bytes, 6 tensors)

fc1.weight f4 [64, 37]
000000 f4 ce 80 bd 1d 94 c4 3c 44 5b 53 3d 7d c7 20 3d
       -0.06289473 0.023996407 0.05160071 0.039252747
000010 ad 5f 8c 3e cd 10 84 3c ca 2f d2 bc ea bd 78 3e
       0.27416745 0.016121292 -0.025657553 0.24291196
000020 f3 25 11 bd 75 f3 83 be 94 70 72 3b 3e 61 b0 bd
       -0.03543658 -0.2577168 0.0036993371 -0.086122975
000030 1b ee aa bd dc ad 8c bc 5f 83 21 3d c6 24 d5 3d
       -0.08346196 -0.017172746 0.039431926 0.104074046
000040 43 76 6e bd 68 96 3a 3e ef 40 8e bd 9c 65 14 bf
       -0.058218252 0.18221438 -0.06945979 -0.57967544
000050 67 d7 46 3c 06 71 bf 3d 4a f9 27 3e 78 26 20 3d
       0.012136317 0.093477294 0.1640369 0.039099187
000060 c9 80 39 3d 21 69 2d bd a2 63 1e 3d bc f4 0c 3c
       0.045288835 -0.042336587 0.038669236 0.008603271
000070 8f 2a 65 3d 90 6b 4b bc 9f 45 49 bd bc a1 da 3d
       0.05594879 -0.012415782 -0.04913866 0.1067538
000080 3b 30 3d 3c a2 d4 2e bd d4 55 56 be 65 7f 3f bd
       0.011547144 -0.04268325 -0.20931178 -0.046752352
000090 d9 fc 55 3b c0 cb 37 3e 85 c2 19 3e ac 39 10 3c
       0.003265193 0.17948818 0.1501561 0.008802813
0000a0 88 70 8c 3d fc 2d 1c 3c ec 5f 80 3e ec 18 d5 be
       0.06857401 0.009532448 0.25073183 -0.41620576
0000b0 08 6c 08 be d2 8d 03 bf 8c 89 c5 bf b3 19 6f 3d
       -0.1332246 -0.51388276 -1.5432601 0.058374118
0000c0 c8 cd 47 3d d4 77 36 3b 74 b2 1e 3e 6e b0 7a 3e
       0.048780233 0.002784242 0.15497762 0.24481365
0000d0 6e b9 bd 3d 48 7c 60 bc 1a e7 d5 3d 81 9c 23 ba
       0.092638835 -0.013701506 0.1044447 -0.00062412774
0000e0 c4 04 ad bb 7d 2d c5 bd d4 63 a9 3b 87 a8 41 be
       -0.005280109 -0.09627817 0.005169371 -0.18911944
0000f0 c7 62 c3 3d 82 e2 18 3e 56 43 d6 3c d0 55 89 bc
       0.09540325 0.14930156 0.026155155 -0.016764551
000100 a8 2f e1 3c 72 20 94 3c 6f 58 84 bd 5a e4 00 3d
       0.027488545 0.018081877 -0.0646218 0.031467773
000110 41 51 cf 3c 9e 8c f8 3d 8e 41 b2 3e 39 bf 5d 3e
       0.0253073 0.121361956 0.3481564 0.21654977
000120 6b 40 4a bc 6b 5c 74 bb b5 84 65 3d 1d 32 0b 3e
       -0.01234446 -0.003728653 0.056034762 0.13593335
000130 27 88 86 3d cf ab 5e 3e 18 f5 06 3d 9d 2f 3b bf
       0.06568938 0.21745227 0.032948583 -0.7311953
000140 f4 04 90 3e 3b 8d c1 3e 92 c7 a3 3d 85 1e d8 be
       0.2812878 0.37803063 0.079970494 -0.42210785
000150 40 aa 9d 3d 31 11 26 3d 2d 38 b6 bc 1c 86 d9 3d
       0.07698488 0.04054374 -0.022243584 0.106212825
000160 1a 6e db bc 1f ed 50 3d a4 b0 bc 3d 41 05 14 3e
       -0.026785899 0.051007386 0.09213379 0.14455129
000170 ec 71 0b 3e b5 da 6a bd dd a2 a4 3d 16 63 83 3d
       0.13617676 -0.05733748 0.08038876 0.064153835
000180 b7 01 72 3d 86 b5 19 be d9 a6 b9 be 4c 92 d5 be
       0.059083667 -0.15010652 -0.36260107 -0.41713178
000190 6d 41 83 3e 3f 63 ad 3e d8 d0 89 3d 02 3c d7 be
       0.25635853 0.3386478 0.06729287 -0.4203797
0001a0 0e e7 d7 be 4f b6 be 3c 2a 03 ed 3d 35 1f 2c 3e
       -0.42168468 0.02328029 0.11572869 0.1680878
0001b0 25 1b d8 3d 51 2c 87 3c 9a 12 02 3b e5 09 34 3e
       0.105520524 0.016500624 0.0019847513 0.175819
0001c0 a2 3b 30 3e 0d 3b f0 3c 3d 11 61 be ae 86 8e be
       0.17210248 0.029325033 -0.21979232 -0.27837127
0001d0 68 27 b2 be d1 2c 9d 3e 08 d1 43 bd 01 e8 48 be
       -0.3479569 0.30698255 -0.04780677 -0.19619752
0001e0 40 5b 63 3e 2e b4 17 3d 4d 68 79 be f9 d6 9a 3d
       0.22202778 0.037037067 -0.24356194 0.07560534
0001f0 1a 55 ab bd a4 69 d3 be a8 b0 4e bd 09 96 52 bf
       -0.08365841 -0.41291535 -0.05046144 -0.82260185
000200 96 a2 e8 3d 61 a0 50 be 86 e0 1c bf 98 56 93 3c
       0.11359136 -0.2037368 -0.61280096 0.017985627
000210 ba 3b 90 be 75 af 8f bc f2 b7 37 3e b2 db 32 3e
       -0.28170568 -0.01753972 0.17941263 0.1746662
000220 ed 92 8e bd c3 38 f6 bd 99 23 ea 3c 0d 67 89 3e
       -0.069616176 -0.12022545 0.028581427 0.26836434
000230 b1 12 4a 3e f7 cf ec 3d fc 35 5e 3d 7e c2 80 3d
       0.19733693 0.11563104 0.054250702 0.062870964
000240 cd f1 5a bf ee 6d 58 bd f8 8c 36 3d 0f a4 a6 3b
       -0.8552521 -0.052839212 0.044568032 0.0050854753
000250 47 fc d8 bd 4c 7f 68 be f1 98 09 be b7 5e bb bd
       -0.10594993 -0.2270481 -0.13437249 -0.09148925
000260 79 31 cf 3d 51 7b a5 3d 70 3d 82 39 0f 70 25 be
       0.10116858 0.08080161 0.00024841307 -0.16156028
000270 4f 9f 09 be 59 a7 ec be b2 d3 c7 bd 56 66 4b bd
       -0.13439678 -0.46221426 -0.097571746 -0.049658142
000280 67 ae 8e 3c 3f 6d 5c bd a8 45 a3 bd ba 16 fb bd
       0.017417146 -0.053815123 -0.0797227 -0.12260194
000290 45 29 f2 bc b8 86 d7 bd 85 5d dc 3c a6 e4 01 3e
       -0.029560694 -0.105237424 0.026900062 0.12684879
0002a0 54 e8 b5 3c 17 d8 f5 bd e3 42 3a bb 10 df 40 be
       0.02220551 -0.120041065 -0.0028421215 -0.18835092
0002b0 e3 0d 1d bd 90 50 e8 bd fd af 1b 3d a6 49 01 3e
       -0.03834332 -0.11343491 0.038009632 0.12625751
0002c0 c6 a9 d3 bb 0a b5 ac 3e fc 9d 5d 3e f8 7f f5 be
       -0.0064594476 0.33731872 0.21642298 -0.47949195
0002d0 53 36 d0 bd 84 e7 26 3e 29 75 3a 3f 42 3e 00 bd
       -0.101666115 0.16299254 0.7283502 -0.031309374
0002e0 23 81 8d 3c 95 dc 90 3d f6 f6 75 bd c9 1b 23 bd
       0.017273491 0.07073323 -0.060049973 -0.03982142
0002f0 4c e3 e3 3d 2e c3 27 3d 7c f4 52 3e 50 3f 57 3e
       0.11127338 0.040957622 0.20601076 0.21020246
000300 f5 b9 2a be 6e c5 69 bd 0f 8b 15 bf 4c bb 16 be
       -0.166725 -0.05707305 -0.5841531 -0.14719886
000310 47 b0 9f ba c0 89 8c 3c 9d 67 07 3e f3 21 5e 3e
       -0.0012183272 0.017155528 0.13223119 0.21692638
000320 7c c0 d1 bd 21 d9 04 3e ec 55 8f 3d 12 fe d3 bd
       -0.102417916 0.12973453 0.0699881 -0.103511944
000330 39 ee ab bd bf 63 19 3e 9a 6d ec 3d 84 5e 38 3d
       -0.08395047 0.14979456 0.11544342 0.045012012
000340 a2 15 93 3b c2 63 81 3e a5 b9 b0 3c da d0 bd bc
       0.004488663 0.25271422 0.021572897 -0.023170877
000350 a7 36 ad bc 6e b0 28 3e ef f2 23 be 4f 0e f1 3d
       -0.021144224 0.16473553 -0.1601064 0.11770307
000360 08 85 24 be 7a 82 1e 3b 2d 92 09 3d fc a1 89 be
       -0.16066372 0.0024186657 0.03358667 -0.26881397
000370 31 5c 5d bd 5c a6 2b bc 10 2c 29 be 12 69 2d be
       -0.054043 -0.010476675 -0.16520715 -0.16934612
000380 8a 07 30 bd 3e 34 34 3d 3d db 5f be 72 92 49 be
       -0.04297594 0.043995135 -0.21860977 -0.1968477
000390 e3 d2 10 be 17 fb 62 be 14 42 dc 3d de 06 77 3e
       -0.14142947 -0.22166096 0.10754791 0.24123713
0003a0 d6 41 2d bd 03 ff a0 bb f1 97 b3 be fd 00 c5 3c
       -0.042299114 -0.0049132123 -0.3507686 0.024048323
0003b0 5d 9f 91 3e 34 74 dc 3d c6 6a a0 be 39 a2 35 be
       0.28441897 0.107643515 -0.31331462 -0.17737664
0003c0 65 42 b4 3c b2 6a 87 3e 71 96 23 3d 7a a4 b3 be
       0.022004316 0.2644859 0.039938394 -0.35086423
0003d0 d3 4f 72 3b da 7d de bd 2c 45 79 3e bf 0e 85 be
       0.0036973848 -0.10863848 0.24342793 -0.25987813
0003e0 dd 56 31 be 53 ec 69 ba 35 0e f7 bd 78 2e ef bb
       -0.17318292 -0.00089234597 -0.12063257 -0.0072992407
0003f0 30 7f 84 be 7a 00 2c be 48 c1 af 3d 81 7e 5c 3e
       -0.25878286 -0.16797057 0.08581787 0.21532632

fc1.bias f4 [64]
000000 7f 42 30 3e f3 fc f0 3b 68 f5 dc bd 2c 38 a2 bd
       0.17212866 0.0073543726 -0.10788995 -0.0792087
000010 59 ea ea 3d d4 71 86 bc 22 56 43 be 07 5b 66 3d
       0.114704795 -0.0164117 -0.19075826 0.056239154
000020 12 34 41 3d 3f 9a 46 be 3f 13 6e 3e c1 b9 cd 3d
       0.0471688 -0.19394778 0.2324953 0.10045195
000030 b1 30 21 3e 5b 8f e9 3d 78 60 12 be f5 4f 7b bd
       0.1574123 0.11404296 -0.14294612 -0.06135555
000040 86 aa 65 bd db a3 86 3d 0b 51 12 39 6c 63 c2 bd
       -0.056070827 0.06574222 0.00013953836 -0.094916195
000050 82 09 9c bd 35 e1 31 3c ac 8c ea 3c c2 09 b6 bd
       -0.07619001 0.010856916 0.02863153 -0.0888858
000060 35 3f e3 bd 4b 22 76 3e 9a c5 cf 3b 04 5e 5d be
       -0.1109604 0.24036519 0.0063406946 -0.21617895
000070 b5 55 2d 3e 5e 87 2e 3e e1 36 6a bd 8e b3 ff bd
       0.16927226 0.17043826 -0.057181243 -0.12485419
000080 73 42 3a 3e 02 b1 1c 3d 1a 18 30 3d c3 73 e6 3d
       0.18189411 0.038254745 0.042991735 0.112525485
000090 12 6b 8d bc 41 4a a5 3d 19 e3 47 3d bc fb ed bd
       -0.01726297 0.080708034 0.04880056 -0.1162028
0000a0 de 5d 02 be fd 07 ea bc 8a db a3 bd d4 e9 27 3e
       -0.1273112 -0.028568262 -0.08000858 0.16397792
0000b0 c6 ab 5f 3d ad db f2 bd 1a 4b ca 3d e1 7d d2 bd
       0.054607175 -0.11858306 0.09877606 -0.10277916
0000c0 8f 7b d0 bd 05 27 b4 3d 0d 6d 17 be 7a fe 99 3c
       -0.10179817 0.08796505 -0.14787693 0.018798102
0000d0 3e 79 b1 bc 71 85 23 3d c2 d9 02 be a1 69 68 3c
       -0.021664258 0.03992218 -0.1277838 0.01418534
0000e0 55 e6 bb 3d c9 a5 46 bd 6c 22 e7 bd 37 f7 84 bd
       0.09174792 -0.04849795 -0.11285862 -0.06492465
0000f0 94 52 c2 bc 20 ea d2 3d 70 31 3a 3c a8 d4 fe 3c
       -0.023721017 0.10298562 0.011364326 0.031107262

fc2.weight f4 [64, 64]
000000 08 5a 67 be b3 4a 55 3d 91 d0 f5 bd 6f ca a1 3e
       -0.22592938 0.05207319 -0.120026715 0.31599757
000010 69 a0 7d 3b e5 19 e2 be 1b 40 6a be 0d b9 39 be
       0.0038700348 -0.4416038 -0.22876017 -0.18136998
000020 85 8a 68 3e 18 26 b6 be 06 83 12 3e e3 71 bc bd
       0.22709091 -0.35575938 0.14307794 -0.0920141
000030 82 e1 49 3d a4 03 26 3d df 4d 9a be c9 55 1e 3d
       0.049287327 0.040530816 -0.30137536 0.03865603
000040 65 d8 ce bd 9e df 07 be 5f 68 98 3d ce ec 8e 3d
       -0.10099868 -0.13268897 0.07441782 0.06978761
000050 7e f2 06 be 3a 64 d5 bd e9 ff 5e 3d 99 37 66 be
       -0.13178441 -0.10419507 0.054443274 -0.22482146
000060 90 6d 97 be b0 30 3b be c0 e7 66 3c 4e 94 5f 3d
       -0.29575777 -0.18280292 0.014093339 0.054584794
000070 e8 db 90 bd ba 44 85 bd b7 00 21 be 63 35 2e 3e
       -0.07073194 -0.06507249 -0.15722929 0.17012553
000080 6c 62 dd bd 40 28 9c bd a0 af 74 bd a6 c6 e8 bd
       -0.10809788 -0.076248646 -0.0597378 -0.11366014
000090 5a 51 b8 bd 68 68 46 3e 51 73 bb be 9b 3d 02 be
       -0.089998916 0.19375765 -0.36611417 -0.12718813
0000a0 66 75 e5 be ef 6d 26 bd 90 03 b5 3e 61 55 28 be
       -0.4481613 -0.040632185 0.3535428 -0.1643882
0000b0 5a 21 3f 3e a8 a2 0d 3e e6 47 84 bd fa 08 68 3e
       0.18665066 0.1383158 -0.06459026 0.22659674
0000c0 da c7 c1 be 1c ad 19 bd b0 aa 8a bb b2 d8 ce bd
       -0.37847787 -0.037518606 -0.0042317733 -0.10099925
0000d0 35 b8 91 be cb 02 5d be 36 c2 4f 3e 30 69 fd be
       -0.2846085 -0.21583097 0.2028893 -0.49494314
0000e0 4d e8 3b be 54 4c c3 bd ff bd d4 bd 46 02 a7 3e
       -0.18350334 -0.09536043 -0.103878014 0.32618922
0000f0 7c 73 b5 be 2d 1a 50 3e 5f e5 58 be c5 a9 53 be
       -0.3543967 0.20322485 -0.21181248 -0.2067023
000100 fb 44 af bd 7a 20 da 3d 6d 87 3a bf f5 78 d3 3d
       -0.08558079 0.10650726 -0.72862893 0.10325805
000110 d7 9f 3b 39 aa 91 36 3d 19 17 ec bd bf a6 43 be
       0.00017893255 0.04457251 -0.11527843 -0.19106577
000120 86 bf 3e bd 14 34 df 3d b1 49 b0 3a 3f 73 14 3e
       -0.04656937 0.10898605 0.0013449696 0.14497088
000130 4e 52 c6 bd 98 62 02 3d c7 7e ba bd cf 68 8f 3d
       -0.09683667 0.031832308 -0.09106212 0.070024125
000140 3a 94 bd bd 97 58 5a bd d8 83 5c be fb e2 ce 3d
       -0.092567876 -0.053307142 -0.2153467 0.10101887
000150 f3 1c de bd 23 c5 c5 bc c0 47 41 3b c5 28 8e be
       -0.108453654 -0.024141854 0.002949223 -0.2776548
000160 50 a3 3f 3e ec 31 96 bd 0a 58 f7 bd 68 da 37 be
       0.18714643 -0.073337406 -0.12077339 -0.17954409
000170 1c a5 67 3e 89 c1 29 3e 44 23 b7 bd 23 ea 2d be
       0.22621578 0.16577734 -0.08942273 -0.16983847
000180 45 4a 61 3e 10 8d 09 be fe cf 5f bd 7b 6c 60 be
       0.22000988 -0.13432717 -0.054641716 -0.21916382
000190 51 64 89 bd 7f bd 84 3e 6f b0 44 be 99 4b 3a 3d
       -0.06708587 0.25925824 -0.19207929 0.04548225
0001a0 cb bb 0c be f5 f2 c1 bd 06 32 ef 3b 38 dc 91 bd
       -0.13743512 -0.094701685 0.0072996644 -0.071220815
0001b0 b5 a7 4d be ad ef 1d 3e e4 67 85 be a9 03 2e bc
       -0.20083506 0.1542346 -0.26055825 -0.01062099
0001c0 9f d0 10 be 3e dd 13 be ff 8a 4f bd 59 ca 57 3d
       -0.14142083 -0.14439866 -0.050669666 0.05268321
0001d0 b5 27 bf bd b4 76 af 3e cc c9 7b 3d 87 f6 ae 3d
       -0.093337454 0.3427025 0.061471745 0.08543115
0001e0 ea 59 44 be c8 e9 f5 3c c4 e9 8b 3d 42 8f 33 be
       -0.19174924 0.030018702 0.06831697 -0.17535117
0001f0 75 2d 51 be 7c 9f ff 3d 38 f5 9c bd d4 fe a7 bd
       -0.20427497 0.12481591 -0.07663959 -0.082029015
000200 65 6a 70 be 71 bc 3b be c5 fd 8d 3d 8f e8 a7 3d
       -0.23478086 -0.18333603 0.06933168 0.08198654
000210 08 74 70 3d 43 5c 8a 3d d7 a1 0d 3d 81 16 a6 be
       0.058704406 0.06755879 0.03457817 -0.32439044
000220 1b da a7 3e 29 d6 cb be 49 19 f9 3d 86 2c 5e be
       0.3278359 -0.3981183 0.12163026 -0.21696672
000230 4c c5 05 be 3d ed 36 be 96 53 43 be c6 cc 55 3e
       -0.13063544 -0.17863937 -0.19074854 0.20878896
000240 b0 51 02 be ed ce 57 3d 60 68 4e 3e 2d 74 70 be
       -0.12726474 0.052687574 0.20157003 -0.23481818
000250 b3 93 63 bf cc b6 2f 3e 84 f4 00 be 83 75 36 3f
       -0.88897246 0.17159575 -0.12593275 0.7127306
000260 bf bf 76 bd ee 76 c3 be 12 31 82 3e 9a 4e ab 3d
       -0.060241457 -0.38176674 0.25428063 0.083646014
000270 5e 45 b4 be de e0 94 be eb ed 87 be be 4e 46 3b
       -0.35209173 -0.2907781 -0.26548705 0.0030259336
000280 1a 78 ae bc fd fc 10 be ac 29 54 be 5a 17 62 3e
       -0.021297503 -0.14159007 -0.20719022 0.2207922
000290 62 9e eb 3d 14 fb 0b be aa 3a 14 3d 93 fc 76 3d
       0.115048185 -0.13669997 0.03618876 0.060299467
0002a0 5a 89 6b 3d 08 c3 2c be dc 52 8d 3d b9 51 1a 3c
       0.057504036 -0.16871274 0.0690057 0.009418898
0002b0 40 c2 93 bd d7 1b c8 be c1 09 09 bf 0b 91 9d 3c
       -0.072147846 -0.3908374 -0.5353051 0.019234201
0002c0 01 91 d7 3d cb 62 11 be 73 fb 8a bc ea e7 17 3d
       0.10525704 -0.14197843 -0.016965603 0.037086405
0002d0 80 e4 97 be c9 db 0e bd a1 c0 3a be 2d b2 a4 3d
       -0.2966652 -0.034877572 -0.18237545 0.08041797
0002e0 84 8a f2 bb 88 28 0b 3e 01 b7 02 be aa f3 d6 3d
       -0.0074017663 0.1358968 -0.12765123 0.10495694
0002f0 82 4b 13 be 2a c9 82 bc 7b 0a a9 3d d9 9a ea bd
       -0.14384273 -0.015965063 0.08253952 -0.11455316
000300 78 5f bb bc 9d 6c 82 bd 0a ac 61 bc de 09 8c be
       -0.022872671 -0.063683726 -0.013773927 -0.27351278
000310 c6 25 3c 3d fa a6 d8 3a 55 73 0e 3e 85 c6 5d bd
       0.04593446 0.0016529255 0.13911183 -0.0541444
000320 4b 7b 61 bd af 59 8f 3d 47 b8 aa bc cf 4e 10 3e
       -0.055049222 0.06999528 -0.020839823 0.14092563
000330 43 4a ee bd 4f 67 31 3e ea 18 cb bd c8 46 38 3e
       -0.11635258 0.17324565 -0.09916861 0.17995751
000340 5c 16 22 be cb 1d 57 3c a2 33 ce bc 8d c0 7b 3d
       -0.15828842 0.013129662 -0.025171105 0.061462928
000350 62 eb 08 bf 16 14 88 bd 94 72 5d 3c 63 3c ed 3e
       -0.53484166 -0.06644456 0.013516087 0.46335134
000360 6c 4e c4 b9 a0 91 fd be 11 1e 02 be 12 56 88 be
       -0.00037442462 -0.49525166 -0.12706782 -0.26628166
000370 28 50 65 3d f6 f9 98 be 55 07 ee bd 77 19 e8 3d
       0.055984646 -0.29878205 -0.11622492 0.11332982
000380 3f f1 04 3d 80 11 03 bf 27 d5 df 3d 60 aa c7 3c
       0.032456633 -0.5119858 0.109293275 0.024373233
000390 9f 97 00 bd 9f d7 46 be 3e ff 0a be 04 f7 04 3b
       -0.031394597 -0.1941819 -0.1357393 0.0020288834
0003a0 51 49 81 bd d6 22 1c be 05 43 1a 3d ef f4 d3 bc
       -0.06312812 -0.15247664 0.03766157 -0.02587363
0003b0 90 ff cb 3c bc 43 cd bd 1e 1d 36 be 14 a8 48 3d
       0.024902135 -0.10022685 -0.17784545 0.048988417
0003c0 c5 d3 d3 3d 40 c9 4f 3c c3 94 85 be 5a 99 5b 3e
       0.10343126 0.012682259 -0.2609006 0.21445218
0003d0 d9 a0 e1 3b b8 f0 ab bc f9 37 88 be a3 89 b3 3d
       0.0068856296 -0.020988807 -0.26605204 0.087664865
0003e0 88 07 56 bd 33 4c 13 bd b6 f6 92 3d 8a e5 56 bc
       -0.052253276 -0.03596134 0.071759626 -0.01311625
0003f0 72 42 eb bd b0 34 96 bb 66 dd 9f bd e9 7e 29 be
       -0.11487283 -0.0045839176 -0.078059 -0.16552319

fc2.bias f4 [64]
000000 9f 0d c9 3b fc 82 10 3c 03 8b c5 3d a5 33 6f bc
       0.006135657 0.008820292 0.09645655 -0.014599715
000010 5d f1 f4 3d 81 38 4c be 3d f1 8c bc ce a6 9d bc
       0.11960099 -0.1994343 -0.017204875 -0.019244578
000020 35 6d 57 3d 1b 74 ed 3e 60 75 8d bd 4a 1e 69 3e
       0.052594382 0.46377644 -0.06907153 0.2276546
000030 64 55 ca 3c c8 84 c6 bc c9 3a 00 bd 37 dd 7f 3a
       0.02469892 -0.024233237 -0.031306062 0.00097604416
000040 b9 be a1 3d 29 61 ec 3b 6d c8 37 3b b4 1b d9 3d
       0.078977056 0.007213731 0.0028043047 0.10600987
000050 45 0e c2 3e 2c 40 00 3f e8 7e 1b be 5e a4 79 3c
       0.37901512 0.5009792 -0.1518513 0.015236942
000060 00 6d b2 bd 52 5b b5 bd 17 b3 88 bc 41 26 57 bc
       -0.08712196 -0.088553086 -0.01668696 -0.013131679
000070 cd 0a 52 3e a5 5a aa 3e d6 f2 3f 3d 8b 9a 13 bd
       0.20511933 0.3327228 0.046862446 -0.036036056
000080 a8 12 e6 bd c1 a0 9f 3e b0 65 f6 3d f6 6d 90 bd
       -0.11234027 0.31177333 0.12031114 -0.070522234
000090 9b fa 5e be 9f bc 00 be 89 2c 68 bc 8c fd f0 3d
       -0.21775286 -0.12571953 -0.014170774 0.1176711
0000a0 3d 3d 0a be d6 6a 0d 3f ff a1 cb 3e 44 02 0a 3c
       -0.13499923 0.55241144 0.3977203 0.008423392
0000b0 98 48 2d 3d 7e 79 b6 bd 6b b9 ad 3e 57 c1 c7 bd
       0.04230556 -0.089098915 0.33930525 -0.097536735
0000c0 5a b2 74 3d fd 8d cd bd da 77 39 be 87 b1 dc 3e
       0.0597404 -0.10036848 -0.18112126 0.43104193
0000d0 1f b0 44 3c f0 f4 6b bd 80 01 d0 3d c6 83 9c 3b
       0.012004881 -0.057606637 0.10156536 0.004776451
0000e0 03 80 1b be 00 ce 20 be 03 59 7c bb 03 85 fa bd
       -0.15185551 -0.15703583 -0.0038505204 -0.12232401
0000f0 fa 87 0d bc 18 5d 37 3e 4e 36 ce 3d 61 21 a1 bd
       -0.008638376 0.17906606 0.100689515 -0.07867695

fc3.weight f4 [4, 64]
000000 f9 4d d9 3c 78 7d 11 3e 7e 7d 80 3e f2 aa d8 bc
       0.026526438 0.14208019 0.25095743 -0.0264487
000010 70 cb bd 3e 0f e5 f3 bd 29 2d e4 3e c0 6f c0 bd
       0.37069273 -0.11908924 0.44565704 -0.093963146
000020 3a 6e 06 3f 9d 60 e6 3d 03 41 1d be ed 76 50 3e
       0.5251194 0.11248896 -0.15356831 0.20357867
000030 79 4a d2 3e 28 f1 e5 be cb d5 64 3d 3c 11 c7 be
       0.41072443 -0.4491055 0.05586795 -0.38880336
000040 14 90 44 3e 2f 9b 46 3d d0 fd c0 3e 81 2e 41 3e
       0.19195586 0.04848784 0.37693644 0.18865396
000050 49 1c 00 3e e9 c7 0b 3e 10 d3 fa bd 5d f2 06 3e
       0.1251079 0.13650478 -0.12247288 0.13178392
000060 fe d0 ad 3d 2b 46 7f 3c a6 66 34 bd c4 1a c8 bd
       0.08487128 0.015580694 -0.044043206 -0.0977073
000070 7a 9c 90 3d ad 68 3a 3e 28 2e bb bd cf 75 a2 3d
       0.070610955 0.18203993 -0.09139663 0.079326265
000080 d5 d4 29 bd 67 3f 0e 3e bb a8 e5 3d b1 e2 fa be
       -0.041462738 0.13891374 0.112138234 -0.49001077
000090 9f 9b 3a be d6 3b 50 3c f5 57 ad bd 17 11 31 3e
       -0.18223427 0.0127095785 -0.08464042 0.17291676
0000a0 bb aa fc bd 6c 6e 1f 3e 53 62 11 3e ea 1a 9f 3d
       -0.12337252 0.15569466 0.14197664 0.07768805
0000b0 c1 f0 60 3e f6 d0 0a 3d 77 fa 47 3e 56 27 1f 3f
       0.2196684 0.033890687 0.19529139 0.62169397
0000c0 5d 4f a0 3e e8 1c 30 3e 87 11 16 be ae e8 90 3e
       0.3131055 0.17198527 -0.14655124 0.2830252
0000d0 4b e8 47 3e 9b 41 4a be 88 eb ce 3d 70 51 87 3e
       0.19522206 -0.19751589 0.10103518 0.2642932
0000e0 ca 5d 96 be f8 57 2e be 27 12 9d 3c 6a 07 1c bc
       -0.2936843 -0.17025745 0.019173695 -0.009523252
0000f0 39 55 50 be e9 4a 24 3e 48 04 a9 3c bb bc 52 3d
       -0.2034501 0.16044201 0.020631924 0.05144952
000100 00 dd 88 3e a6 5d 0f 3e c2 74 0c 3f 01 a8 a5 3c
       0.2673111 0.14000568 0.5486566 0.020221712
000110 56 95 a6 3e e0 a6 b3 bd 41 61 cf 3e 41 e1 9b bd
       0.3253581 -0.08772063 0.40503886 -0.07611323
000120 e0 56 cb 3e ba 2a fa 3d 22 b8 90 3d 1e 11 2a 3e
       0.39714718 0.12215181 0.070663705 0.16608092
000130 4a af 9e 3e a8 84 2b 3d fc 5f 58 3e b9 11 47 be
       0.3099311 0.041874558 0.21130365 -0.19440354
000140 0d 37 db 3d 0d 6b 84 3b bf 66 ad 3e 23 85 1c 3e
       0.107038595 0.0040410818 0.33867452 0.15285163
000150 b4 64 46 3e df a9 28 3e da 73 5d bd 64 05 25 3e
       0.19374353 0.1647105 -0.054065563 0.16115338
000160 01 fe e5 3d 95 1b e9 bd c1 bb 23 3c 2d 1e cd 3c
       0.11230088 -0.11382214 0.0099934945 0.025038803
000170 93 1f a0 3d dc d7 53 3e d2 59 00 be c8 25 10 3e
       0.07818522 0.20687813 -0.12534264 0.14076912
000180 44 cf c6 bd 19 02 61 3d 2b 05 01 3e 63 68 92 be
       -0.097075015 0.05493364 0.12599628 -0.28595266
000190 59 29 b7 bd 5c 92 aa be ac ef d0 3d 62 1c 2c 3e
       -0.08943433 -0.33314788 0.10201964 0.16807702
0001a0 24 16 87 bc 72 04 34 3e 67 4a 43 3d 8b 7e fd 3c
       -0.01649005 0.17579821 0.047678377 0.03094413
0001b0 da e6 87 be b4 d2 87 be 1b ec 2e 3e 7c 51 05 3f
       -0.26543313 -0.2652794 0.17082255 0.5207746
0001c0 f3 2b 18 bc 06 7f 50 3e 32 6b 8c be d3 fb 56 3e
       -0.009287822 0.20360956 -0.27425534 0.20994501
0001d0 b2 2e 72 3e 0e 03 61 3e 42 ce ee 3d 2a 4e a1 3e
       0.23650625 0.21973822 0.11660434 0.31504947
0001e0 80 33 f5 bd f1 55 8b be a2 83 0d 3f 2f 2f f8 3d
       -0.119727135 -0.27214006 0.5527898 0.121183746
0001f0 e1 86 11 be 25 e1 d8 3d d6 13 0d be db a2 f7 3d
       -0.14211608 0.10589818 -0.13777098 0.12091609
000200 32 c2 ec be a2 4f eb 3d a5 cf bf 3d b4 ff 83 be
       -0.4624191 0.11489798 0.09365777 -0.25781024
000210 41 74 bf 3e 97 49 0d 3e 65 1f f2 3e 0a 0d ca bd
       0.37393382 0.13797604 0.47289577 -0.09865768
000220 a8 22 bd 3e a5 32 1d 3e b2 f5 c4 be c6 1f 8a 3e
       0.36940503 0.1535135 -0.384687 0.26977366
000230 29 68 f6 3d d1 02 c7 be d3 11 bf be fd f0 67 be
       0.12031586 -0.38869336 -0.37318286 -0.22650523
000240 b5 c5 62 3e 0d a9 ec be e8 fb 74 3d 62 93 dd 3d
       0.22145732 -0.46222726 0.05981055 0.10819127
000250 47 88 df 3d 94 62 6d 3e 97 fb 91 3d 66 f9 40 3e
       0.10914665 0.23182136 0.07128065 0.18845138
000260 f8 f7 09 3f 64 6a 90 bd a7 8f 24 be 47 b6 a6 be
       0.53893995 -0.070515424 -0.16070424 -0.32560942
000270 35 82 38 3e 8c 5e 4f 3e 86 a4 3b 3d bf 7d 87 3d
       0.1801842 0.2025091 0.0458112 0.06615781
000280 2e 94 79 be 0c 9d 91 3d ff 03 4f 3e a1 4c 56 be
       -0.24372932 0.071100324 0.20216368 -0.20927669
000290 8b 5a c3 3b 76 52 37 3e db 83 9b 3c 9c 7d 9b 3d
       0.0059617213 0.1790255 0.018983772 0.075923175
0002a0 4b a3 3e bc d9 dd 35 3e c6 ab 46 3e ec 2c 55 3d
       -0.011635612 0.1776041 0.19401464 0.052044794
0002b0 d8 87 d5 3e 78 05 48 be 02 3f fe 3d 5f 6e ed 3e
       0.41705203 -0.19533336 0.124143615 0.4637327
0002c0 f1 ed b7 3e fe e9 37 3d 48 58 8b 3d c3 7d 8b 3e
       0.35923722 0.044900887 0.06803948 0.27244386
0002d0 a1 05 d8 bb 29 e5 e3 3d 68 e4 0c 3e c7 94 a3 be
       -0.006592468 0.11127693 0.13759005 -0.31949446
0002e0 40 6e 85 be 70 69 26 be c2 69 00 3f eb 11 47 3d
       -0.26060677 -0.16251159 0.50161374 0.048601072
0002f0 bf 19 08 be 2e da f6 3c 65 f4 c1 be cb 5a 0f 3e
       -0.13291071 0.030133333 -0.3788177 0.13999479
000300 68 a6 41 3e d7 81 02 3e 0b d6 14 3f eb 8b b8 3d
       0.18911135 0.12744842 0.58139104 0.09011062
000310 cf e8 61 3e e5 29 00 3e 60 56 4d 3e 06 04 23 3d
       0.22061466 0.12515981 0.2005248 0.03979876
000320 d2 46 1d 3f 5b 1a 44 3e 4f 33 4a 3e b3 b7 f0 3d
       0.6143619 0.19150679 0.19746135 0.11753788
000330 95 73 b4 3e 82 86 56 be 3d 1a d0 3e 99 21 4e be
       0.35244432 -0.20949748 0.40645018 -0.20130004
000340 7b ed 02 3e 8a db 4e be 4b a7 62 3e 99 83 d4 3d
       0.12785904 -0.20200935 0.2213413 0.10376663
000350 9e 6f 8d 3d 58 0f 18 3e 27 45 80 be b3 54 9d 3e
       0.06906055 0.14849603 -0.2505276 0.30728683
000360 2e b3 68 3e 6d 4b bc be 17 a8 96 3d 28 eb 6e 3e
       0.22724602 -0.36776295 0.07356279 0.23331892
000370 85 77 5a 3e 38 d7 f4 3d 06 5c 71 be dc a5 8f 3e
       0.21334656 0.11955112 -0.2357026 0.28056228
000380 1f 8f 24 be 31 0e 02 3e bb b2 27 bc 80 d4 44 be
       -0.16070221 0.12700726 -0.010235484 -0.19221687
000390 63 8d 96 be e1 2a cd 3e 95 d8 53 3e 0e 96 00 3e
       -0.29404745 0.40071777 0.20688088 0.12557241
0003a0 62 f0 35 be b8 f5 61 3e 99 64 45 3e e5 df 77 be
       -0.1776748 0.2206639 0.19276656 -0.24206503
0003b0 f8 6b 7f 3d 92 c6 de be c2 aa 08 3e 90 14 8a 3e
       0.062358826 -0.43510872 0.13346389 0.26968813
0003c0 1a e9 03 be f4 c1 1e 3e c9 db 36 3d 66 9e a0 3e
       -0.1288189 0.15503675 0.044643197 0.31370848
0003d0 d4 0d af 38 2e 19 9e be 6f ab 23 3e da 77 ea 3e
       8.347226e-05 -0.30878586 0.15983365 0.45794564
0003e0 3e 98 4a be dc 3c d1 be 1b 46 08 3e 39 d1 e4 bd
       -0.19784638 -0.40866745 0.13307993 -0.111727186
0003f0 dd c9 75 be b2 94 30 3d ba ff 72 be e4 c2 22 3e
       -0.24002786 0.043110557 -0.23730364 0.15894657

fc3.bias f4 [4]
000000 68 a4 ad 3e 9e 1d a6 3e 67 51 60 3e b4 cd 53 3e
       0.33914495 0.3244447 0.21906053 0.20683938
