DRLND/P3_Collab_Compet/checkpoint_critic0.pth (torch_old, 301984 bytes, 13 tensors)

fcs1.weight f4 [256, 24]
0.034022827 0.046582233 0.020735385 0.03545154 0.022469617 0.013164764 -0.058260135 0.045107964
0.04156472 -0.02862915 -0.025248658 0.046965472 0.06968017 -0.044882495 -0.05265059 -0.022945791
-0.02086125 0.001706405 -0.0577094 -0.01457588 -0.024407333 0.021692673 -0.014903392 -0.04395859
0.067122206 0.07526625 -0.03033784 -0.07283083 0.0019373808 0.04479175 0.014613885 0.03478074
-0.019097492 -0.022009624 -0.027493667 -0.018255053 -0.052291557 0.06710935 0.00042404231 0.00068516034
-0.019815022 -0.0050954875 -0.050033405 -0.026979657 -0.01008792 0.18542194 -0.0022842493 0.021632073
-0.018299453 -0.011124082 -0.0255646 -0.03000573 -0.0064136726 0.077369735 0.034399536 0.003944617
0.057003226 0.013677557 -0.0006227128 0.04705084 0.07617123 0.080631986 -0.002122999 -0.024755467
-0.01924498 0.095515445 0.029388895 0.04384424 0.13455561 0.11858024 -0.021599334 -0.0014527383
0.0039473306 -0.08937302 0.013455338 0.046952303 -0.024890069 0.0074222223 -0.010122347 0.062201105
-0.038977314 -0.06046876 -0.04796657 0.030053243 0.01499717 -0.07453567 0.022279501 0.035695016
0.014613336 -0.017489173 0.054474507 -0.008664019 -0.14102702 -0.0011319652 0.022661109 -0.002219051
0.16535579 -0.0012509659 0.032979 0.052942585 0.015082433 -0.14898251 -0.04720764 -0.056507863
0.042858783 0.011238081 -0.013882614 0.000118838114 -0.02311775 0.0014771133 0.009999349 -0.020025035
-0.00991695 -0.091919504 -0.040660467 -0.020573717 -0.0015082641 0.06613927 0.035292126 0.033294644
0.056536797 -0.015489355 -0.012103417 -0.026954062 0.006206843 -0.026988564 0.009488368 0.030909589
-0.03798719 -0.030532258 0.0065368293 0.028161265 -0.08518707 0.07408864 0.0011603141 -0.008404091
-0.05199826 -0.056606203 0.012210802 -0.042162683 0.0461372 0.26696652 -0.009965519 0.05609196
-0.04439266 -0.09858219 -0.05318329 0.06833895 -0.13101645 -0.04406207 0.04044355 0.03533248
0.020204829 0.0029794457 0.021352246 0.027009597 -0.15137036 0.0022125414 0.0077760876 -0.014731368
0.003390031 -0.015957251 0.0016399217 0.033149134 -0.08449087 0.072407246 -0.032531213 -0.016251637
0.090477 0.011836852 -0.004627783 -0.02208141 -0.08545522 0.02699525 0.0219648 -0.019445805
0.05456785 0.038145833 -0.030336954 -0.010198133 -0.12670358 0.019975347 0.025051111 0.04600318
0.10451677 -0.045371182 -0.011592047 0.003668445 -0.09571367 -0.0038803052 0.003858472 -0.012714953
-0.047029987 0.0072872243 -0.03085059 -0.031607628 -0.002776716 0.060671967 0.038325742 -0.029869907
-0.03280563 0.049241345 -0.020622548 -0.011936801 0.07090731 0.018411035 -0.028088681 -0.054630082
-0.009599712 0.06329297 0.010166761 0.04540766 0.15638913 0.008261707 0.020548087 0.056277413
0.051114697 0.120026685 -0.013540715 -0.01310671 -0.1095473 0.03077485 0.012393526 -0.057471912
0.05254653 0.004472822 0.0670533 0.000973458 -0.021816533 -0.0107084755 -0.01938903 0.0023013572
0.039608866 0.072163686 0.01892025 -0.07977369 -0.05233091 -0.048032414 0.0062087746 -0.077791706
0.02714965 0.024093695 0.047379393 0.00093612395 0.011028237 0.027926099 0.047157016 0.009327415
-0.032643422 0.051948547 0.05639584 -0.01594048 0.054974243 0.031550717 -0.010440993 0.07016607
00000000: 855b 0b3d 03cd 3e3d 41dd a93c a235 113d
00000010: 3412 b83c 06b1 573c 2ea2 6ebd 21c3 383d
00000020: c53f 2a3d ae87 eabc 46d6 cebc de5e 403d
00000030: 7ab4 8e3d b5d6 37bd 25a8 57bd d0f8 bbbc
00000040: 36e5 aabc 73a9 df3a b160 6cbd accf 6ebc
00000050: e3f1 c7bc d5b4 b13c 5b2d 74bc ec0d 34bd
00000060: 5e77 893d 3125 9a3d 1087 f8bc 5528 95bd
00000070: b6ef fd3a 8e77 373d 146f 6f3c 4076 0e3d
00000080: 5872 9cbc 874d b4bc 663a e1bc 9f8b 95bc
00000090: ac2f 56bd a070 893d ff51 de39 559c 333a
000000a0: 1d53 a2bc 0cf8 a6bb d4ef 4cbd 7104 ddbc
000000b0: ce47 25bc 40df 3d3e 58b3 15bb bf35 b13c
000000c0: bce8 95bc c841 36bc da6c d1bc 94ce f5bc
000000d0: c929 d2bb 0674 9e3d 87e6 0c3d d941 813b
000000e0: 377c 693d d517 603c 8c3d 23ba 62b8 403d
000000f0: a9ff 9b3d 6222 a53d 0322 0bbb facb cabc
00000100: a6a7 9dbc 9a9d c33d fbc0 f03c 0596 333d
00000110: f2c8 093e 32da f23d 16f1 b0bc cf69 beba
00000120: 9c58 813b 3409 b7bd c773 5c3c 0f51 403d
00000130: 42e6 cbbc 1d36 f33b 33d8 25bc 96c6 7e3d
00000140: ada6 1fbd 17ae 77bd 9878 44bd 3832 f63c
00000150: b1b6 753c 28a6 98bd 8083 b63c f034 123d
00000160: c66c 6f3c 7445 8fbc a920 5f3d 88f3 0dbc
00000170: 6369 10be 735e 94ba caa3 b93c 7f6d 11bb
00000180: 0753 293e 73f7 a3ba fd14 073d 53da 583d
00000190: 4f1c 773c df8e 18be cc5c 41bd ca74 67bd
000001a0: b18c 2f3d ee1f 383c e773 63bc ba38 f938
000001b0: 7061 bdbc b39b c13a 4fd4 233c 8b0b a4bc
000001c0: b47a 22bc 4b40 bcbd 978b 26bd 368a a8bc
000001d0: f2b0 c5ba 0774 873d 7a8e 103d f75f 083d
000001e0: 2193 673d 10c7 7dbc 694d 46bc c4ce dcbc
000001f0: c662 cb3b 1f17 ddbc 1a75 1b3c 1b36 fd3c
00000200: 7598 1bbd c91e fabc e632 d63b 74b2 e63c
00000210: 8f76 aebd c9bb 973d ae15 983a 50b1 09bc
00000220: 21fc 54bd e8db 67bd d10f 483c c7b2 2cbd
00000230: 5cfa 3c3d d6af 883e 6b46 23bc afc0 653d
00000240: 14d5 35bd 76e5 c9bd b9d6 59bd 4bf5 8b3d
00000250: 2d29 06be 6e7a 34bd 23a8 253d cab8 103d
00000260: 9984 a53c ce42 433b e8ea ae3c 3b43 dd3c
00000270: d500 1bbe 4900 113b 8dce fe3b d65b 71bc
00000280: 482b 5e3b c8b8 82bc a4f2 d63a 63c7 073d
00000290: 8d09 adbd 404a 943d 733f 05bd 2722 85bc
000002a0: 014c b93d 5bef 413c a8a4 97bb 13e4 b4bc
000002b0: 2503 afbd 2425 dd3c 86ef b33c cf4c 9fbc
000002c0: 8a82 5f3d ce3e 1c3d 3485 f8bc 1216 27bc
000002d0: 95be 01be 57a3 a33c fd37 cd3c d56d 3c3d
000002e0: e30c d63d 22d7 39bd 92ec 3dbc 4b6a 703b
000002f0: 8705 c4bd b84c 7ebb 6bde 7c3b 6152 50bc
00000300: 84a2 40bd abc9 ee3b 60ba fcbc 0077 01bd
00000310: 90f9 35bb 2b83 783d 74fb 1c3d bcb1 f4bc
00000320: 325f 06bd 4bb1 493d 9ef0 a8bc 9292 43bc
00000330: da37 913d bdd2 963c 3c1a e6bc cbc3 5fbd
00000340: 1c48 1dbc bf9f 813d 7d92 263c 62fd 393d
00000350: 7924 203e 1c5c 073c 7654 a83c 2583 663d
00000360: a55d 513d 8dd0 f53d e0d9 5dbc 87bd 56bc
00000370: 565a e0bd 8a1b fc3c 370e 4b3c ab67 6bbd
00000380: 083b 573d c090 923b 3e53 893d a92f 7f3a
00000390: 96b8 b2bc 9a72 2fbc bed5 9ebc 5ed2 163b
000003a0: e83c 223d 8eca 933d a4fe 9a3c 6360 a3bd
000003b0: f058 56bd a3bd 44bd fa72 cb3b 4251 9fbd
000003c0: f168 de3c 2460 c53c e510 423d 3766 753a
000003d0: c7af 343c 46c5 e43c b727 413d 04d2 183c
000003e0: 1cb5 05bd 00c8 543d 53ff 663d 9c95 82bc
000003f0: ac2c 613d 533b 013d b310 2bbc 3ab3 8f3d

fcs1.bias f4 [256]
-0.1275419 0.09456 0.0154395215 0.11368898 -0.07633279 -0.3038808 -0.2032761 -0.021993099
-0.19992168 -0.071439944 0.10357225 -0.051608324 0.11684732 -0.10326703 0.007516457 0.16513985
-0.024245284 0.024388233 -0.13919891 -0.10272101 0.08312985 -0.16091377 -0.059447933 -0.20597245
0.012596475 -0.16606624 0.083583646 0.0152599085 -0.17245151 -0.05397031 -0.10570248 -0.09107563
0.007061491 -0.0074006016 -0.19968787 0.11156415 -0.14639321 0.17012048 -0.10163678 0.05406846
-0.09038127 -0.2105882 0.034279216 -0.12400997 -0.055630215 -0.07434402 -0.05139604 -0.20856915
0.23891914 0.14293547 -0.07278508 0.15345924 -0.038483955 -0.13877498 0.09242466 -0.15166625
0.11865553 -0.05741203 -0.23551069 0.17577574 0.023196485 0.06698981 0.021810956 -0.2177027
0.008684551 -0.03338692 -0.16100946 0.15032461 -0.18707624 -0.15174684 -0.062154848 -0.25493798
-0.28667724 -0.043783 -0.056509595 -0.0015219899 0.108241975 0.14001667 0.067361414 0.023436306
-0.011785665 -0.09293188 -0.23913023 -0.2616502 0.030345196 -0.12592576 -0.093461566 0.0780088
-0.07496357 0.10568697 0.0011196372 0.043438938 -0.09897499 0.16542305 -0.20618454 -0.30665654
0.12888278 -0.15383667 0.21119346 0.07651716 0.0021077138 -0.02634967 0.06349285 0.032405943
-0.14656182 0.08821852 0.09691734 -0.008460823 0.014571569 0.006320634 -0.09250689 -0.14283378
-0.109131865 -0.18974012 -0.13157156 0.072784476 0.187348 -0.19824547 -0.2085485 0.19722253
-0.064722195 0.053487636 0.15573254 0.1478238 0.030730452 0.030549109 -0.008904824 0.03674967
0.11835076 -0.12433051 -0.16917256 0.055350263 -0.1610151 0.15395094 0.13643417 0.13303868
0.068135 -0.089673154 0.02606372 0.116227 0.031474408 -0.2855947 0.17801072 0.011182885
0.05057408 -0.14214939 -0.045724124 -0.124025255 0.018694716 0.20359035 0.059686 0.2208199
0.06654421 -0.12817186 0.196821 0.011927763 0.20363304 0.03425606 -0.024235895 0.19330117
-0.20127928 0.026530942 -0.056510694 0.01885104 -0.040283013 0.1689657 0.005771523 0.05672381
-0.015585985 0.19538434 0.08054585 -0.24402988 -0.19030987 -0.2324289 -0.19251455 -0.2227203
0.0072305216 0.2004518 -0.08879083 0.100748144 -0.113393016 0.1422703 0.13628706 0.10688302
0.21698348 -0.18426149 -0.19706117 -0.109882444 -0.004101996 0.17187248 0.12574735 0.0012598372
-0.05940914 -0.175909 0.26795974 -0.19539519 -0.100975715 0.03509324 0.08035939 0.054856755
-0.05209294 -0.021980988 0.06425974 -0.14143729 0.18980868 0.19739816 -0.15569243 0.18846282
-0.02163207 -0.09474523 -0.04038104 -0.027592938 0.15107247 0.028967692 -0.07321131 -0.12372837
0.14277415 -0.054048005 0.04806225 0.05037558 -0.11917053 0.02985691 0.14760303 -0.06955078
0.023419244 -0.15893388 0.09075603 -0.18178228 -0.080381684 -0.11610279 0.092226654 0.10971661
-0.114522755 -0.073724024 0.01604288 0.116139054 -0.1370993 0.05043477 0.022418655 0.09861872
-0.22517362 -0.16910122 0.088413864 -0.010614767 -0.1047479 0.17980091 -0.024766786 -0.12797467
-0.030386306 -0.09603297 -0.029542858 -0.15962334 0.15285468 0.16848399 -0.18115571 0.11828104
00000000: 589a 02be aca8 c13d 0cf6 7c3c c5d5 e83d
00000010: 5e54 9cbd 4496 9bbe 9c27 50be df2a b4bc
00000020: 45b8 4cbe 1b4f 92bd b01d d43d 4063 53bd
00000030: a64d ef3d aa7d d3bd 9c4c f63b 6c1a 293e
00000040: 0c9e c6bc d5c9 c73c 298a 0ebe 655f d2bd
00000050: fc3f aa3d 94c6 24be ad7f 73bd 71ea 52be
00000060: 7261 4e3c 450d 2abe e72d ab3d b204 7a3c
00000070: 2197 30be f90f 5dbd 8b7a d8bd dc85 babd
00000080: 1464 e73b bf80 f2bb fa7a 4cbe bf7b e43d
00000090: 1ae8 15be 1034 2e3e f226 d0bd e476 5d3d
000000a0: d119 b9bd 6fa4 57be 5d68 0c3d f0f8 fdbd
000000b0: 82dc 63bd ad41 98bd a784 52bd 2793 55be
000000c0: 38a7 743e ad5d 123e 5810 95bd 6b24 1d3e
000000d0: 5aa1 1dbd 071b 0ebe 2449 bd3d 664e 1bbe
000000e0: ac01 f33d e028 6bbd b729 71be 8efe 333e
000000f0: 8e06 be3c f431 893d e4ac b23c 75ed 5ebe
00000100: a649 0e3c b9c0 08bd aadf 24be b2ee 193e
00000110: ea90 3fbe 8663 1bbe 1596 7ebd 3b87 82be
00000120: 5cc7 92be ce55 33bd 9b76 67bd 827d c7ba
00000130: f8ad dd3d 8860 0f3e c8f4 893d 7ffd bf3c
00000140: a918 41bc 1253 bebd 8ede 74be 04f7 85be
00000150: 7d96 f83c aff2 00be c768 bfbd 14c3 9f3d
00000160: 8086 99bd 6972 d83d cac0 923a 07ed 313d
00000170: 66b3 cabd a964 293e 0a22 53be 1602 9dbe
00000180: d9f9 033e 5c87 1dbe 1943 583e 07b5 9c3d
00000190: 9221 0a3b 43db d7bc 8a08 823d 18bc 043d
000001a0: 4d14 16be e9ab b43d 997c c63d 449f 0abc
000001b0: 97bd 6e3c 521d cf3b 4174 bdbd 0543 12be
000001c0: 8780 dfbd 3c4b 42be b2ba 06be 0710 953d
000001d0: 27d8 3f3e dc00 4bbe bd8d 55be b4f4 493e
000001e0: 128d 84bd da15 5b3d 5a78 1f3e 1f5f 173e
000001f0: 6ebe fb3c 2042 fa3c 8ae5 11bc d286 163d
00000200: e261 f23d ffa0 febd 923b 2dbe f5b6 623d
00000210: 24e1 24be 51a5 1d3e 66b5 0b3e 4b3b 083e
00000220: 5d8a 8b3d 8fa6 b7bd 9583 d53c 6c08 ee3d
00000230: 4feb 003d 7839 92be 7148 363e 6b38 373c
00000240: c426 4f3d 9c8f 11be 3849 3bbd f400 febd
00000250: a925 993c fd79 503e 4f79 743d 9d1e 623e
00000260: 5548 883d 7c3f 03be 728b 493e aa6c 433c
00000270: 2e85 503e 1550 0c3d 5b8a c6bc bef0 453e
00000280: 281c 4ebe 6b57 d93c c277 67bd 7f6d 9a3c
00000290: cdff 24bd 5805 2d3e 0b1f bd3b 3a57 683d
000002a0: 5c5c 7fbc d512 483e 39f5 a43d f8e2 79be
000002b0: 97e0 42be d701 6ebe 8922 45be ca10 64be
000002c0: 03ee ec3b 3d43 4d3e f7d7 b5bd 0b55 ce3d
000002d0: 993a e8bd 4eaf 113e d68e 0b3e 7ce5 da3d
000002e0: eb30 5e3e 0baf 3cbe 67ca 49be 0c0a e1bd
000002f0: 096a 86bb 57ff 2f3e eac3 003e 1f21 a53a
00000300: 0057 73bd 7d21 34be 0532 893e ad15 48be
00000310: 5bcc cebd eebd 0f3d 7793 a43d 7ab1 603d
00000320: 685f 55bd 7911 b4bc 9c9a 833d f0d4 10be
00000330: 355d 423e be22 4a3e d66d 1fbe 66fc 403e
00000340: bd35 b1bc ca09 c2bd 9766 25bd 960a e2bc
00000350: beb2 1a3e a74d ed3c d0ef 95bd 4d65 fdbd
00000360: 6333 123e 7161 5dbd ecdc 443d a056 4e3d
00000370: ae0f f4bd 7b96 f43c 4025 173e a470 8ebd
00000380: b7d9 bf3c 90bf 22be 4cde b93d 2225 3abe
00000390: 279f a4bd 4dc7 edbd 54e1 bc3d 1ab3 e03d
000003a0: e88a eabd 9ffc 96bd 5c6c 833c 50da ed3d
000003b0: c263 0cbe b094 4e3d 54a7 b73c 9df8 c93d
000003c0: ea93 66be df28 2dbe 5412 b53d 8fe9 2dbc
000003d0: 1186 d6bd bb1d 383e b7e3 cabc cb0b 03be
000003e0: b4ec f8bc efac c4bd dd03 f2bc 4d74 23be
000003f0: f085 1c3e 1187 2c3e e280 39be 543d f23d

fc2.weight f4 [256, 258]
-0.015961552 0.0025512057 0.032944266 0.012932486 0.0065151523 -0.04212657 -0.019525796 0.07791565
0.016590694 -0.035142314 0.059078187 -0.036243875 0.012203726 -0.03978941 -0.03859722 0.034316584
-0.016442137 0.028515967 0.015780624 -0.030270059 -0.016176505 0.030745286 0.04703807 0.01208462
-0.041165255 0.05205564 0.036725882 0.020027097 -0.028463578 0.034715783 -0.06579081 -0.00773104
-0.03463937 0.0069399634 -0.035334032 -0.04438224 0.024610192 -0.002018296 -0.056894887 0.05074383
0.02499753 0.042055715 0.049981 0.014766326 0.043263268 0.029891947 0.08413266 -0.04333029
-0.06298701 -0.008073162 -0.035794444 -0.035990573 -0.06996492 -0.0300978 0.013170465 -0.043380603
0.0062630554 -0.010831995 0.05227242 -0.07196907 0.028206173 0.014687628 0.014629129 -0.066826485
-0.061401535 -0.045329712 -0.038245447 -0.04339997 -0.07680316 -0.010485526 -0.0002493887 -0.0129375
0.0028518417 -0.06601968 -0.027462611 0.0042461073 0.045907434 0.038361866 -0.014598444 0.050431374
0.02517484 0.04036984 -0.0011323696 -0.039260093 0.044835567 -0.0007854311 -0.047012553 -0.015745891
-0.046199124 -0.0038623293 -0.06903664 -0.022741292 0.027455073 -0.047706522 0.06322959 -0.059266847
0.004431353 0.055894285 0.030316707 -0.018871458 -0.03151624 -0.045964766 0.0040479945 -0.014021315
0.02490466 -0.055077694 0.03529854 -0.049716298 0.050609637 -0.020969573 -0.018006975 -0.01388878
-0.03562141 0.015852047 0.02003026 -0.01416276 -0.025323631 0.020222355 0.07057628 0.038669724
0.035648193 -0.039875764 0.023435982 -0.0036127502 -0.041766517 0.039422687 0.04555624 0.021318948
-0.030433444 -0.0586971 -0.003359026 -0.07258381 -0.036183685 0.0008469085 0.05781628 -0.047725372
-0.012957199 -0.038178418 0.042935126 -0.027238112 0.052206717 0.0067097545 0.0037196667 -0.04582904
-0.028601795 -0.021921813 0.087823555 0.052785683 0.08349886 -0.0047018575 -0.009409361 -0.010099653
0.061361447 -0.048451856 -0.052307736 0.061796002 0.012428629 -0.037789717 -0.034431696 -0.049171984
-0.051909983 0.046046067 -0.060794048 0.058990933 -0.004910515 -0.018598102 0.051164012 0.039537862
0.016767735 0.037925992 -0.037155442 -0.019775648 -0.02885111 0.020473588 0.042688046 -0.001464441
0.036307517 0.046636935 0.0605197 -0.070607275 -0.016511627 -0.01913052 0.037834212 -0.029568328
0.015003413 0.052832305 -0.0071344143 -0.011284018 -0.031450357 0.041453097 -0.044340715 -0.01808635
0.044776767 -0.037047233 -0.026129954 0.027526196 0.015263155 0.0053357612 0.018584952 -0.025288654
0.038458154 0.029063106 -0.03181692 0.021856911 0.059522074 -0.07207964 -0.010739179 0.038036674
-0.072654255 0.0019406573 0.032843485 -0.08462278 0.056613564 -0.06371557 0.033540934 0.021296553
-0.020134302 -0.023225095 -0.03189043 -0.039197475 0.01308757 -0.04348981 0.044847842 0.009517432
0.0018903706 0.032303832 -0.015627036 -0.045920417 0.0017808647 0.041943904 -0.0139823165 -0.0018941399
0.00044303763 0.07102027 -0.025087077 0.015142897 -0.01699359 -0.046944432 9.59574e-05 0.008568749
-0.00049175567 0.0013407357 0.015793467 -0.040579982 0.03130264 -0.048997086 0.0075499793 -0.012495847
0.015033069 0.009125136 0.017785192 -0.06669019 0.09558941 0.03824615 -0.03522668 -0.08472125
00000000: cdc1 82bc 2132 273b 91f0 063d c7e2 533c
00000010: 0f7d d53b e98c 2cbd 90f4 9fbc 3e92 9f3d
00000020: 35e9 873c 63f1 0fbd f8fb 713d 7574 14bd
00000030: 23f2 473c 38fa 22bd 1e18 1ebd 8c8f 0c3d
00000040: a9b1 86bc 519a e93c 5e46 813c eaf8 f7bc
00000050: 9784 84bc 8add fb3c feaa 403d 92fe 453c
00000060: e69c 28bd 4b38 553d e16d 163d de0f a43c
00000070: 732c e9bc 2332 0e3d 55bd 86bd aa54 fdbb
00000080: 03e2 0dbd a268 e33b 6bba 10bd 27ca 35bd
00000090: 509b c93c 6345 04bb 9d0a 69bd c3d8 4f3d
000000a0: 9fc7 cc3c 9d42 2c3d e1b8 4c3d 76ee 713c
000000b0: d334 313d f5df f43c be4d ac3d 1a7b 31bd
000000c0: 55ff 80bd 4c45 04bc 329d 12bd da6a 13bd
000000d0: c549 8fbd a98f f6bc efc8 573c dcaf 31bd
000000e0: 513a cd3b ae78 31bc 9b1b 563d 8564 93bd
000000f0: a210 e73c 60a4 703c 04af 6f3c 53dc 88bd
00000100: 2d80 7bbd a6ab 39bd 42a7 1cbd 2bc4 31bd
00000110: fa4a 9dbd 7ccb 2bbc 62c0 82b9 cff7 53bc
00000120: f7e5 3a3b 5335 87bd 45f9 e0bc ee22 8b3b
00000130: 6f09 3c3d 5521 1d3d 502e 6fbc 2191 4e3d
00000140: 773b ce3c d85a 253d 056c 94ba 31cf 20bd
00000150: 80a5 373d 64e5 4dba 3c90 40bd 87fd 80bc
00000160: 4b3b 3dbd 221f 7dbb 1563 8dbd f24b babc
00000170: 76e9 e03c ea67 43bd 847e 813d cbc1 72bd
00000180: e234 913b 68f1 643d be5a f83c 5198 9abc
00000190: 2c17 01bd 8d45 3cbd 0aa5 843b a8b9 65bc
000001a0: dc04 cc3c 2699 61bd 3495 103d 51a3 4bbd
000001b0: 0d4c 4f3d 62c8 abbc 5d83 93bc c48d 63bc
000001c0: c1e7 11bd 27dc 813c 8016 a43c ec0a 68bc
000001d0: 8173 cfbc 5aa9 a53c 4c8a 903d 2564 1e3d
000001e0: d703 123d c554 23bd d1fc bf3c e4c3 6cbb
000001f0: 5e13 2bbd af79 213d 2e99 3a3d 13a5 ae3c
00000200: 8f4f f9bc 5f6c 70bd 1b23 5cbb d2a6 94bd
00000210: 5835 14bd 1103 5e3a c3d0 6c3d ae7b 43bd
00000220: 6e4a 54bc f960 1cbd bedc 2f3d 7622 dfbc
00000230: b6d6 553d 80dd db3b a7c5 733b 3bb7 3bbd
00000240: 504e eabc 6095 b3bc d6dc b33d cd35 583d
00000250: 7301 ab3d 0a12 9abb b829 1abc 0479 25bc
00000260: 2456 7b3d 7475 46bd a340 56bd ce1d 7d3d
00000270: 73a1 4b3c 64c9 1abd 4008 0dbd 9068 49bd
00000280: 909f 54bd cd9a 3c3d 2e03 79bd 7aa0 713d
00000290: 63e8 a0bb 0c5b 98bc 5b91 513d 74f2 213d
000002a0: 7d5c 893c 4958 1b3d 4e30 18bd 8a00 a2bc
000002b0: 2a59 ecbc 3ab8 a73c a9d9 2e3d 7cf2 bfba
000002c0: 31b7 143d 5f06 3f3d 81e3 773d 8c9a 90bd
000002d0: 6443 87bc 9cb7 9cbc 0cf8 1a3d 4739 f2bc
000002e0: e0d0 753c b066 583d cec7 e9bb 9ae0 38bc
000002f0: 17d2 00bd b9ca 293d 9c9e 35bd d329 94bc
00000300: d867 373d d7be 17bd 7c0e d6bc 9e7e e13c
00000310: 5012 7a3c 9cd7 ae3b 783f 983c 272a cfbc
00000320: 4c86 1d3d c015 ee3c 7552 02bd 440d b33c
00000330: 6bcd 733d 7e9e 93bd 62f3 2fbc 58cc 1b3d
00000340: c1cb 94bd a75d fe3a e486 063d b54e adbd
00000350: a0e3 673d 4f7d 82bd 3862 093d 1c76 ae3c
00000360: b1f0 a4bc 8e42 bebc 8a9f 02bd 888d 20bd
00000370: 3f6d 563c 5f22 32bd 5fb2 373d 01ef 1b3c
00000380: 50c6 f73a 0651 043d 4504 80bc 0c17 3cbd
00000390: e76b e93a 5fcd 2b3d 1616 65bc ca44 f8ba
000003a0: 8147 e839 1373 913d 6a83 cdbc ea19 783c
000003b0: 2436 8bbc ce48 40bd bd3c c938 f063 0c3c
000003c0: 2ae9 00ba a0bb af3a 4d61 813c 3237 26bd
000003d0: 3237 003d 2bb1 48bd d165 f73b 62bb 4cbc
000003e0: 434d 763c 9881 153c 40b2 913c de94 88bd
000003f0: 61c4 c33d ffa7 1c3d da49 10bd 5682 adbd

fc2.bias f4 [256]
-0.012987289 -0.07038172 -0.039651535 -0.14751582 -0.03469553 -0.13020313 -0.10032116 -0.027038606
-0.06350598 0.059154455 -0.07664927 0.0032443316 -0.017101064 0.019523686 -0.09597988 0.0076593743
-0.01801708 -0.04177829 -0.035844017 -0.09811403 -0.07173654 -0.023262378 -0.031761955 -0.032323457
-0.10726333 0.00018770773 -0.07010474 0.0528473 -0.046397336 0.060739744 -0.047206905 -0.07548289
-0.09166549 -0.08935693 0.040459786 -0.048677728 -0.0062078824 -0.07399704 -0.11101028 0.0077156555
-0.10473724 0.02772404 0.011389941 -0.011962116 -0.039997127 -0.086813755 -0.0514302 0.009558548
-0.06989351 -0.05816519 -0.05871642 -0.009358528 -0.044406842 -0.028777327 -0.028242491 -0.11324961
-0.1108853 -0.07392774 -0.07617786 -0.06789807 -0.0016058519 -0.09102002 -0.028368821 0.0039561377
-0.15509899 -0.07881821 -0.02399139 -0.038855545 -0.07151936 -0.044567753 -0.056255147 -0.081666544
-0.08712528 -0.12626308 -0.09697368 -0.032657202 -0.09543633 -0.03946096 -0.0866186 -0.0155080175
-0.07526174 -0.002442931 -0.109378435 -0.042382777 -0.04288101 -0.10263619 -0.10156424 -0.113196544
-0.07687696 -0.091977134 0.04156782 0.01836568 -0.090128474 -0.061201677 -0.048540138 -0.06180665
-0.109843716 -0.0815644 -0.06703003 -0.075119495 -0.05786154 0.0023259067 0.01819593 -0.08281109
0.01787377 -0.09817939 -0.06290451 -0.09995145 0.042875383 -0.008782343 -0.071717925 -0.049526352
-0.07390356 0.049734358 0.01832375 0.00038646386 0.030200582 -0.024742365 -0.070643686 -0.041342743
-0.101457275 -0.13812847 0.03891875 -0.033386797 -0.0907557 -0.019064445 -0.0832977 -0.06334469
-0.0013188027 -0.014894141 -0.051842436 -0.07331391 -0.05733193 -0.055427942 -0.108228646 -0.091020666
0.009235309 -0.054061916 0.030753188 -0.06753299 -0.0012891295 -0.099336535 -0.0719682 -0.059803862
0.047587726 0.06805275 -0.09637797 -0.078898534 -0.09233702 -0.1154032 -0.081417434 -0.038002517
-0.029093545 -0.055231698 0.078911245 -0.008970919 -0.1120728 -0.08919576 -0.0011431007 -0.047505494
-0.09312248 -0.0004793385 0.0113407 0.050701223 -0.048109185 0.0026657938 -0.02491747 -0.054020442
0.03339455 -0.122444846 0.031498756 -0.12487359 -0.00437293 -0.08274843 -0.053008012 -0.06499039
-0.122331806 0.020156892 -0.012698617 0.0117069045 -0.09614554 -0.0038143091 -0.03580461 0.03936531
-0.076203875 -0.09838581 0.011308334 -0.123832405 -0.018468102 0.049720373 -0.119958736 -0.03492261
-0.007956761 -0.04426823 -0.1253492 0.0066634202 -0.11557196 -0.08348108 -0.050206784 -0.056014597
-0.07605441 -0.13502091 -0.0053921295 -0.11021947 0.088267386 -0.043325886 -0.08426694 -0.09579387
-0.098062806 -0.097211145 -0.030567434 -0.1510892 -0.055076044 -0.09099941 -0.12243336 0.023930002
-0.093199655 -0.08184166 -0.10971979 0.034628287 -0.08189466 -0.07523103 -0.00046277558 0.0844034
-0.01355598 0.06542352 -0.039250452 -0.100540176 -0.077321924 0.035973433 -0.002549096 -0.013499563
-0.12840407 -0.10554813 -0.05729794 0.017612493 0.0017618858 0.043302014 -0.053912714 -0.058045585
-0.054674566 0.021614693 -0.11996145 -0.066593006 -0.06114336 -0.0126634 -0.057031758 -0.020378139
-0.027242148 -0.0934597 -0.071693935 -0.06155013 -0.045626882 -0.06633378 -0.1133971 -0.121098906
00000000: a3c8 54bc 4b24 90bd a669 22bd 630e 17be
00000010: e61c 0ebd f853 05be 2e75 cdbd 1180 ddbc
00000020: 6c0f 82bd f14b 723d 4bfa 9cbd da9e 543b
00000030: 8817 8cbc 23f0 9f3c 1991 c4bd 7dfb fa3b
00000040: 8e98 93bc b61f 2bbd 2dd1 12bd 02f0 c8bd
00000050: 9bea 92bd be90 bebc d318 02bd 9a65 04bd
00000060: e0ac dbbd 69d3 4439 1393 8fbd 6976 583d
00000070: 220b 3ebd 3dca 783d 075c 41bd c696 9abd
00000080: 1ebb bbbd c400 b7bd 29b9 253d 4c62 47bd
00000090: 7e6b cbbb c38b 97bd 5c59 e3bd 9cd3 fc3b
000000a0: 7a80 d6bd 871d e33c e09c 3a3c c0fc 43bc
000000b0: 07d4 23bd 69cb b1bd 79a8 52bd 759b 1c3c
000000c0: 5424 8fbd 9f3e 6ebd a180 70bd 8354 19bc
000000d0: f3e3 35bd 6ebe ebbc cc5c e7bc 69ef e7bd
000000e0: d517 e3bd 6d67 97bd 2303 9cbd 250e 8bbd
000000f0: 737b d2ba b468 babd bb65 e8bc 7da2 813b
00000100: 45d2 1ebe 716b a1bd 9789 c4bc fe26 1fbd
00000110: be78 92bd ad8c 36bd cc6b 66bd ca40 a7bd
00000120: bd6e b2bd 1c4b 01be 239a c6bd 8fc3 05bd
00000130: 1f74 c3bd d1a1 21bd 1865 b1bd 5715 7ebc
00000140: d422 9abd 9519 20bb cd01 e0bd 9099 2dbd
00000150: ffa3 2fbd ec32 d2bd ea00 d0bd 97d3 e7bd
00000160: ab71 9dbd 825e bcbd 0543 2a3d 9f73 963c
00000170: 4795 b8bd 9cae 7abd 06d2 46bd f828 7dbd
00000180: bef5 e0bd 3c0b a7bd 0a47 89bd 40d8 99bd
00000190: 3900 6dbd 3d6e 183b a20f 953c dc98 a9bd
000001a0: 036c 923c 4712 c9bd 14d4 80bd 59b3 ccbd
000001b0: 199e 2f3d d1e3 0fbc d9e0 92bd 25dc 4abd
000001c0: c05a 97bd 41b6 4b3d b01b 963c 4d9e ca39
000001d0: 3667 f73c 80b0 cabc a3ad 90bd 0257 29bd
000001e0: d5c8 cfbd 8d71 0dbe 4469 1f3d 98c0 08bd
000001f0: 20de b9bd 0a2d 9cbc fc97 aabd dcba 81bd
00000200: addb acba 8e06 74bc bc58 54bd 9a25 96bd
00000210: e3d4 6abd 6908 63bd fba6 ddbd 0b69 babd
00000220: b24f 173c 0770 5dbd 1cee fb3c bc4e 8abd
00000230: 02f8 a8ba f470 cbbd 1064 93bd e5f4 74bd
00000240: 59eb 423d 3d5f 8b3d d061 c5bd 8e95 a1bd
00000250: 311b bdbd 8358 ecbd 2fbe a6bd 87a8 1bbd
00000260: 9655 eebc a23a 62bd 389c a13d c3fa 12bc
00000270: 6d86 e5bd 44ac b6bd 18d4 95ba 1f95 42bd
00000280: 00b7 bebd b94f fbb9 58ce 393c 16ac 4f3d
00000290: 230e 45bd 99b4 2e3b b91f ccbc 8a44 5dbd
000002a0: b9c8 083d 5dc4 fabd d704 013d babd ffbd
000002b0: cc4a 8fbb 0278 a9bd ee1e 59bd ae19 85bd
000002c0: 1989 fabd 1120 a53c dc0d 50bc 51ce 3f3c
000002d0: f4e7 c4bd 7df9 79bb dba7 12bd 853d 213d
000002e0: c710 9cbd 807e c9bd 9746 393c d89b fdbd
000002f0: 6b4a 97bc 97a7 4b3d edac f5bd 030b 0fbd
00000300: 135d 02bc 9b52 35bd 8a5b 00be d258 da3b
00000310: feb0 ecbd 21f8 aabd a1a5 4dbd 906f 65bd
00000320: 6ac2 9bbd ec42 0abe 76b0 b0bb bfba e1bd
00000330: 88c5 b43d 7c76 31bd 2594 acbd 942f c4bd
00000340: 27d5 c8bd a316 c7bd 8e68 fabc 21b7 1abe
00000350: 6b97 61bd e65d babd 57be fabd da08 c43c
00000360: 76df bebd 9a9c a7bd c5b4 e0bd 64d6 0d3d
00000370: 63b8 a7bd ba12 9abd b0a0 f2b9 b1db ac3d
00000380: e719 5ebc c4fc 853d 15c5 20bd 02e8 cdbd
00000390: f55a 9ebd e158 133d bc0e 27bb 452d 5dbc
000003a0: 5b7c 03be 9e29 d8bd 3fb1 6abd 1348 903c
000003b0: 14ef e63a 745d 313d 94d3 5cbd 35c1 6dbd
000003c0: 70f2 5fbd 4c11 b13c 59ae f5bd ea61 88bd
000003d0: 7671 7abd 267a 4fbc 229a 69bd 0ef0 a6bc
000003e0: ed2a dfbc cd67 bfbd 45d4 92bd fd1b 7cbd
000003f0: 41e3 3abd 01da 87bd bd3c e8bd b402 f8bd

fc3.weight f4 [1, 256]
0.0041321004 -0.023094866 0.010167354 0.06893845 -0.05660204 -0.029739825 0.019225212 -0.018584587
0.019284945 0.008914403 0.0070590177 0.011580507 0.020648941 0.026453326 -0.020577604 0.011988511
0.008115138 -0.008369285 -0.008325112 -0.028063525 0.01917884 0.0055117523 -0.02437963 0.006060158
0.024380231 0.007934148 -0.008287443 0.017489428 -0.004714747 0.0046580834 0.0034843627 -0.011100979
0.06795726 -0.0140538495 0.017425746 0.027386256 0.009972988 -0.036902744 0.18633291 0.01004534
-0.0070537697 0.012055092 0.007155419 -0.022605184 -0.02650213 -0.029248443 0.019346084 0.010990703
-0.025981314 -0.008978114 0.012966441 -0.029735738 -0.021176819 -0.022339446 0.003921207 0.08974981
-0.020201733 -0.025084477 0.010347244 0.004035477 0.008519628 0.046545032 -0.0034073985 0.009879342
0.022876557 -0.008063493 -0.040530268 0.014056702 -0.01596562 0.018527465 0.00924795 -0.011572659
-0.013749522 -0.04950399 -0.05282119 -0.0076538566 0.03465345 -0.017519746 -0.0038824885 0.005112923
-0.05561984 0.00775796 -0.015979081 0.010494609 0.005943607 -0.050262455 -0.03757467 0.12818518
-0.017926775 -0.0064356974 0.016112065 0.007011911 -0.007423268 -0.005123011 -0.0043619066 -0.024031358
-0.004522191 -0.034280565 0.009554447 0.008643994 0.040596094 -0.03003553 0.018910067 0.011355676
0.01299803 -0.008775879 0.0737646 -0.041231517 0.0049646776 0.0026052955 -0.008473431 -0.03991563
-0.03846052 0.0070257457 0.010527123 0.00647151 0.008835759 0.008089179 -0.016879303 0.0217949
0.025733242 -0.03536474 0.0009453772 0.0049579325 0.023246551 -0.011398911 0.014525254 0.01162834
-0.0072163567 0.008631161 -0.02284492 0.014521044 -0.040545028 -0.0100193955 0.027281014 -0.002162613
0.0032014758 0.022560421 0.015215248 -0.00696924 0.0049582124 -0.04462573 0.015044673 0.009247779
0.009119317 0.012740078 0.020424535 -0.016544951 -0.009975839 -0.018579982 -0.025134558 -0.013246801
0.007316068 -0.011037653 0.010421108 0.005109555 -0.0062061823 -0.010151819 0.016177926 0.028495329
-0.042660464 0.006812824 0.0032460603 0.008125421 -0.005304743 0.018013489 0.0076268855 -0.0113233
0.0105566075 0.015097991 0.008801927 0.08396736 0.013027559 -0.019210286 -0.012630534 0.015661431
-0.015547906 0.0113071855 0.005258721 0.0007867807 -0.016974434 0.009388978 0.021739177 0.009322893
-0.008557232 0.012470268 0.0022778388 0.017251758 0.00552933 0.010021649 0.08367353 0.0057072793
0.0016326107 -0.014980957 0.019295746 0.0007298801 -0.0065771556 0.032515105 0.092886455 0.012957138
-0.011399287 -0.034834806 0.010007569 -0.103183724 0.021518873 -0.009960874 0.050435744 -0.03332612
-0.025635788 -0.010417562 0.010293925 -0.051684342 -0.02780321 0.14458303 0.02014327 0.006798164
-0.0074628694 -0.009470108 -0.008525935 0.0090963105 -0.019192183 0.010110613 0.015831517 0.013426139
0.021288604 0.009170772 0.0038098074 -0.0111828875 -0.05087535 0.009650903 0.0066956566 -0.024553275
-0.06689828 -0.09690452 -0.010125473 0.005046683 0.008001462 0.011315787 -0.016311947 0.017575365
-0.012493345 0.007877883 -0.058338754 -0.042935584 -0.007633219 0.0057088216 0.021418849 -0.020729946
0.005271457 -0.016487109 -0.01306528 0.024805281 0.012254121 -0.056462515 -0.03184679 -0.03280114
00000000: 9266 873b 7231 bdbc f994 263c 9a2f 8d3d
00000010: 8ad7 67bd efa0 f3bc 317e 9d3c b43e 98bc
00000020: 76fb 9d3c b70d 123c 554f e73b 2bbc 3d3c
00000030: f827 a93c a5b4 d83c 5d92 a8bc 766b 443c
00000040: 5bf5 043c 531f 09bc 0d66 08bc 7ae5 e5bc
00000050: f11c 9d3c ee9b b43b cab7 c7bc 4a94 c63b
00000060: 0db9 c73c 3bfe 013c 0ec8 07bc fd45 8f3c
00000070: 2a7e 9abb d6a2 983b e859 643b e1e0 35bc
00000080: 2d2d 8b3d 1e42 66bc 70c0 8e3c 2459 e03c
00000090: be65 233c 5527 17bd 0ece 3e3e 3695 243c
000000a0: 4f23 e7bb b882 453c 0178 ea3b 822e b9bc
000000b0: ff1a d9bc 6e9a efbc ae7b 9e3c 5912 343c
000000c0: c4d6 d4bc f118 13bc 3271 543c 5d98 f3bc
000000d0: 027b adbc 3701 b7bc 787d 803b c0ce b73d
000000e0: 1b7e a5bc f67d cdbc 7d87 293c 093c 843b
000000f0: e995 0b3c 01a6 3e3d a94e 5fbb f7dc 213c
00000100: 9e67 bb3c be1c 04bc 1103 26bd 154e 663c
00000110: 55ca 82bc e9c6 973c b784 173c 409b 3dbc
00000120: ad45 61bc b2c4 4abd 085b 58bd 34cd fabb
00000130: c7f0 0d3d 9285 8fbc 5971 7ebb 4f8a a73b
00000140: a1d1 63bd 7c36 fe3b 90e6 82bc 95f1 2b3c
00000150: 97c2 c23b 01e0 4dbd e6e7 19bd fa42 033e
00000160: 2cdb 92bc 8be2 d2bb 73fd 833c 2cc4 e53b
00000170: e33e f3bb eede a7bb 53ee 8ebb 69dd c4bc
00000180: e32e 94bb c769 0cbd 418a 1c3c 8a9f 0d3c
00000190: 1748 263d 120d f6bc 49e9 9a3c 280d 3a3c
000001a0: b0f5 543c b4c8 0fbc e511 973d 61e2 28bd
000001b0: bcae a23b 9bbd 2a3b 25d4 0abc 927e 23bd
000001c0: c788 1dbd 3a38 e63b f479 2c3c f60e d43b
000001d0: dcc3 103c 7a88 043c 7746 8abc 388b b23c
000001e0: 85ce d23c 9eda 10bd 31d3 773a 2776 a23b
000001f0: 8d6f be3c 7fc2 3abc 55fb 6d3c cb84 3e3c
00000200: 3077 ecbb b769 0d3c 4525 bbbc ace9 6d3c
00000210: 8b12 26bd 6428 24bc 6f7c df3c a0ba 0dbb
00000220: dacf 513b a2d0 b83c 6049 793c 395e e4bb
00000230: 8078 a23b 78c9 36bd ef7d 763c ff83 173c
00000240: 3069 153c c3bb 503c 5b51 a73c 4789 87bc
00000250: b471 23bc 0c35 98bc fde6 cdbc 1c09 59bc
00000260: a0bb ef3b 46d7 34bc 4cbd 2a3c 0e6e a73b
00000270: 3b5d cbbb d153 26bc 9287 843c 096f e93c
00000280: bdbc 2ebd 1c3e df3b dbbb 543b 7c20 053c
00000290: 69d3 adbb 0691 933c f4ea f93b 5d85 39bc
000002a0: 9ff5 2c3c 905d 773c f535 103c 14f7 ab3d
000002b0: 8b71 553c e45e 9dbc 4df0 4ebc 674c 803c
000002c0: a5bc 7ebc c641 393c 5951 ac3b f63f 4e3a
000002d0: f80d 8bbc 3ad4 193c 5c16 b23c 0cbf 183c
000002e0: a233 0cbc 1850 4c3c cb47 153b 8f53 8d3c
000002f0: 622f b53b d831 243c 075d ab3d 2104 bb3b
00000300: 53fd d53a b072 75bc 1d12 9e3c 6d55 3f3a
00000310: 2e85 d7bb 8f2e 053d 413b be3d 2d4a 543c
00000320: 13c4 3abc f1ae 0ebd c9f6 233c fd51 d3bd
00000330: 5948 b03c ef32 23bc b695 4e3d f880 08bd
00000340: 2502 d2bc 6cae 2abc daa7 283c f6b2 53bd
00000350: 8fc3 e3bc 930d 143e 8003 a53c 22c3 de3b
00000360: 168b f4bb 8328 1bbc 5db0 0bbc b108 153c
00000370: ed38 9dbc fca6 253c 19b1 813c 4ff9 5b3c
00000380: 7065 ae3c 0141 163c f6ad 793b 6e38 37bc
00000390: ac62 50bd d21e 1e3c 3d67 db3b f323 c9bc
000003a0: f701 89bd e175 c6bd 50e5 25bc a55e a53b
000003b0: 9018 033c da65 393c a2a0 85bc 36fa 8f3c
000003c0: e3b0 4cbc 3c12 013c 9ef4 6ebd 39dd 2fbd
000003d0: 1520 fabb 1111 bb3b 9576 af3c d9d1 a9bc
000003e0: 30bc ac3b f90f 87bc c20f 56bc 7234 cb3c
000003f0: 82c5 483c 3d45 67bd c871 02bd 7d5a 06bd

bn1.weight f4 [256]
0.07973818 0.6173745 0.81939334 0.23317836 0.5901163 0.4713452 0.1579872 0.4769678
0.24176218 0.45735997 0.62873685 0.5959983 0.30463094 0.41183588 0.3563001 0.6564113
0.45414257 0.33064356 0.3437778 0.30347475 0.24552357 0.63277787 0.5819058 0.7379487
0.24566156 0.86734635 0.58043706 0.69620305 0.039241195 0.6653837 0.14145188 0.06992173
0.84238046 0.6178797 0.8361485 0.3495712 0.10228019 0.40890035 0.6881576 0.40503943
0.46508223 0.12801011 0.693327 0.677284 0.6521045 0.5717261 0.34000996 0.92641
0.56462544 0.30903056 0.4544356 0.20242275 1.0729884 0.5811614 0.42660102 0.58252
0.404204 0.38274953 0.43986598 0.39237845 0.3280908 0.85397893 0.7380915 0.23762539
0.268339 0.18627152 0.017980624 0.61951894 0.05747657 0.62987113 0.46599287 1.0621382
0.39989695 0.096145764 0.33159196 0.09562175 0.19815803 0.68827313 0.6453946 0.038782626
0.7652991 0.06386255 0.06325393 0.5522144 0.20289505 0.0410194 0.28496933 -0.018392315
0.665205 0.6724555 0.9724255 0.55724317 0.95875496 0.47410676 0.8745469 0.29860902
0.62953705 0.35161227 0.109993465 0.5353145 0.32128453 0.647066 0.66195387 0.8822243
0.16014288 0.9200224 0.06412484 0.69196165 0.66396993 0.112516135 0.5327041 0.28566822
0.50742966 0.59285206 0.52392125 0.84247345 0.21561645 0.4041664 0.3735924 0.75033444
0.059674762 0.63291806 0.1926464 0.037623856 0.40684173 -0.013613176 0.7613446 0.40173766
0.60111976 0.78439295 0.7274275 0.8439032 1.060549 0.9315246 0.6180483 0.80111855
0.40458533 0.7881754 0.813645 0.6335267 0.7603646 0.7834594 0.6069825 0.07609532
0.25794327 0.51777685 0.114608385 0.4060707 0.6446703 0.012552202 0.467406 0.8667507
0.48464754 0.18749888 0.12149516 0.3570497 0.44820896 0.25187427 0.22624053 0.13790129
0.21708752 0.6206208 0.5975888 0.71847045 0.43631923 -0.008932548 0.1137468 0.092120305
0.23754169 0.40685394 0.83997047 0.19001949 0.7355392 0.14762941 0.2868454 0.23883425
0.20072943 0.4989376 0.24529317 0.4159174 0.33614805 0.23807281 0.41705695 0.036878437
0.35635567 0.11718753 0.24772128 0.04638451 0.16894135 0.72822785 0.019465214 0.7301769
0.5742645 0.09243174 0.4830939 0.0841638 0.4015706 0.5103566 0.4283136 0.75003743
0.6776597 0.17346019 0.41209525 0.3083391 0.28365323 0.78103954 0.068988405 0.7180813
0.08027439 0.36806405 0.72278094 0.4163335 0.5108733 0.7402298 0.5820766 0.2633725
0.46943226 0.3152616 0.63342106 0.7192131 0.55852294 0.79238725 0.7145436 0.3132514
0.5987979 0.70236605 0.13340195 0.73224556 0.8642871 0.4765315 0.299428 0.4558933
0.3114351 0.8864769 0.7540966 0.61089027 0.7570774 0.032229777 0.056353476 0.34186825
0.4620132 0.691154 0.5409735 0.19488007 0.4872628 0.5102835 0.18557975 0.21807943
0.66157037 -0.004183896 0.5821457 0.109315276 0.2552738 0.24274844 0.14871699 0.8343789
00000000: c54d a33d 410c 1e3f c3c3 513f 4fc6 6e3e
00000010: dd11 173f 2854 f13e 66c7 213e 2035 f43e
00000020: 8190 773e 162b ea3e e6f4 203f 5893 183f
00000030: 96f8 9b3e 27dc d23e f76c b63e 920a 283f
00000040: 6085 e83e 1d4a a93e a503 b03e 0b61 9b3e
00000050: 886a 7b3e bbfd 213f c7f7 143f 35ea 3c3f
00000060: b48e 7b3e 690a 5e3f 8697 143f 5d3a 323f
00000070: 60bb 203d 9656 2a3f c3d8 103e 2033 8f3d
00000080: 3fa6 573f 5d2d 1e3f d40d 563f fffa b23e
00000090: 4778 d13d 635b d13e 192b 303f 5461 cf3e
000000a0: 421f ee3e 1515 033e e17d 313f 7c62 2d3f
000000b0: 52f0 263f a45c 123f c915 ae3e 3529 6d3f
000000c0: 4b8b 103f 4139 9e3e c8ab e83e e947 4f3e
000000d0: af57 893f fec6 143f 736b da3e 0820 153f
000000e0: d4f3 ce3e bff7 c33e 1d36 e13e d4e5 c83e
000000f0: 84fb a73e 5d9e 5a3f 91f3 3c3f 1254 733e
00000100: bb63 893e f6bd 3e3e 1a4c 933c cb98 1e3f
00000110: 8d6c 6b3d 3c3f 213f 9e96 ee3e 25f4 873f
00000120: 4bbf cc3e 12e8 c43d 6cc6 a93e 56d5 c33d
00000130: f0e9 4a3e ab32 303f 9538 253f 88da 1e3d
00000140: a4ea 433f 5eca 823d 478b 813d ec5d 0d3f
00000150: b8c3 4f3e f503 283d 80e7 913e 7bab 96bc
00000160: e04a 2a3f 0b26 2c3f e1f0 783f 7da7 0e3f
00000170: f770 753f 1fbe f23e 4ee2 5f3f 48e3 983e
00000180: 5729 213f 8606 b43e 4144 e13d 5f0a 093f
00000190: 687f a43e 1ea6 253f cf75 293f 74d9 613f
000001a0: 7ffc 233e 9786 6b3f e253 833d 6624 313f
000001b0: eff9 293f dc6e e63d 4c5f 083f 1b43 923e
000001c0: e9e6 013f 27c5 173f b41f 063f 57ac 573f
000001d0: 8fca 5c3e e6ee ce3e 8147 bf3e eb15 403f
000001e0: 866d 743d eb06 223f 1945 453e 791b 1a3d
000001f0: 8f4d d03e cc09 5fbc 7be7 423f 8fb0 cd3e
00000200: fce2 193f facd 483f b038 3a3f 0a0a 583f
00000210: 12c0 873f 6578 6e3f 6a38 1e3f 1b16 4d3f
00000220: cf25 cf3e ddc5 493f 0a4b 503f ce2e 223f
00000230: 41a7 423f cc90 483f 3563 1b3f ddd7 9b3d
00000240: 2411 843e 068d 043f cdb7 ea3d 80e8 cf3e
00000250: 1d09 253f c0a7 4d3c d74f ef3e 60e3 5d3f
00000260: b923 f83e b5ff 3f3e 74d2 f83d 38cf b63e
00000270: a57b e53e aaf5 803e 99ab 673e ff35 0d3e
00000280: 314c 5e3e 01e1 1e3f 94fb 183f aeed 373f
00000290: 3c65 df3e d259 12bc 15f4 e83d 92a9 bc3d
000002a0: 213e 733e 294f d03e 4e08 573f 7894 423e
000002b0: 4c4c 3c3f 2a2c 173e 66dd 923e f790 743e
000002c0: 048c 4d3e c074 ff3e 222e 7b3e 20f3 d43e
000002d0: 991b ac3e 5cc9 733e 7d88 d53e d80d 173d
000002e0: 4074 b63e 0400 f03d a6aa 7d3e affd 3d3d
000002f0: f6fe 2c3e 246d 3a3f 8375 9f3c e0ec 3a3f
00000300: 0003 133f da4c bd3d 1558 f73e 125e ac3d
00000310: a99a cd3e bba6 023f ec4b db3e 7402 403f
00000320: 1b7b 2d3f 8c9f 313e 26fe d23e 9fde 9d3e
00000330: ff3a 913e 35f2 473f cb49 8d3d 2dd4 373f
00000340: e666 a43d e472 bc3e 2c08 393f aa29 d53e
00000350: 98c8 023f b37f 3d3f f902 153f c3d8 863e
00000360: 6d59 f03e f869 a13e e227 223f 5a1e 383f
00000370: 5cfb 0e3f e4d9 4a3f 54ec 363f 7d62 a03e
00000380: d24a 193f 43ce 333f 859a 083e 7274 3b3f
00000390: eb41 5d3f f0fb f33e a04e 993e d96a e93e
000003a0: 6c74 9f3e 26f0 623f 7a0c 413f 4e63 1c3f
000003b0: d3cf 413f 5f03 043d e7d2 663d 5b09 af3e
000003c0: ff8c ec3e 78ef 303f 3d7d 0a3f a48e 473e
000003d0: 827a f93e f1a1 023f 9e08 3e3e 3750 5f3e
000003e0: ad5c 293f 1019 89bb 8007 153f b0e0 df3d
000003f0: 3fb3 823e 0c93 783e 4449 183e db99 553f

bn1.bias f4 [256]
0.18377593 -0.071331136 0.049577978 0.079376824 0.05220949 0.02125409 0.012978119 -0.04039215
-0.07621859 -0.0647734 -0.03196459 -0.14150304 0.056047726 0.025442628 0.08506692 -0.05196683
-0.048911512 -0.06725506 0.06406614 0.07303997 0.024525028 0.0031931174 -0.069774434 0.040901884
0.10131486 -0.0114809 -0.04833693 0.046799943 0.12373161 0.048806548 -0.011525183 0.06880624
0.020893304 -0.07223536 0.120773785 -0.05098708 -0.025985027 0.024091361 -0.024264077 -0.05164493
0.03632169 0.03198145 -0.116856344 -0.0011887518 0.029311448 0.071079575 0.0015474113 0.14477655
0.07685918 0.09404512 0.11885301 -0.07368541 0.04516422 -0.10694048 0.06410133 0.05134308
-0.02555288 -0.16556302 -0.045123123 -0.058031764 0.086843394 0.052470032 -0.012611915 0.18196024
0.119383305 -0.06186164 0.009241517 0.07438482 0.11821389 -0.03304043 -0.023919081 0.06874763
0.011307081 0.21364714 -0.05998274 -0.085487776 0.042890936 -0.032220375 0.03578024 0.1488512
0.027090263 0.071181566 0.044280507 0.05592631 0.020358827 0.17572095 0.0854081 -0.1287912
-0.09631749 -0.08134398 0.08913344 0.041963104 0.08770152 -0.11298033 -0.023507776 0.0023530242
0.051409304 0.1494293 0.13500145 -0.02152579 0.07283094 0.04170815 -0.02882725 0.08345997
0.12965679 0.07576783 0.019265082 0.08156108 0.057266437 0.10532434 -0.016277764 0.15710334
-0.015056618 0.09930922 -0.048515365 -0.16747886 0.05622841 0.15721259 0.029094271 0.06380477
0.032163143 0.059332866 -0.08350447 0.014163413 0.06594806 0.12209208 0.09790614 -0.0022730434
-0.15590747 0.028000025 0.03766898 0.06073928 -0.00841335 -0.0011559214 0.003858985 0.04507609
-0.024352638 0.057353403 0.05213547 0.014476199 0.08741003 0.032378603 -0.12391941 -0.12465889
-0.0773121 0.05990429 0.06234404 0.011124256 0.07962294 -0.13944308 0.10411196 -0.07332857
0.04922874 -0.10762159 0.025346277 0.04488279 -0.0059773913 0.020293405 0.043107167 0.1104
0.13241936 -0.071302086 -0.013580268 0.07559425 0.036571126 -0.13590716 0.016048836 0.07058542
-0.0011633998 -0.05294968 -0.04966484 0.077352546 0.1765021 0.051561456 0.12827921 -0.10009565
0.019574134 0.17457178 0.0054683806 -0.099291526 -0.046366263 0.09681201 -0.0059023346 0.125135
0.00839218 -0.10110711 0.01613088 -0.13180108 -0.1823311 0.05266555 0.19680072 -0.048078403
-0.022673104 -0.14915517 -0.0020950004 0.03468144 0.011794661 0.04097727 0.0093529085 0.06441875
0.08666832 0.011094589 0.1164688 0.08290802 0.083065175 0.03358764 0.02309512 -0.06332
-0.0681666 0.092560194 0.06655307 -0.048853908 0.011642721 -0.011829178 -0.084445216 -0.0034733037
-0.0032332551 0.07381015 -0.027922748 -0.005880446 0.013873876 0.025307173 0.047993694 0.102701984
0.0077125784 -0.09894097 0.055799734 -0.024238283 0.040070686 0.13632245 -0.036782637 0.08505368
0.10165271 -0.013127926 0.07359931 0.07019613 0.030627025 -0.10315096 0.1390708 -0.006954592
0.055771317 0.063436754 0.060747042 0.063151054 -0.13172354 0.0327083 0.041873544 0.13713093
-0.099437796 -0.18932864 0.031870306 -0.012031998 0.024256079 -0.01676168 -0.09235541 0.048199568
00000000: c22f 3c3e 0f16 92bd 4712 4b3d 5190 a23d
00000010: 9ed9 553d 0f1d ae3c 2da2 543c 3d72 25bd
00000020: 7e18 9cbd eba7 84bd 4ded 02bd 2ce6 10be
00000030: 4d92 653d 0f6d d03c 9137 ae3d 2cdb 54bd
00000040: 7057 48bd 05bd 89bd 1c35 833d fb95 953d
00000050: b6e8 c83c 9f43 513b e6e5 8ebd bc88 273d
00000060: 2a7e cf3d 631a 3cbc f2fc 45bd 4cb1 3f3d
00000070: 0067 fd3d 60e9 473d 1fd4 3cbc 49ea 8c3d
00000080: 6f28 ab3c 22f0 93bd 3f58 f73d d4d7 50bd
00000090: 8dde d4bc 3f5b c53c 75c5 c6bc a289 53bd
000000a0: 0dc6 143d fbfe 023d 6152 efbd e4cf 9bba
000000b0: 901e f03c 2b92 913d 82d2 ca3a 4e40 143e
000000c0: 5968 9d3d ba9a c03d 3569 f33d 60e8 96bd
000000d0: 1efe 383d 9c03 dbbd 8f47 833d 1f4d 523d
000000e0: 4654 d1bc 5a89 29be 06d3 38bd b7b2 6dbd
000000f0: f3da b13d d1ea 563d 35a2 4ebc c953 3a3e
00000100: 3c7f f43d a262 7dbd bb69 173c 1257 983d
00000110: 201a f23d 6755 07bd f3f1 c3bc 8fcb 8c3d
00000120: 5641 393c 51c6 5a3e 76b0 75bd 3714 afbd
00000130: 68ae 2f3d 83f9 03bd 4d8e 123d 736c 183e
00000140: 66ec dd3c a4c7 913d 7a5f 353d fd12 653d
00000150: 8ec7 a63c 31f0 333e 71ea ae3d d7e1 03be
00000160: 1b42 c5bd ac97 a6bd 988b b63d 81e1 2b3d
00000170: db9c b33d 3b62 e7bd 6193 c0bc 3235 1a3b
00000180: 9092 523d ff03 193e d23d 0a3e db56 b0bc
00000190: 6328 953d 2ad6 2a3d 2027 ecbc 10ed aa3d
000001a0: c0c4 043e 2a2c 9b3d ced1 9d3c 7f09 a73d
000001b0: 3690 6a3d 4ab4 d73d f258 85bc b3df 203e
000001c0: 08b0 76bc a262 cb3d 0cb8 46bd 947f 2bbe
000001d0: c34f 663d 56fc 203e 1c57 ee3c 13ac 823d
000001e0: 80bd 033d 0507 733d 6404 abbd a90d 683c
000001f0: c70f 873d 6a0b fa3d 0483 c83d 57f7 14bb
00000200: 35a6 1fbe 4f60 e53c ca4a 1a3d c0c9 783d
00000210: 26d8 09bc 4982 97ba 06e7 7c3b b5a1 383d
00000220: 2f7f c7bc 67eb 6a3d 018c 553d 942d 6d3c
00000230: 0804 b33d 6d9f 043d 76c9 fdbd 294d ffbd
00000240: ce55 9ebd 335e 753d 775c 7f3d 8342 363c
00000250: 5a11 a33d 2bca 0ebe a738 d53d 4a2d 96bd
00000260: 13a4 493d b568 dcbd ffa2 cf3c 04d7 373d
00000270: fedd c3bb 5b3e a63c 2491 303d 6519 e23d
00000280: f198 073e d406 92bd c67f 5ebc 28d1 9a3d
00000290: 9bcb 153d 3f2b 0bbe d978 833c 178f 903d
000002a0: 387d 98ba c3e1 58bd 5c6d 4bbd 036b 9e3d
000002b0: f7bc 343e 1b32 533d a05b 033e f3fe ccbd
000002c0: ef59 a03c f2c2 323e 1a30 b33b 5b59 cbbd
000002d0: 8dea 3dbd 6045 c63d 5f68 c1bb 6423 003e
000002e0: 5b7f 093c 3f11 cfbd e824 843c ddf6 06be
000002f0: 01b5 3abe d5b7 573d 2186 493e dced 44bd
00000300: f2bc b9bc 22bc 18be 464c 09bb 200e 0e3d
00000310: 653e 413c c8d7 273d f13c 193c faed 833d
00000320: 297f b13d 14c6 353c 3287 ee3d aecb a93d
00000330: 131e aa3d 3193 093d fa31 bd3c ebad 81bd
00000340: ee9a 8bbd 3390 bd3d fa4c 883d 091b 48bd
00000350: 1cc1 3e3c 2bcf 41bc 9df1 acbd 5ea0 63bb
00000360: 05e5 53bb c729 973d 3fbe e4bc c2b0 c0bb
00000370: 414f 633c fd50 cf3c 0995 443d 6b55 d23d
00000380: ccb9 fc3b 90a1 cabd 438e 643d 5d8f c6bc
00000390: 2921 243d 1d98 0b3e 64a9 16bd a030 ae3d
000003a0: 4c2f d03d 8316 57bc 3cbb 963d fdc2 8f3d
000003b0: 87e5 fa3c cf40 d3bd 9368 0e3e 59e3 e3bb
000003c0: 7770 643d 21eb 813d e4d1 783d 5755 813d
000003d0: 89e2 06be 23f9 053d 9883 2b3d 0d6c 0c3e
000003e0: 0ba6 cbbd 5edf 41be 708a 023d db21 45bc
000003f0: afb4 c63c ca4f 89bc d524 bdbd e96c 453d

bn1.running_mean f4 [256]
0.566652 1.0575174 1.154287 1.0078644 0.0058915187 1.1422067 0.8971796 0.09890251
0.9781873 0.37826943 1.4308081 0.4449244 0.10731097 0.7576145 0.7574014 0.4193294
0.75510997 1.2371861 0.4649909 1.528596 0.79913074 0.86489236 0.532588 0.9765243
0.70970577 1.1844845 0.4416307 0.5462318 0.26596034 1.7815874 1.6191891 1.0595641
0.10303065 0.62260824 1.6652664 1.6815888 0.46393874 0.014991032 1.1583784 1.4916788
2.2566686 1.0213916 2.3245387 0.33128655 0.6027928 0.9399085 1.0655282 0.60981345
1.3915651 1.1379642 0.9025377 1.9691737 0.01812006 2.3323245 1.5332124 0.4526346
1.3003471 1.2449083 0.54900426 1.6098729 0.7037661 0.7952936 0.27967218 0.5003546
0.281814 0.85552937 1.7055376 0.15368348 0.60497403 0.97980756 1.2127594 0.18001164
0.12850466 1.4626688 1.1898416 1.6065104 0.4251935 1.0059394 1.4646722 1.2875574
0.30204538 0.23348495 0.35790014 0.9624201 0.4508757 1.5084912 0.2527457 0.2090959
1.058785 0.4516688 1.8557562 1.328514 1.6311892 1.1691008 0.9712287 1.0911981
0.5982386 0.34338742 0.78345436 0.6402509 1.0491798 1.6842936 1.2607238 1.2534022
0.00039890766 0.4082565 0.05808124 0.6435722 1.3023866 0.905355 0.44247818 1.5469923
0.2222809 1.0881176 0.34916145 1.7131041 1.2902964 0.81621855 2.6339755 1.479854
1.935116 0.23025392 1.1738253 0.47640136 0.26120898 1.2871971 0.7888446 1.6439961
1.6151592 0.019043716 1.0737259 1.4046803 1.9816363 0.11098729 0.37611666 0.06864914
1.2469085 1.0350988 1.2617692 0.32316318 0.97982585 0.30250558 1.9317209 1.967918
1.0214617 0.9997145 0.41454697 1.0595773 0.81658477 1.1025898 1.1264791 1.0593475
1.1002421 1.1475799 1.4584185 0.2090687 1.9373157 1.345155 0.6094034 0.50215
0.20074375 1.696541 0.28036326 1.7282767 1.5869391 1.3370451 0.8527979 1.3806189
0.6025529 0.9870303 0.7538171 0.67821187 1.1278205 0.9382319 1.7077435 0.46112382
0.20609452 1.3948785 2.1725886 0.97841686 0.46136585 0.052843828 1.3430059 1.132471
0.7708055 0.7987913 0.23730898 0.5483657 0.2533933 1.5537164 1.8247061 0.96460825
1.5356573 0.4341471 2.3908 1.6506307 1.3858374 0.48299253 0.21672393 0.48189977
0.019980907 0.7064671 0.8463134 0.25818393 0.06658143 0.0035990071 0.3090158 1.4557127
0.6605838 0.46815065 0.6411687 0.22932723 1.0274036 0.84731436 1.2613157 0.63308406
0.41951635 0.17667168 0.6309975 0.6488109 0.24622288 0.64443547 0.1548936 0.20867133
0.84017676 1.1432724 1.2094356 0.32934684 0.47487655 1.8109057 0.94162434 1.0377901
0.030506292 1.9588886 0.5836633 1.2934655 1.6379882 0.6027343 1.1971921 0.5177147
0.768357 0.4782661 1.6365284 0.2048972 0.58820283 1.2562723 1.1045045 0.9340046
0.97851574 0.80395484 1.2245147 0.20776021 0.07250676 0.8569555 0.19052699 0.7124255
00000000: 1b10 113f bb5c 873f adbf 933f b301 813f
00000010: a40d c13b d433 923f 90ad 653f 668d ca3d
00000020: 7c6a 7a3f 88ac c13e b824 b73f 22cd e33e
00000030: dbc5 db3d 06f3 413f 0fe5 413f 58b2 d63e
00000040: e34e 413f 1d5c 9e3f 4a13 ee3e 09a9 c33f
00000050: d593 4c3f 9669 5d3f b057 083f 7ffd 793f
00000060: 47af 353f 309d 973f 6b1d e23e d9d5 0b3f
00000070: f42b 883e 0e0b e43f 9741 cf3f cc9f 873f
00000080: bc01 d33d 4163 1f3f 7327 d53f 4d3e d73f
00000090: 6189 ed3e f29c 753c be45 943f 55ef be3f
000000a0: 426d 1040 f6bc 823f 3ec5 1440 649e a93e
000000b0: a150 1a3f d89d 703f 3a63 883f bc1c 1c3f
000000c0: ce1e b23f d0a8 913f b60c 673f e20d fc3f
000000d0: 8570 943c ce44 1540 4e40 c43f b9bf e73e
000000e0: c671 a63f 2859 9f3f 8b8b 0c3f 5110 ce3f
000000f0: 042a 343f 5d98 4b3f 3131 8f3e 3d17 003f
00000100: ed49 903e f903 5b3f 0e4f da3f 345f 1d3e
00000110: 94df 1a3f abd4 7a3f b33b 9b3f f954 383e
00000120: ba96 033e bb38 bb3f bb4c 983f 22a2 cd3f
00000130: f6b2 d93e 9fc2 803f 617a bb3f aece a43f
00000140: b1a5 9a3e ae16 6f3e b03e b73e 2a61 763f
00000150: 2ed9 e63e 3d16 c13f e267 813e 3c1d 563e
00000160: 4486 873f 2241 e73e 6b89 ed3f bf0c aa3f
00000170: cfca d03f 18a5 953f 72a2 783f 61ac 8b3f
00000180: 2a26 193f 7ad0 af3e 7790 483f 7ce7 233f
00000190: 864b 863f ef96 d73f 665f a13f 7c6f a03f
000001a0: 7b24 d139 ff06 d13e 98e6 6d3d 26c1 243f
000001b0: 9bb4 a63f 58c5 673f 808c e23e d803 c63f
000001c0: 9b9d 633e 7047 8b3f 4ac5 b23e ff46 db3f
000001d0: 6f28 a53f b3f3 503f 0e93 2840 db6b bd3f
000001e0: e2b1 f73f afc7 6b3e e83f 963f e1ea f33e
000001f0: 2fbd 853e e0c2 a43f b8f1 493f 776e d23f
00000200: 89bd ce3f 9101 9c3c da6f 893f 90cc b33f
00000210: 42a6 fd3f 4e4d e33d 5d92 c03e ec97 8c3d
00000220: b39a 9f3f 1e7e 843f a781 a13f a575 a53e
00000230: ded5 7a3f 03e2 9a3e a142 f73f bde4 fb3f
00000240: 42bf 823f 4aed 7f3f 803f d43e 3ba0 873f
00000250: b30b 513f aa21 8d3f 7830 903f b398 873f
00000260: bcd4 8c3f e6e3 923f 75ad ba3f 1b16 563e
00000270: f6f9 f73f 0a2e ac3f dc01 1c3f e78c 003f
00000280: c58f 4d3e 4128 d93f c68b 8f3e 2c38 dd3f
00000290: d220 cb3f 4b24 ab3f f750 5a3f 1fb8 b03f
000002a0: e840 1a3f 05ae 7c3f 28fa 403f 4b9f 2d3f
000002b0: 6c5c 903f f72f 703f 5797 da3f 6c18 ec3e
000002c0: 710a 533e 618b b23f b10b 0b40 8779 7a3f
000002d0: 2538 ec3e c572 583d 9ee7 ab3f cff4 903f
000002e0: 8253 453f 967d 4c3f 2001 733e b261 0c3f
000002f0: c4bc 813e 2ee0 c63f f88f e93f 91f0 763f
00000300: 6b90 c43f 8748 de3e de02 1940 de47 d33f
00000310: 1f63 b13f cc4a f73e e1ec 5d3e 91bb f63e
00000320: 00af a33c 07db 343f ffa7 583f af30 843e
00000330: d85b 883d 52dd 6b3b 5237 9e3e cb54 ba3f
00000340: 051c 293f 71b1 ef3e a223 243f c2d4 6a3e
00000350: f681 833f 98e9 583f cb72 a13f cc11 223f
00000360: d9ca d63e 6ce9 343e 0d89 213f 7918 263f
00000370: da21 7c3e b9f9 243f 6e9c 1e3e f0ad 553e
00000380: d315 573f c056 923f c9ce 9a3f 26a0 a83e
00000390: 0523 f33e c2cb e73f 4b0e 713f 4ed6 843f
000003a0: 55e8 f93c ddbc fa3f f56a 153f 4790 a53f
000003b0: 99a9 d13f cc4c 1a3f 973d 993f f388 043f
000003c0: 0bb3 443f 4bdf f43e c379 d13f 92d0 513e
000003d0: 7694 163f 88cd a03f 6760 8d3f ed1a 6f3f
000003e0: 0280 7a3f fccf 4d3f e6bc 9c3f 18bf 543e
000003f0: 6d7e 943d 7061 5b3f 8219 433e 8461 363f
