DRLND/P3_Collab_Compet/checkpoint_actor0.pth (torch_old, 300909 bytes, 14 tensors)

fc1.weight f4 [256, 24]
000000 9b aa 39 3c 2b 0a 03 3d b2 4f 39 3c 84 fd 62 3b
       0.011332179 0.03199212 0.011310505 0.003463597
000010 67 38 cf 3d e9 85 f9 bd 5b b6 e2 bc f7 5a f7 bb
       0.1011818 -0.121837445 -0.027674844 -0.0075486857
000020 dc dd ef 3c 86 0c 81 3d 4c e3 fb 3c 12 65 56 bd
       0.029280595 0.06301217 0.030748032 -0.052342482
000030 05 2c 46 3d 7b 4b 2b bc 50 6c d8 3c 75 ad ab 3b
       0.048381824 -0.010455008 0.026418835 0.0052391835
000040 06 2b 19 3d 0e 1d 0d 3d 63 fa 6c 3c 72 a4 da bd
       0.037394546 0.034451537 0.014463994 -0.10675897
000050 0e 08 11 bd a0 4a 1b bb cf 6b 3c 3c a3 a0 6c bd
       -0.035408072 -0.0023695603 0.011500313 -0.057770383
000060 b8 96 92 3c 82 49 e3 bd 41 c1 a1 bc 8f 9d 3a bd
       0.017894134 -0.11098005 -0.019745471 -0.045560416
000070 31 66 59 3d 22 5f f1 3c 01 d6 89 bc 8b 1c 9a bd
       0.053075973 0.029464308 -0.016825678 -0.075249754
000080 47 e6 26 3d 49 f1 18 be a2 8c f8 bc 84 e5 39 bd
       0.040746953 -0.14935793 -0.030340496 -0.0453849
000090 be b3 0e 3d f4 c6 14 bc d7 6d 1a bd 63 aa e8 bd
       0.034839384 -0.009080637 -0.037702408 -0.11360624
0000a0 e3 56 5c 3c ad 6e 19 be e2 ff 8b bc 78 f2 69 3c
       0.01344845 -0.14983626 -0.017089788 0.014279
0000b0 94 22 1b bd a1 13 f4 3c 57 cc 44 bc fe 99 a3 3c
       -0.037874773 0.029794516 -0.012011609 0.01997089
0000c0 75 eb 7a 3d f7 d4 c2 3c 24 96 6f 3d bf ab 7a bc
       0.061259706 0.02378319 0.058492795 -0.0152997365
0000d0 49 27 36 3c 69 f7 92 3c 9b ff 36 bd c4 d4 7c 3c
       0.011117765 0.01794024 -0.044677358 0.015431587
0000e0 cd f6 9c 3c ca a5 94 3b c8 02 8a bc a3 82 c9 bd
       0.019160653 0.004536365 -0.01684703 -0.0983937
0000f0 65 39 d6 bc f8 43 81 3d 98 c0 fa bd ec a8 fb bc
       -0.026150415 0.06311792 -0.122437656 -0.030720197
000100 ca 1c 50 bc db 49 17 bc 68 68 59 bd 0c d8 84 bd
       -0.012702176 -0.009233917 -0.053078085 -0.0648652
000110 28 e7 e5 bd e7 10 cb 3d b6 38 aa 3c ba dc 99 3c
       -0.1122573 0.09915333 0.020778995 0.018782008
000120 e1 f9 52 3d 06 18 cd 3d 6c 3c 97 3c 36 a8 a2 3d
       0.051507834 0.10014348 0.018461429 0.0794224
000130 22 d0 07 3c 8c 54 04 be 2d 78 1a bd 45 1d 06 3e
       0.008289369 -0.12922877 -0.037712265 0.13097103
000140 b3 08 66 3c 96 1b 25 3e 5b ce 19 bd 8e ec a3 bd
       0.01404016 0.16123804 -0.03755031 -0.080041036
000150 97 cb e4 3a c9 82 0d be ca 83 05 3d a3 73 13 bd
       0.0017455694 -0.13819422 0.032596387 -0.03599895
000160 65 3c 0a bd d9 97 fd 3d b1 47 5d 3c cf 67 b8 bc
       -0.033749003 0.12382478 0.013505862 -0.022510437
000170 7f 61 17 bd ea 55 cb bd cd a6 cc bb 28 29 a5 bd
       -0.036958214 -0.09928496 -0.00624547 -0.080644906
000180 fd 6f 05 bd d1 be f2 3b 64 08 01 bc 41 39 78 bc
       -0.032577503 0.007408001 -0.007875536 -0.015150369
000190 44 83 9b bd 5f d2 fe 3d 12 f7 40 3b 59 b4 70 bd
       -0.07593396 0.12442469 0.002944414 -0.058765743
0001a0 7b 5f 8c 3d bf b3 13 bd 98 c3 b3 bc 20 7a 9a bb
       0.06854149 -0.03606009 -0.021943852 -0.0047142655
0001b0 e6 8a 4e bd de 64 00 3d 85 f4 36 3c 87 c3 9f bc
       -0.050425433 0.031346194 0.011166696 -0.019502414
0001c0 4f d9 9d 3d 3f 39 f4 3c 7b 46 13 bb 5f 21 63 3d
       0.07707464 0.029812453 -0.002247243 0.055451747
0001d0 fe 0d ed bd 83 01 1d 3e d3 c6 58 3b 64 6c b3 3a
       -0.115749344 0.15332608 0.0033077493 0.0013688919
0001e0 fd 48 e6 bb e5 35 f8 3d 7a e6 be bc a1 8b 68 3b
       -0.007027744 0.121196546 -0.02330326 0.0035483616
0001f0 c5 8f b5 3d ec 01 78 bd cf bf 00 3d 0e a2 cb 3c
       0.088653125 -0.060548708 0.031432923 0.024857547
000200 e5 81 34 3d b4 d1 a3 3d b5 d7 cb 3c 3f 99 fd 3c
       0.04406919 0.07998982 0.02488313 0.030956862
000210 7a b8 14 3d 87 a6 d5 3c 22 8d 33 bd c5 2e d6 3c
       0.036308743 0.026080383 -0.043835767 0.026145348
000220 b8 2c b7 bc c5 13 37 3e 91 d6 dc 3c 3d 62 d1 3a
       -0.02236019 0.17878635 0.026957782 0.0015974712
000230 b4 d5 56 bd b8 c6 ce 3d 96 4c 8f bc 12 26 12 3b
       -0.052449897 0.10096496 -0.017492574 0.0022300524
000240 5f 90 9f 3c 7e f3 82 bc ec a9 87 3c ed 0b cf bd
       0.019478021 -0.015985247 0.016560517 -0.101096965
000250 79 a7 ab bc 4e 22 c5 3d 43 1f 73 bc 54 1b 30 bd
       -0.02095388 0.09625684 -0.014838996 -0.042994812
000260 5e 49 9a 3c ad 3e 71 3c c1 87 67 bc 95 14 3e 3c
       0.018833812 0.014724416 -0.014131487 0.011601587
000270 9e fb f0 3d 8b 0e 9f bd f4 e0 84 3c be ac c6 bd
       0.11766742 -0.07766446 0.016220547 -0.09700917
000280 b9 6f 07 3c da 68 7c ba f4 3d 05 3c 7c 00 58 3d
       0.008266383 -0.0009628661 0.008132447 0.052734837
000290 b7 01 b1 3d 23 8a 03 bc 4a 5d f4 ba 78 b3 98 3d
       0.08642905 -0.00802854 -0.0018643525 0.07456106
0002a0 cf dc 5b 3d ae f0 8a 3d 1a 9f 8e bb ad 5e b0 3d
       0.053677376 0.06784187 -0.0043524625 0.08611808
0002b0 cf cc b9 3c db 46 cc 3c c8 0d c5 3c 37 9c 25 3c
       0.022680668 0.02493613 0.024054423 0.010108045
0002c0 bd 3a 0a 3e 5e be cb 3d 96 b0 a2 bc 4c 4f 08 3d
       0.1349897 0.09948419 -0.019859593 0.03327875
0002d0 3f fa fe bc a4 fb 49 bd fc e4 ad bc 29 50 5d 3d
       -0.031125186 -0.04931225 -0.021227352 0.054031525
0002e0 e1 0d d8 3d 0f d6 37 3c 68 cb 0b bd dc 35 28 bc
       0.10549522 0.011220469 -0.03412953 -0.010266747
0002f0 f7 a2 4f 3c 16 7d b4 3d 8f e0 45 3d 56 c1 d3 3d
       0.012673131 0.08812921 0.04830986 0.1033961
000300 bd 43 7f bb 1b 18 a1 bd 43 de 4f 3c ce d9 b1 3b
       -0.0038950287 -0.07865926 0.012687269 0.0054275757
000310 d1 7a ba 3d 81 3c 6e bc 0b 1e 85 bc 68 4f 5f bb
       0.091054566 -0.014540792 -0.016249677 -0.003407443
000320 4f 46 fa bc dc 88 d8 bd 65 c0 03 3b 02 1c b7 3b
       -0.030551104 -0.10572979 0.002010369 0.0055880556
000330 5a 3e 79 bd 13 59 7a bc 4a 2d ab bb 86 1c f6 3c
       -0.06085048 -0.015280026 -0.0052239047 0.030042898
000340 84 dc 89 3d e7 a5 be bc 59 a2 33 3d b7 d9 24 bd
       0.06731513 -0.023272468 0.043856 -0.04024669
000350 1b 4e 3d be 90 30 d7 bb f8 c9 3c bd fb b2 1e 3c
       -0.18486826 -0.0065670684 -0.04609105 0.009686227
000360 9f 99 53 bd 21 48 c9 bd ae 4c 26 3d b4 21 e2 3b
       -0.051660176 -0.098282106 0.04060047 0.0069009904
000370 f2 dc ba 3d 2e e1 5d 3d 1c ca 19 bc 08 7a 1d bd
       0.09124173 0.054169826 -0.009386566 -0.038446456
000380 27 d7 b8 3d d7 ba b7 bd 92 0a 24 3c 0e 3e fb 3c
       0.09025412 -0.08971184 0.010012286 0.030669238
000390 47 26 b0 3d ef da 0f 3d 66 e5 df bc 8e 86 f7 bc
       0.08601051 0.0351209 -0.027331065 -0.030215528
0003a0 7a 39 e4 3c 5f 34 c2 bd 83 74 b7 3a 24 cb 28 3d
       0.027859438 -0.09482645 0.0013996515 0.041209355
0003b0 be b7 a1 3d cb bb f4 3d bd a2 b8 3b dd 08 89 3c
       0.07896374 0.11949881 0.0056346343 0.01672786
0003c0 c0 5a ab 3d d2 e6 fd bc f1 93 a1 bc ce 1a 2c bd
       0.083669186 -0.030993853 -0.019723864 -0.04201775
0003d0 d6 92 83 3d 40 92 15 3d ba 49 74 3c 85 70 a8 bb
       0.06424491 0.036516428 0.014910156 -0.0051403665
0003e0 8f ed 0a 3c c8 19 f2 bc a2 40 26 bd 7c 7c d3 bc
       0.00847949 -0.02955331 -0.040588982 -0.025816195
0003f0 6f d2 1c 3d 64 ca 09 bd 70 e8 05 3d bb 96 cf 3c
       0.038286623 -0.03364028 0.032692373 0.025340429

fc1.bias f4 [256]
000000 90 e8 36 be a9 dd 29 3e 68 92 89 3c b2 de 0f 3e
       -0.17862153 0.16588463 0.016793445 0.14049795
000010 3b 06 ca bd 55 67 94 be b5 a5 83 be 89 6c 94 bd
       -0.098644696 -0.28985086 -0.25712362 -0.07247264
000020 1a f5 93 be 06 83 83 be 7e df 88 3d 8d 46 9f bd
       -0.28897935 -0.256859 0.06683253 -0.07777128
000030 09 8b d7 3c e6 50 47 be 88 2e 12 bd f8 63 b6 3d
       0.026311414 -0.19464454 -0.035688907 0.08905786
000040 fd e8 00 bd 16 d6 f1 bd b6 dc 82 be 63 c8 33 be
       -0.031472195 -0.11808412 -0.25559014 -0.1755691
000050 b6 66 12 3e 5c 06 09 be ea 82 ca bd 0f 00 48 be
       0.14296994 -0.13381332 -0.09888251 -0.19531272
000060 09 de 2b bd 68 4a 57 be 1e ff c7 bd 92 95 8f 3c
       -0.041959796 -0.21024477 -0.097654566 0.017527375
000070 25 a9 5b be fc 8a 66 bc 3e 3b 52 be a5 2f 04 be
       -0.21451242 -0.014071222 -0.20530412 -0.129088
000080 6c 46 86 bd 82 2b 33 bd 9e 8c 61 be 2f de f6 3c
       -0.06556401 -0.043742664 -0.22026297 0.030135242
000090 c7 19 88 be 93 8f 01 3e 4c 0a ed bd f7 91 2f be
       -0.26582167 0.12652425 -0.115742296 -0.17145525
0000a0 5f 3f bb bd 83 51 2d be 7c 15 5e 3b 5e 3b 24 be
       -0.091429465 -0.16925626 0.0033887317 -0.16038272
0000b0 52 50 9f bd e1 1e 18 be b7 72 8a bd ab 22 7c be
       -0.07778992 -0.1485553 -0.06760161 -0.246226
0000c0 ff 62 00 3e 8e 97 ea 3c a0 55 30 be e3 e1 8b 3d
       0.12537764 0.02863672 -0.17220163 0.06830194
0000d0 65 4e 6f be 94 79 de bd dc 67 b4 bc d5 a7 d1 bd
       -0.23369749 -0.10863033 -0.02202218 -0.102370895
0000e0 0a f1 0a 3e 82 34 cf bd 54 a2 47 be 40 75 b1 3c
       0.13568512 -0.10117437 -0.19495517 0.021662354
0000f0 ea 04 61 3d a6 59 8a bd 85 f1 21 be fb aa 76 be
       0.054936327 -0.0675538 -0.15814789 -0.24088661
000100 8a 77 da 3c 1f 87 78 bd cf 2c 53 be b4 b3 e3 3d
       0.026668329 -0.060675737 -0.20622562 0.1111826
000110 59 85 0b be 0d 5a 79 be d1 69 76 bd b4 c3 a0 be
       -0.13625087 -0.24350758 -0.06015951 -0.3139931
000120 b8 d2 54 be e6 3c fc bb f0 cc bf bd d5 20 35 3e
       -0.20783508 -0.0076976893 -0.093652606 0.17688306
000130 ad b6 a4 3d ff 5c b9 3d 59 8a 26 3d 47 ad 7b bc
       0.08042655 0.09050941 0.040659282 -0.015361137
000140 81 e5 6f bd 62 9e 7b bd da c2 8c be 31 d2 33 be
       -0.05856848 -0.061430342 -0.2749241 -0.1756065
000150 65 02 02 3e 24 71 22 be a6 20 b8 bd ad 73 ac 3d
       0.12696226 -0.15863472 -0.08990602 0.08420501
000160 74 4a 00 be fb f8 59 bc 3e 79 d6 bd c7 08 d8 bd
       -0.12528402 -0.0133039905 -0.10472344 -0.10548549
000170 97 d4 d1 bd 03 c2 18 3e 4e 41 30 be cc 59 60 be
       -0.102456264 0.1491776 -0.17212412 -0.21909255
000180 d6 dd 32 3d 2f 51 4a be ca da 0b 3e d8 dd 9d 3d
       0.04366859 -0.19757532 0.1365768 0.07708329
000190 14 f8 8f 3c 08 d6 71 3b 39 16 c2 3d 73 1f b3 3c
       0.017574348 0.0036901254 0.09476895 0.021865582
0001a0 bb b3 08 be 44 b3 8c 3d b4 c9 bb 3d c7 9b fc bc
       -0.13349812 0.0687013 0.09169331 -0.030836
0001b0 a4 6d e3 3d e1 50 c9 bc 15 a7 0a be b2 71 64 be
       0.11104897 -0.024574699 -0.13540299 -0.22308996
0001c0 f8 d0 dc bd 7e 71 78 be 82 ec 10 be 2c 54 48 3d
       -0.10782045 -0.24262044 -0.1415272 0.048908398
0001d0 ca 77 2b 3e 41 ae 86 be 91 a0 38 be 7a e7 1d 3e
       0.16744915 -0.2630482 -0.18030001 0.15420333
0001e0 e1 21 3e be 8c 37 3d bd cd a3 c5 3d 5e 12 38 3e
       -0.18567611 -0.04619555 0.09650383 0.17975757
0001f0 6e 09 44 bc fa 91 e8 3d db e5 e5 bc 4c fa 8c bd
       -0.011965139 0.11355968 -0.028063705 -0.06883678
000200 01 7e 42 3c 7b 99 58 be 7a 4f 56 be d3 0c eb 3d
       0.011870862 -0.21152298 -0.20928755 0.114770554
000210 71 8d 39 be 87 e2 d2 bc 0e f3 23 3d b5 98 06 3e
       -0.18120362 -0.025742782 0.040026717 0.1314419
000220 28 e3 99 bb c1 e8 22 bd 71 56 05 3d 6b fe 55 3d
       -0.0046962686 -0.039772753 0.03255314 0.052244585
000230 23 6f 99 3c 4f 16 6f be 07 25 60 3d 17 51 2a 3a
       0.018729752 -0.23348354 0.054722812 0.00064970687
000240 cf f4 b1 3d 3d ba 91 be d8 78 eb bd 07 94 84 be
       0.08689272 -0.284624 -0.114976585 -0.25894186
000250 6f 96 ee bc 13 2c ef 3d f6 ba c1 bb 09 92 b9 3d
       -0.029124467 0.11678328 -0.00591218 0.09061057
000260 d2 06 43 3e b5 11 30 be bd d2 8b 3e d2 b8 d6 bc
       0.1904557 -0.17194255 0.27309218 -0.026211176
000270 5e da 0d 3e 84 23 76 3d a8 43 96 bd 6d 05 9a 3d
       0.13852832 0.060092464 -0.07337123 0.07520566
000280 c6 61 76 be e4 f4 a9 bd 65 e6 89 bd 39 c6 95 3c
       -0.24060735 -0.08298662 -0.067333974 0.018282996
000290 fa 80 17 be b3 50 4d 3e d1 53 07 bd 9b 1d 16 3d
       -0.14795294 0.20050316 -0.033038918 0.036649328
0002a0 86 3c 8c 3d c7 32 3c 3e f7 ae 00 bc 6f bf 81 be
       0.068474814 0.18378745 -0.007854215 -0.25341365
0002b0 7d 29 a2 be 93 c4 91 be d2 ae 78 be 1d 36 2e be
       -0.31672278 -0.28470287 -0.24285439 -0.1701283
0002c0 7f f2 d6 bd bc df 02 3e 6a 42 26 be 13 6f 11 bc
       -0.10495471 0.1278066 -0.16236272 -0.00887658
0002d0 9d b9 2c be 61 00 a3 3d d6 95 51 bd ff a6 36 3d
       -0.16867681 0.07959057 -0.051168285 0.044592854
0002e0 ff d4 78 3e b7 c6 64 be 67 ad 6a be 47 95 7a be
       0.24300002 -0.22341429 -0.2291771 -0.24471007
0002f0 2b 7b 92 bb a9 8e d8 3d bd 71 ca 3d b6 65 a0 bc
       -0.004470249 0.10574085 0.09884975 -0.01957975
000300 4f 12 15 be f4 4a 4f be 7c 2e 84 3e f0 a2 1c be
       -0.14557765 -0.20243436 0.25816715 -0.1529653
000310 86 81 d0 bd ca 9f 7a 3d 3f d4 66 3d 98 d1 5a 3b
       -0.10180955 0.061187543 0.056354757 0.0033389088
000320 ba b9 b4 bd 5f 48 88 bc 39 62 cb bb 62 c6 16 be
       -0.08824487 -0.016636072 -0.0062067774 -0.14724115
000330 be 2f 77 3e 9f d1 67 3e e1 d4 c8 bd bd 1d 0f 3e
       0.24139306 0.22638558 -0.098062284 0.13976188
000340 57 89 ce bd c2 a5 16 be cb ed f8 bc 23 39 55 be
       -0.10084789 -0.14711669 -0.030386826 -0.20822577
000350 bd 17 45 3d b7 87 23 bd c4 80 ac bd a8 87 0a be
       0.04811834 -0.03992435 -0.084229976 -0.13528311
000360 5c 38 0c 3e 8a 92 ff 3d bc 19 8f bc 23 09 6e 3c
       0.13693374 0.12479122 -0.017468326 0.014528546
000370 9d 03 a7 bd 36 06 50 3d ed b9 d4 3d f1 85 74 bd
       -0.08154986 0.050787173 0.10387025 -0.05969805
000380 ba 94 fa bd 21 5c 73 be fb f1 be 3b f3 e3 fc bd
       -0.122353986 -0.23765613 0.005827186 -0.12348165
000390 ac 6d 9e bd eb 7b 2a be db bd 18 3e e5 2f 7d 3d
       -0.07735762 -0.16648833 0.14916174 0.061813254
0003a0 3c 2d ed bd f7 ed a8 bd f6 7f 6a bc 43 b6 18 3c
       -0.115808934 -0.08248513 -0.014312735 0.009320798
0003b0 f1 99 7e be 34 b6 3e 3d 5e 30 a7 bc 0c 2c 0a 3e
       -0.24863411 0.04656048 -0.020408805 0.13493365
0003c0 ff 77 5c be 1a 12 70 be 59 81 25 3d 80 f8 ac 3c
       -0.2153015 -0.23444405 0.04040656 0.021114588
0003d0 b5 21 0a be be f3 35 3e 96 66 e6 bc a5 d2 e6 bd
       -0.1348942 0.17768762 -0.028125089 -0.11270646
0003e0 1d 40 37 bd c3 bd 23 be 1e ce bc bd 4c 4e 6b be
       -0.044738878 -0.15990357 -0.09219001 -0.22979087
0003f0 75 32 37 3e 04 4f 1a 3e 06 ff 97 be a4 4c 2d 3c
       0.17890342 0.15069205 -0.29686755 0.010577355

fc2.weight f4 [256, 256]
000000 21 11 02 bd 23 1a f4 3d a9 4f 7e 3d 84 dc df 3d
       -0.031754617 0.11919048 0.06208769 0.10930732
000010 3a 32 2e 3d 2a c5 c7 bd 36 cd 12 3e 5b 6c 26 3d
       0.04252837 -0.09754403 0.14336094 0.04063068
000020 ef 56 e8 3c 3f 45 b5 3c 82 eb 46 bc ad 42 69 bd
       0.028361766 0.022127746 -0.01214111 -0.056948353
000030 02 10 4f 3d 32 53 ae 3d 22 6f 83 bd df f1 10 be
       0.050552376 0.08511962 -0.06417681 -0.14154766
000040 93 12 8e bc 80 b8 43 bd 38 5e 13 be 12 79 9c bd
       -0.017342841 -0.047783375 -0.1439141 -0.0764028
000050 02 52 d4 bd 6a 98 9f 3d 79 0d e7 3d 52 00 c4 bd
       -0.10367204 0.077927426 0.112818666 -0.095703736
000060 9e ea e4 3c f9 75 90 3d d4 98 1f 3d 4f 52 2f bd
       0.027943905 0.070537515 0.038964108 -0.042803105
000070 58 98 85 3d 2e 72 58 bd c6 2b 39 3d 9f 8e 93 3e
       0.06523198 -0.052843265 0.04520776 0.2881975
000080 b5 aa 0e bd c3 54 be 3d 8a 0f 0b 3d ce e4 06 3d
       -0.034830768 0.09293511 0.033950366 0.03293305
000090 38 26 d9 3d ca 9c 06 bd fa 11 b5 bd 16 24 2e bd
       0.10602993 -0.03286437 -0.088413194 -0.042514883
0000a0 34 d0 19 bc 23 77 34 3c f3 c0 ea 3b 9c ea 6f 3d
       -0.009388018 0.0110147325 0.0071641146 0.05857335
0000b0 24 4b 88 bd 00 5e 3a 3c 29 08 1a 3e 14 1b ed bd
       -0.06654957 0.01137495 0.15042175 -0.1157743
0000c0 e4 4c 99 bd 1b 2f a4 bd fd 92 31 3d 28 14 a6 3d
       -0.07485369 -0.08016797 0.04335307 0.08109313
0000d0 78 a3 b2 3d a2 07 93 bd 07 a2 6a bd d8 17 05 bd
       0.087225854 -0.0717919 -0.057283428 -0.032493442
0000e0 37 81 d3 bd f3 a9 1c 3d 61 59 da bd 25 ce 53 be
       -0.1032738 0.038248014 -0.10661579 -0.20684107
0000f0 7a 77 d4 ba e0 75 0d bc 64 1c 88 3d 2f c2 87 bc
       -0.0016209923 -0.008634061 0.0664604 -0.016572086
000100 ec de 47 bd 5d f9 55 3e c0 f1 9f bd 55 b9 31 bd
       -0.04879658 0.20895906 -0.07809782 -0.043389637
000110 9b a8 54 3d 1e a8 06 3e 0a 11 19 bd ec ca 0a 3c
       0.051918607 0.13150069 -0.037369765 0.008471232
000120 2a 5f e2 bd 3c 82 a0 bb fc 3c 84 bc 10 83 bd 3d
       -0.11053307 -0.0048983376 -0.01614236 0.09253514
000130 11 d6 17 be bf 82 0d bc 8f f9 41 3d ac 83 02 be
       -0.14827754 -0.008637129 0.04735714 -0.12745541
000140 da ac 4c bd 7f 97 03 bd 4e 87 e8 bd ed 46 c1 bd
       -0.04996953 -0.0321269 -0.11353932 -0.09437356
000150 f6 0f 59 be d0 1e 96 3d 79 50 f9 bc da 26 c9 bd
       -0.21197495 0.07330096 -0.03043388 -0.098218635
000160 ec 00 18 3d bd b5 80 bd d3 4a e0 3d ae 50 94 bd
       0.037110254 -0.06284664 0.109517716 -0.07241951
000170 c0 5a ec bc cc 91 22 bd 00 2c c6 bd 19 41 03 3e
       -0.028851867 -0.039689824 -0.09676361 0.12817802
000180 0f b6 f0 bb 25 68 8f bd f9 1a 12 3d 22 3c 89 bd
       -0.007345922 -0.07002286 0.035670254 -0.067009225
000190 13 f7 50 bd 48 d2 a9 bd fb 62 a9 3d a1 bf 93 3d
       -0.05101688 -0.08292061 0.08270832 0.07214285
0001a0 10 02 1a bd d9 70 22 3d 18 23 97 bc cd d0 96 3d
       -0.037599623 0.0396584 -0.018449351 0.07364044
0001b0 e8 16 3a bd 51 62 3c bc 54 9e 8b 3b f1 16 8f 3d
       -0.045432 -0.01149805 0.0042608175 0.069867976
0001c0 b9 cb 8a bd ed bc 51 3d 64 d0 01 3e 2e ad a9 3b
       -0.06777138 0.051205564 0.12677151 0.0051781153
0001d0 8a 9c 84 bd 96 bd 95 3d 58 d4 9d bd 21 bd ff 3c
       -0.0647517 0.07311551 -0.07706517 0.031218113
0001e0 b3 46 81 3d 8c 79 a3 3d 98 51 1f 3e 30 e3 d9 3d
       0.06312313 0.079821676 0.1555847 0.10639036
0001f0 b1 5d 45 3d 2a 38 8f bd f8 a3 2d bd 78 8d 78 3d
       0.048185054 -0.06993134 -0.0423927 0.06068179
000200 01 2f 9f 3d 18 56 f0 bd 9c 75 7f 3d 43 b8 76 bd
       0.07772637 -0.11735171 0.06236802 -0.06023432
000210 49 19 c6 bd 18 9f c2 bd 8f ac 4e 3d 8f 86 86 3d
       -0.096727915 -0.09503001 0.050457533 0.06568634
000220 85 21 2c bc a6 ae 98 3d ff 08 8b 3d 24 4c cf bb
       -0.010506039 0.074551865 0.06788825 -0.0063262153
000230 d5 80 54 bd d6 7a bc bd d6 88 0e 3e 29 04 bc 3d
       -0.051880676 -0.092031166 0.13919386 0.09180481
000240 19 f9 f6 bd e2 9a a3 bd a2 f8 96 3d 57 94 e6 ba
       -0.1205923 -0.07988526 0.07371642 -0.0017591816
000250 fa 80 b6 3d b0 c2 2a 3d 6b 0c 11 3e b3 5e 3f 3c
       0.08911319 0.041689575 0.14164893 0.011680293
000260 72 e1 20 3d c8 bd 26 bd 39 58 7c bc 9c c0 90 3d
       0.0392775 -0.040708333 -0.015401893 0.07067987
000270 89 ee 1f 3d 3f c3 51 bd c0 2f 8b bd 1f da 07 bc
       0.039045844 -0.05121159 -0.06796217 -0.00829175
000280 37 81 12 3e 62 e9 25 bd b0 7a 8e bd d2 44 b6 bc
       0.14307104 -0.040505774 -0.069569945 -0.022249613
000290 bb 47 2c 3d b5 df a3 bc 54 35 96 bd 54 57 05 3d
       0.042060595 -0.020004133 -0.0733439 0.032553986
0002a0 62 78 df bc fe 48 8f bd b2 32 a1 bc de bc 43 3c
       -0.027279083 -0.06996344 -0.019677494 0.011946885
0002b0 80 d4 0c be 47 25 09 3a b5 bb 05 bd 0f 88 29 3d
       -0.13752937 0.000523169 -0.032649714 0.04138952
0002c0 75 28 33 bc 52 2c 71 bc 4e 9a 47 bd aa eb 15 3b
       -0.010934939 -0.014720039 -0.04873114 0.0022876062
0002d0 a9 23 c2 bd 68 8f a5 bd 0a 16 54 bd 63 2d 14 bc
       -0.09479458 -0.08083993 -0.05177883 -0.009044024
0002e0 71 ae 28 bd 5d d4 4e 3d f4 71 ed bd 7c ca 73 3d
       -0.041181985 0.050495494 -0.115940005 0.059519276
0002f0 fe e0 1c be a3 d4 18 bc a4 af a4 3d 80 0e 41 bd
       -0.15320203 -0.00932804 0.08041313 -0.04713297
000300 90 8e 73 3d fe 02 61 3d b1 94 a4 bc 7a 88 3d 3b
       0.05946213 0.054934494 -0.020090433 0.0028920458
000310 09 3d 9a 3d 65 b2 27 bd 27 58 89 3c 8c 4a a6 3d
       0.07531173 -0.040941615 0.016765667 0.081196874
000320 6e b4 23 bb 32 52 d8 3d a6 97 97 bd 4d 5c 11 3c
       -0.002497937 0.105625525 -0.074019715 0.008872104
000330 28 06 37 bc 24 b8 1c bd a1 5a 8c bd 48 bb 03 bc
       -0.011170901 -0.038261548 -0.068532236 -0.008040257
000340 33 2e 6d 3d 2d c3 12 ba 92 8e 43 3d 9f 5a 1a 3d
       0.057905387 -0.00055985415 0.047743388 0.03768408
000350 e2 eb 03 3d 98 7c ca 3d a4 b4 f7 bc 0f 9e 9b 3c
       0.032207377 0.098870456 -0.030237503 0.018996267
000360 11 2e e4 3c 3c e3 17 be 82 57 d7 bd cb 0a d7 bd
       0.027853997 -0.14832777 -0.10514738 -0.105001055
000370 14 a4 c0 bd d5 9b ac 3c ac 82 91 3d 50 dc a2 3d
       -0.094062954 0.0210704 0.07105002 0.079521775
000380 76 ff 11 3d c7 16 bf bd 05 96 67 bd fa 2f b7 bd
       0.035644017 -0.09330516 -0.056539554 -0.08944698
000390 40 5d e1 bd 78 63 dd bd 9b b3 c8 bd 7e a9 83 3d
       -0.11004114 -0.10809988 -0.09799882 0.064288124
0003a0 3f 18 9c 3d d2 0f db 3c d6 92 8d 3d 11 9e 74 bd
       0.07621812 0.026740942 0.06912772 -0.059721056
0003b0 74 64 96 bb 8e 9f 54 3c ff de 20 3c 8b 12 0f 3c
       -0.0045896117 0.012977494 0.009818791 0.008732448
0003c0 cd 08 99 bd ff cc 24 3e 92 96 c7 bc 41 65 b3 bd
       -0.07472382 0.16093825 -0.02436379 -0.08759547
0003d0 d5 4c a3 3d 8d 18 3c 3b a3 f3 99 3d 85 c0 9d bc
       0.07973639 0.0028701157 0.07517173 -0.01925684
0003e0 bd e1 6b 3d 66 dd b2 bc d4 e7 d7 bc 19 85 98 bc
       0.057588328 -0.021834087 -0.026355661 -0.018618153
0003f0 0c 04 1e 3d 72 d1 e6 3d 08 b1 33 bd c7 d0 a2 bc
       0.03857808 0.11270417 -0.043870002 -0.019874943

fc2.bias f4 [256]
000000 41 93 5a 3d 19 00 9e 3d ea a1 b4 3c dc 71 da 3c
       0.05336309 0.077148624 0.022049863 0.02666562
000010 dd 73 6f bc b8 38 e7 3c 31 3d 53 3d fb fe 02 3d
       -0.014615026 0.028225288 0.05157203 0.03198145
000020 4a 8b ca 3c 8f fc b0 bc ff d9 53 bc f0 84 82 3d
       0.024724621 -0.021604804 -0.012930392 0.06373012
000030 ae ad 3f 3d e8 88 e3 3d 14 2a fa 3c f5 45 fa bb
       0.046796493 0.11110097 0.030537643 -0.007637734
000040 1a 0d bf bc 60 d6 c6 bc 5a 74 53 3d f6 0a c6 3d
       -0.023321677 -0.024272144 0.051624633 0.096700594
000050 f1 2e c6 3d 6d 49 45 3d d3 55 fb bb c1 10 6a 3d
       0.09676922 0.048165727 -0.007670143 0.057144884
000060 d9 bf ac 3d cb 5f cc 3d 30 10 0d bd 72 49 89 bd
       0.084350295 0.099792086 -0.034439266 -0.06703462
000070 42 ab 0d 3c 4e 17 a6 3c 80 a6 90 3d 50 7a a5 3c
       0.008646788 0.020274784 0.07063007 0.020199925
000080 82 fa b7 3c a2 69 46 3d c4 7a 62 3d 46 bf 6c 3d
       0.022458319 0.048440583 0.05529286 0.0577996
000090 ef bc 8e 3d 0c ec 75 3d 0f 3c df 3c f4 f9 1f 3e
       0.0696963 0.060039565 0.027250318 0.15622693
0000a0 16 24 e7 3c 37 72 76 bd ae 30 53 3d 06 7b 04 3d
       0.02821545 -0.060167518 0.051560096 0.032343887
0000b0 aa fd 9c bd a4 dc 81 3d 95 a9 a0 3d fc f2 78 3d
       -0.0766557 0.06340912 0.07844845 0.060778603
0000c0 ce be ba 3d 3f d4 9b 3d b1 09 5d 3c 73 46 ca bc
       0.09118424 0.07608842 0.01349108 -0.024691796
0000d0 7a 8d 44 3d 08 5d 7b 3b 95 51 e7 3d d6 d8 6d 3d
       0.047986485 0.0038355011 0.112948574 0.05806812
0000e0 23 51 87 3d 05 c6 26 bd c8 7c 4a 3d 5a f5 11 3d
       0.066072725 -0.04071619 0.049435407 0.035634376
0000f0 56 9b 32 3c e5 c1 bc 3c 48 88 99 bc 9f 41 9f bc
       0.010901293 0.023041675 -0.018741742 -0.01944047
000100 2c 42 95 3d 44 42 20 3d 7b f8 23 3d b0 77 43 3c
       0.07288012 0.039125696 0.04003189 0.011930391
000110 d0 4d 94 3d ec cf a1 3d b9 93 c0 3d 46 23 60 3d
       0.07241404 0.07900986 0.09403176 0.05472114
000120 d9 8e ea ba c7 82 82 bd f4 94 92 bc d9 d7 ab 3d
       -0.0017895355 -0.063726 -0.017893292 0.08390779
000130 cd af d7 3d fd ca 8c 3d 30 20 40 3d 64 d5 01 3d
       0.10531578 0.068746544 0.046905696 0.031697646
000140 fc 69 80 3b dd 29 1a 3e f8 74 6d 3c 70 19 d4 3c
       0.0039188843 0.15055032 0.01449322 0.025891036
000150 64 09 c9 bc 73 9d 0f 3e 5c 69 5e 3d 44 ad 72 3d
       -0.02454061 0.14024906 0.054299697 0.05924727
000160 b7 20 7c 3d 82 98 1d 3c e7 f7 72 bd ef af 94 3c
       0.061554637 0.00961888 -0.05931845 0.018150298
000170 9d 47 9a 3b 68 22 df 3d 50 e6 2d 3c 08 eb 1a 3d
       0.004708244 0.10895234 0.010613993 0.0378218
000180 28 eb 80 3d 36 81 88 bd 15 7e ca 3d dc 57 e4 bc
       0.062948525 -0.0666527 0.098873295 -0.027873926
000190 ac d8 d1 3a 86 ee 30 3d 36 06 1a 3d cd 16 c6 bc
       0.0016010008 0.043196224 0.03760358 -0.024180794
0001a0 8b 7d 3b 3d 5f fd 69 bc f6 70 91 3c c9 bc 09 bd
       0.045774024 -0.0142816 0.01775406 -0.033627305
0001b0 10 9d fa 3a b4 a5 c9 bd 80 b3 b6 39 85 24 34 3d
       0.0019120295 -0.098460585 0.00034847483 0.04398014
0001c0 82 1a b9 3d 2c c6 29 3c 3e 32 6e bd 01 06 54 3c
       0.09038259 0.010362189 -0.058153383 0.012940885
0001d0 d6 0a 8b 3d 5e 13 07 bd f7 87 30 3d 45 cf ca 3d
       0.06789176 -0.032977454 0.043098416 0.09902815
0001e0 20 fe 89 3c 38 4b 78 3c 2b 8a 78 3d a2 03 6e 3b
       0.016844809 0.015154652 0.060678642 0.0036318083
0001f0 6f 94 b8 3d 12 4c 41 bd 8a c7 5e bc c0 7b 8d 3c
       0.090126865 -0.047191687 -0.0135973785 0.017270923
000200 f6 5c 78 3c c6 7f c4 bc 98 de 0d bd 5a 1d 58 3d
       0.015158882 -0.023986708 -0.03463611 0.052762367
000210 cc 5b 2d 3d 6c 88 04 bd 41 de 87 3d be 08 fb bc
       0.042323872 -0.032356665 0.066341884 -0.030643817
000220 93 22 d5 3d d2 e9 ae 3d 72 81 b1 3d db bd a4 3c
       0.10406985 0.085406914 0.08667268 0.020110061
000230 40 e7 55 3d c6 3c 0d 3d 05 f0 55 bd 08 8c 54 3d
       0.05222249 0.034481786 -0.052230854 0.051891357
000240 1a 40 61 3d b7 4d 2f 3d ae 36 aa 3b d7 68 2d 3b
       0.054992773 0.042798724 0.0051945066 0.0026460194
000250 f0 d6 10 bd 66 c3 5b 3d f9 21 d9 3d 53 bf 88 3c
       -0.03536123 0.053653143 0.10602183 0.016692793
000260 c0 65 8f bb 14 45 90 bc 2d 11 49 3d 1f 01 64 3d
       -0.004376143 -0.017611064 0.049088646 0.05566513
000270 9d f6 23 3d f6 1c 88 3d e6 13 d1 3d f5 d5 4f 3d
       0.04003011 0.06646149 0.102088735 0.050741155
000280 ef 96 e8 3d 1a d3 ec 3d cc 5d 72 bb d0 b9 b5 3d
       0.11356913 0.11563702 -0.0036982177 0.088733315
000290 f8 2a 99 3b 60 45 65 bc 91 6a da 3d 0e 79 59 3c
       0.0046743117 -0.013993591 0.10664857 0.013273491
0002a0 fb 65 25 3d 26 16 99 3d db 28 5a bc c7 67 fd 3d
       0.04038046 0.074749276 -0.013315405 0.123733096
0002b0 c9 bb cf 3c 38 a0 98 bb 4f bb 54 bd 2a 07 da 3b
       0.025358098 -0.0046577714 -0.051936444 0.006653686
0002c0 53 06 b4 3c 3e b4 52 3d d1 f5 af 3d 43 e2 45 bd
       0.021975672 0.051441424 0.08591808 -0.048311483
0002d0 41 b9 03 3d 9b 33 da 3d c0 9e 60 3d 64 1e dc 3d
       0.032159094 0.10654374 0.054838896 0.10747984
0002e0 1e 42 d5 bc a4 b0 15 3d 6e 61 31 bd 0d 80 3a bb
       -0.026032504 0.03654541 -0.043305807 -0.0028457672
0002f0 de 15 90 3d 5b 12 c0 3d 53 f2 22 bd 3b 54 a5 3c
       0.07035421 0.09378501 -0.03978188 0.020181766
000300 91 89 51 3b 9c af be bc 15 cb e7 3c eb e7 cd bc
       0.0031972865 -0.023277096 0.02829508 -0.025135001
000310 14 2f c3 3d 40 33 22 3c 8f f4 41 3c 2e dd b3 3d
       0.09530464 0.009899914 0.0118380925 0.08782421
000320 fd d4 9e bc 9f 62 16 3c c2 2b a1 3c 42 8d 3a 3d
       -0.01938867 0.009178787 0.019674186 0.04554487
000330 9e 45 8b bc 26 b2 f0 bc 80 25 25 3d 0e f1 74 3d
       -0.01700097 -0.029381823 0.040318966 0.0598002
000340 e5 62 4d bc 6a c5 d6 3d 12 92 8c 3d 19 bf df 3c
       -0.012535785 0.104868725 0.06863798 0.027312802
000350 ed 98 c6 bc 7b ad 11 3d c5 d1 23 3d d4 53 cd 3c
       -0.024242843 0.035565834 0.039994974 0.025064386
000360 ee 16 cc bc f1 d1 15 bc 2a e7 ca 3d c1 29 44 3d
       -0.024913277 -0.009144292 0.09907372 0.047891382
000370 5f e1 5a 3d ff 9c de bc 00 7b 13 bd 10 c1 99 3d
       0.053437587 -0.027174471 -0.036005974 0.07507527
000380 39 cf 17 3d 6e 5d 46 3d b9 73 c1 3d 0d 3e 9e 3d
       0.037062857 0.048428945 0.094459005 0.07726679
000390 f4 f9 62 3d 16 25 56 3d a6 ac 41 3d dd ed 12 3c
       0.055414155 0.05228146 0.04728379 0.008967844
0003a0 c9 dc 9b 3c 5c ec b6 3c 84 f8 a6 3d 3b 31 2c bc
       0.019026177 0.022329502 0.08152869 -0.010509784
0003b0 fe da f6 bc 77 34 52 3d 1b 20 04 3e ef a2 95 3c
       -0.03013372 0.051319566 0.12902872 0.01826617
0003c0 86 51 96 bd 8a d7 6c 3d af 35 de 3d f4 2c 9b 3d
       -0.07339768 0.05782274 0.10850083 0.075769335
0003d0 0d a9 a6 3d 6a 34 2c 3d 46 41 aa 3d 07 57 52 3d
       0.08137713 0.042042173 0.08313231 0.051352527
0003e0 08 c2 33 3d ff 3e 30 3c 28 2e 4b bb 54 01 63 3d
       0.043886214 0.010757207 -0.0031002853 0.05542119
0003f0 f8 c4 b0 3c 25 16 86 3d 2f fe b0 3d e6 62 35 3d
       0.021578297 0.065471925 0.08642232 0.04428377

fc3.weight f4 [2, 256]
000000 71 92 22 be 6e 42 db bd 1f 98 25 be 7a 59 f2 3d
       -0.15876175 -0.1070603 -0.16171311 0.118334725
000010 a3 12 07 3e 95 11 f7 bd 42 1e 24 3e 30 f8 52 3d
       0.13190703 -0.120639004 0.16027167 0.05150622
000020 4a 94 0a be 14 99 81 bd 81 1e db bd 3e 73 26 be
       -0.1353313 -0.063280255 -0.106991775 -0.16254899
000030 96 69 b7 3d 3d 41 1d 3e 2b 64 b5 3c e7 4f 1b 3e
       0.08955686 0.15356918 0.02214249 0.15167199
000040 fd 79 5e 3c 99 23 0a 3e bb 11 79 bd ed 50 b9 3d
       0.013578889 0.13490142 -0.060807925 0.090486385
000050 26 d6 8f 3d 7c 72 23 3e 96 9a fb bd ca 55 b3 bc
       0.070232674 0.15961641 -0.12285344 -0.021891493
000060 b4 99 4a 3d 09 79 97 bd 4b 7c d6 bd 1c 71 e3 3d
       0.04946299 -0.073961325 -0.10472926 0.11105558
000070 8e 96 e6 3d 20 d7 ad 3c 9f 20 5e bd 56 71 a1 bd
       0.11259185 0.021220744 -0.05423033 -0.07882945
000080 05 6d f5 3d 2a 98 ac bd 44 49 9d bd 3a 9e 99 3d
       0.119836845 -0.084274605 -0.0767999 0.075008824
000090 20 4e 1c be 90 f0 68 3e e6 d0 27 be b3 cb 28 3d
       -0.15264177 0.22748017 -0.16388282 0.041209888
0000a0 1e 4b 0f 3e d3 94 f1 3d 27 3c 1b 3e b4 05 da 3d
       0.13993499 0.11795964 0.15159665 0.10645619
0000b0 e6 a3 98 bd a4 91 03 be bc 5c e4 bd 93 e9 b5 3d
       -0.07453136 -0.12848526 -0.111505 0.08882441
0000c0 b6 1a d7 bd e5 23 b4 bd e1 84 b7 3c 45 d4 f5 3d
       -0.105031416 -0.08795909 0.022402229 0.12003378
0000d0 b8 68 47 bd 7d 1e 02 3e 66 02 36 be ed 5e 5e bd
       -0.048683852 0.12706943 -0.17774352 -0.054289747
0000e0 ff b9 b7 3d e5 96 e5 bd c0 4c 7c 3c a2 8b 73 bd
       0.08971023 -0.112104215 0.015399158 -0.059459336
0000f0 ea 54 15 3e 9c 1d ab 3d 9a 45 0c 3e 3d d5 11 3e
       0.14583173 0.08355257 0.13698426 0.142415
000100 a0 8e 10 be 6d 47 52 3e 44 c6 27 be df b8 3b be
       -0.14116907 0.2053506 -0.16384226 -0.18332241
000110 5b 8e 1d be 81 ac ad bd 1b 52 07 be 47 2d 36 bd
       -0.15386336 -0.08480168 -0.13214915 -0.044476774
000120 a0 72 ba 3a c9 31 a2 3c 6a f5 05 be a4 06 bb 3b
       0.0014224835 0.01979913 -0.130819 0.0057075787
000130 fe ea ed bd 78 fe a7 3d cf eb a8 bd 45 01 d8 bd
       -0.11617087 0.08202833 -0.08248102 -0.10547117
000140 4d 26 c0 3d 56 61 30 3d 14 e9 b0 bd cd 3d b0 3d
       0.09382305 0.043061577 -0.08638206 0.086055376
000150 e1 6f 2e bd f4 60 49 bd c8 70 e4 bd 25 3c f8 3d
       -0.042587165 -0.049164727 -0.11154324 0.12120847
000160 c2 fb 3e 3d 73 55 d6 3d 8e 08 e7 3d 26 53 2f 3b
       0.046626814 0.10465517 0.112809286 0.0026752441
000170 20 b9 21 be 3d 8d df bd bf 57 dc bd 53 1f 10 be
       -0.15793276 -0.10915611 -0.10758924 -0.14074449
000180 92 a9 90 bd f4 95 ec bd db 49 67 3d 90 db aa bd
       -0.07063593 -0.11552039 0.05646692 -0.083426595
000190 c6 d4 72 bc f1 5d b6 bd 67 b8 0a 3e 30 40 e0 3d
       -0.014821237 -0.08904637 0.13546906 0.10949743
0001a0 2e 3d 00 bd d8 0b 56 3d f6 0d 1e be 7e 32 23 3e
       -0.031308345 0.05225739 -0.15435013 0.1593723
0001b0 44 19 25 3e 5e fe 5e 3c 25 f5 55 3e 4b ff 6a bd
       0.1612292 0.013610451 0.20894296 -0.057372373
0001c0 cd bf b6 3d b7 55 6b 3e a8 82 1f bd 1b fe a4 3d
       0.08923302 0.22981916 -0.038942963 0.08056279
0001d0 d2 7c 37 3e 61 56 11 be 00 30 96 3e 1c f0 3e 3c
       0.17918709 -0.14193107 0.29333496 0.011653926
0001e0 93 8d 87 bd 26 a0 fd 3d 99 b4 03 3e 99 bf da bd
       -0.066188 0.123840615 0.12861861 -0.106810756
0001f0 54 28 eb 3d c9 df 72 3d 06 d8 14 3e fa 75 3b 3e
       0.11482301 0.05929545 0.14535531 0.18306723
000200 ee 1c b8 bd 94 2e 17 3d 1e 34 a7 bd 93 cd 17 3e
       -0.08989893 0.036909655 -0.081642374 0.14824514
000210 18 97 ba 3a 5a 6b f2 bd 75 b9 4f 3d 0a c0 00 3e
       0.0014235703 -0.11836882 0.050713975 0.12573257
000220 f0 88 cd bd a7 0d 01 be 0e 60 fa bd b0 e9 a8 bd
       -0.100358844 -0.12602864 -0.12225352 -0.08247697
000230 58 de 00 3e 42 82 a9 bd c1 53 88 3d e7 5c 17 be
       0.12584817 -0.08276798 0.066566 -0.14781533
000240 33 04 26 bd 94 81 3e 3e 1d 3e 61 bc 28 29 b1 bd
       -0.04053135 0.18604118 -0.013747719 -0.08650428
000250 1e d0 51 3d 96 54 08 3e 97 a9 54 3e 5a 96 f4 3d
       0.051223867 0.13313517 0.20767818 0.1194274
000260 07 99 25 be b5 2b 22 be e9 77 2c be 9c 9b c0 3d
       -0.16171657 -0.15836985 -0.16842617 0.0940468
000270 e1 f7 c2 3d f9 06 d6 3d 06 3c b6 3d fc 62 eb bc
       0.095199354 0.10450549 0.08898167 -0.028733723
000280 fb ec 13 be 6f 34 b2 bd 42 6c 8c bd cf f4 35 3d
       -0.1444587 -0.08701407 -0.06856586 0.04442292
000290 0d 7b 9d bd 9b 63 2b 3e 94 46 4a bc 00 91 fa 3d
       -0.07689486 0.16737215 -0.012345929 0.12234688
0002a0 1b 3c cd 3c 9f f7 69 be ab d5 ac 3d 68 7a 83 ba
       0.025053075 -0.22848366 0.084391914 -0.0010030987
0002b0 b1 04 ba bd 94 0a a7 bd fc 3c a0 bc d5 99 29 3d
       -0.09082926 -0.081563145 -0.01956033 0.04140647
0002c0 aa db 30 be a7 bf a6 bd 2c a7 da 3c 1e cc 4c bc
       -0.17271295 -0.081420235 0.026691042 -0.012499837
0002d0 ec c9 73 3e b6 e1 d6 bd ff cb 1a 3e 1a 0a 3b 3e
       0.23807496 -0.1049227 0.15116881 0.18265572
0002e0 92 10 f0 bd 86 96 67 be bd e5 28 bd e4 d7 ab 3d
       -0.117219105 -0.22616014 -0.04123472 0.08390787
0002f0 cb eb 17 3e a0 48 d4 3c 6a c1 d1 3d 63 b6 47 3e
       0.14836042 0.025913537 0.10241969 0.19503169
000300 e8 04 3a bd 5d 68 cf bd f2 58 99 bd 8a c4 12 3d
       -0.045414835 -0.101273276 -0.07487668 0.035831966
000310 ac 67 20 be 83 3d 0f be af 3b 84 bd 3a 94 e5 bd
       -0.15664548 -0.13988309 -0.06456696 -0.112099126
000320 7c 00 df 3d 8f 84 3b bd de e7 d2 3d 74 cd 52 bd
       0.10888764 -0.045780715 0.102981314 -0.051465467
000330 c9 96 32 bd 15 52 31 3d 34 de ab bd 2f d3 f9 3d
       -0.04360083 0.04329117 -0.08391991 0.12198483
000340 40 0b 60 bd 06 f0 3f bb ea 3b ed bd 0e 8e 8c 3d
       -0.05469823 -0.0029287352 -0.11583693 0.06863032
000350 ce 36 aa 3d 4d 68 9e 3d 4d a3 07 3d 73 09 5a 3d
       0.083112344 0.077347375 0.03311472 0.053231668
000360 bf 55 11 be f4 34 50 3c 3a c8 b9 bd e9 b3 a0 bd
       -0.14192866 0.0127079375 -0.09071393 -0.07846815
000370 84 bb 78 3d 0b f1 61 3d 49 b1 6f be 76 d2 b9 bd
       0.060725704 0.055161517 -0.23407473 -0.09073345
000380 9c 7d 99 3c a5 0b 84 3d 0e 55 df 3d ea a8 56 3c
       0.018736653 0.064475335 0.10904895 0.013101796
000390 f4 7d f3 bd 7c 14 ae 3d b7 73 60 3d 0a a0 6c be
       -0.11889258 0.08500001 0.054797854 -0.23107925
0003a0 34 8c 12 be f5 cc a2 bd a6 79 38 be d3 6f ff 3d
       -0.14311296 -0.07949249 -0.18015155 0.12472501
0003b0 69 c0 3e be 58 35 6a be a7 f5 55 3d bd 69 03 be
       -0.18628086 -0.22871912 0.052236225 -0.12833305
0003c0 90 b5 8a 3d 7e 86 8a 3d 7a 0e e0 bd d0 87 9f 3d
       0.067729115 0.067639336 -0.10940261 0.07789576
0003d0 96 17 81 bd 4f e9 f5 bd e6 00 92 3d d6 65 05 be
       -0.06303327 -0.12007391 0.071290776 -0.13027129
0003e0 f0 ea db bd 24 c1 1d be 42 69 40 be 37 49 29 3d
       -0.1073817 -0.15405709 -0.18790153 0.04132959
0003f0 0d 05 d9 3d cf c2 e9 bd e2 e0 f9 bd 5e 51 68 bd
       0.105966665 -0.1141411 -0.12201096 -0.056718223

fc3.bias f4 [2]
000000 d5 33 e3 3c 96 b3 a7 bd
       0.027734676 -0.0818855

bn1.weight f4 [256]
000000 49 5e 82 3f 17 88 23 3f a6 15 4f 3f 05 99 89 3f
       1.0185024 0.6387953 0.8089241 1.0749823
000010 52 b0 59 3f 39 c4 02 3f 9f a0 96 3f d8 a5 aa 3e
       0.8503467 0.5108066 1.1767768 0.33329654
000020 e5 65 29 3f 6f 62 83 3f 37 63 02 3f 39 e9 1f 3f
       0.66171104 1.0264415 0.5093264 0.62465245
000030 65 71 d3 3e 38 b3 aa 3e fe 46 0f 3f 94 ed 9f 3e
       0.4129745 0.33339858 0.559677 0.31235945
000040 4e 5d 25 3f 45 6b 4e 3f 19 d9 10 3f c3 f3 d6 3e
       0.64595497 0.8063243 0.56581265 0.4198285
000050 99 f4 0b 3f e5 db 1c 3f 37 85 f2 3e ce 9f 80 3f
       0.546701 0.6127303 0.4736726 1.0048769
000060 3c d5 57 3f 3d a3 b6 3e 96 18 63 3f f7 d5 5f 3f
       0.84309745 0.35671416 0.8870939 0.8743586
000070 dd 1d 56 3f fd 95 b7 3e cc bf 4e 3f fe 0f e4 3e
       0.8363932 0.3585662 0.8076141 0.4454345
000080 06 73 39 3f 17 28 b6 3e 51 77 7a 3f a8 74 96 3f
       0.72441137 0.3557746 0.9783831 1.1754351
000090 38 4f 86 3f e8 1e 77 3f 35 64 22 3f a2 28 a5 3e
       1.0492926 0.96531534 0.63434154 0.32257563
0000a0 6c 7f e8 3e ee 20 d9 3e 2f 59 80 3f 40 f3 a7 3e
       0.45409715 0.42407936 1.0027217 0.32802773
0000b0 46 e1 88 3f b2 63 6f 3f 69 92 14 3f 0e 48 98 3e
       1.0693748 0.935115 0.58035904 0.29742473
0000c0 2c ee d7 3e 23 03 73 3f 25 a6 0a 3f 5d 18 06 3f
       0.42173898 0.9492666 0.54159766 0.52380925
0000d0 28 01 7c 3f c8 e2 7d 3f 98 7f 6d 3f 4c 52 e2 3e
       0.98439264 0.99174166 0.9277282 0.44203413
0000e0 30 27 f3 3e d7 d9 5b 3f 49 12 4a 3f 17 be ed 3e
       0.47490835 0.8587927 0.7893415 0.4643409
0000f0 5e 4a 3e 3f 9d c1 1c 3f 5b 38 d8 3e e3 49 e0 3e
       0.74332225 0.6123293 0.42230496 0.4380637
000100 26 de 65 3f 43 0a 12 3f df 5d d2 3e 71 01 34 3f
       0.89792097 0.5704691 0.41087243 0.703147
000110 a5 2f 2a 3f ba 3d b8 3e c2 0c 82 3f 05 ce 32 3f
       0.6647895 0.35984594 1.0160143 0.6984561
000120 21 27 6b 3f ad d2 80 3f 29 b9 93 3e 17 88 ce 3e
       0.9185658 1.0064293 0.28852203 0.40338203
000130 2f 60 57 3f 20 e3 1d 3f 3c f1 4a 3f ae fa a7 3e
       0.8413114 0.6167469 0.79274344 0.3280844
000140 70 ff 95 3e b5 16 c8 3e 54 2d d2 3e cd d3 d3 3e
       0.29296446 0.39079824 0.41050208 0.4137253
000150 b5 c5 81 3f 15 64 21 3f c8 09 45 3f 4f 0b 95 3e
       1.013846 0.6304334 0.7696805 0.2911019
000160 9a 00 a5 3e c7 7c 34 3f 89 30 01 3f e6 8c 91 3f
       0.3222702 0.70502895 0.50464684 1.1371124
000170 0f 9c 86 3e 11 09 a4 3e d1 72 d2 3e d9 ed 1c 3f
       0.26290938 0.32038167 0.41103223 0.61300427
000180 18 80 ae 3e d7 28 26 3f a3 ca 7b 3f 53 5d 91 3e
       0.34082103 0.64906067 0.98356074 0.28391513
000190 74 4d 88 3f 97 d0 78 3f 18 b1 0c 3f f6 35 c3 3e
       1.0648637 0.9719328 0.54957724 0.38127106
0001a0 c1 9c 1b 3f dc aa a5 3e fa 82 34 3f cf 5d 7d 3f
       0.6078606 0.32356918 0.70512354 0.98971266
0001b0 74 e2 82 3f a8 3c 7e 3f ad d8 00 3f ac 95 5b 3f
       1.0225358 0.99311304 0.5033062 0.85775256
0001c0 a9 96 88 3e 2c 31 e3 3e 3f 07 8e 3f 58 5c c9 3e
       0.26677445 0.44373453 1.1095961 0.39328265
0001d0 8b 5f d1 3e 27 7d 02 3f e1 b2 82 3f cc 07 87 3f
       0.40893206 0.5097222 1.021084 1.0549254
0001e0 4c 48 74 3f 82 93 57 3f 1e 6c 75 3f 04 3e 73 3f
       0.95422816 0.84209454 0.958681 0.95016503
0001f0 a1 e3 d9 3e 79 de 78 3f 86 4e 7c 3f af e9 54 3f
       0.4255648 0.97214466 0.9855732 0.8316907
000200 e7 e8 1d 3e a3 7e d8 3e 31 4c 6c 3e a5 53 fc 3e
       0.15420876 0.42284116 0.2307594 0.49282566
000210 0e 53 8f 3f eb af 6d 3f 5e e8 48 3f a5 db 53 3f
       1.1197221 0.92846555 0.78479564 0.82757026
000220 c3 5f 79 3f 7d 11 8b 3f 40 b9 75 3e 83 c6 6b 3f
       0.97411746 1.0864712 0.23996449 0.9209978
000230 0e 06 41 3f 9c 06 59 3f 8e ca 98 3e 30 6c 0e 3f
       0.75399864 0.8477571 0.29842037 0.5563383
000240 58 be cb 3e fb 6f aa 3e 9d 31 b4 3e 39 9d 2c 3f
       0.39793658 0.3328856 0.35194102 0.674274
000250 1d 17 8c 3f 18 96 17 3f b6 f2 b6 3e f0 4c 9a 3e
       1.0944554 0.592134 0.3573205 0.30136824
000260 2e d9 6b 3e d6 9d 5e 3e 12 6c 90 3e 7a e4 82 3e
       0.23032066 0.21739897 0.2820745 0.2556494
000270 00 e8 67 3f cd 69 34 3f fd 76 1d 3f 6d e0 09 3f
       0.9058838 0.7047394 0.61509687 0.5385807
000280 eb 6d 19 3f 0c a3 40 3f 13 c6 86 3e fb bf 4b 3f
       0.59933347 0.7524879 0.26322994 0.79589814
000290 9d 2f d1 3e 58 90 27 3f 09 31 2e 3f 99 44 a6 3e
       0.4085664 0.65454626 0.6804357 0.3247421
0002a0 06 00 45 3f 48 e3 74 3e cb ef 27 3f 93 eb 8d 3f
       0.7695316 0.23914826 0.6560027 1.1087517
0002b0 6f b0 1b 3f 11 22 62 3f ca 14 4f 3f 15 08 87 3f
       0.6081609 0.8833323 0.80891097 1.0549341
0002c0 fc c8 4e 3f f9 e6 8f 3f 0e 2e 83 3f 92 41 6f 3f
       0.8077543 1.1242362 1.024843 0.9345943
0002d0 c4 97 90 3e dc 80 d4 3e 9b eb 21 3f ee 14 4b 3f
       0.28240788 0.41504562 0.6325013 0.7932881
0002e0 ae 32 79 3e 7b 24 60 3f b4 f6 c0 3e 68 59 c6 3e
       0.24335739 0.87555665 0.3768822 0.38740087
0002f0 b4 bd c9 3e 2c c8 8b 3e db 7c 88 3f ea 66 61 3e
       0.39402544 0.27301157 1.0663103 0.22011915
000300 6a b6 7b 3f ff 3a 3d 3f 5d ef 8b 3f e9 08 6d 3f
       0.98325217 0.73918146 1.0932423 0.9259172
000310 92 6b 68 3f c1 38 94 3e 2b cc 83 3f 2e 15 5e 3f
       0.9078914 0.2894955 1.0296682 0.8675107
000320 49 18 6a be 95 f3 0c 3f 61 26 ee 3e b5 e7 1e 3f
       -0.22860827 0.55059177 0.46513656 0.62072307
000330 6a da 7d 3f 12 24 80 3f f6 c9 75 3f a1 32 36 3f
       0.991614 1.0011008 0.9601129 0.71171004
000340 a7 b3 59 3f bd 7e 85 3e 3a 47 22 3f c8 46 3a 3f
       0.8503975 0.26073256 0.63389933 0.72764254
000350 9f 78 9e 3f fb de 8b 3f b4 48 5b 3f 86 41 ac 3e
       1.2380561 1.0927423 0.8565781 0.3364374
000360 47 cd 6e 3f b7 65 06 3f 73 00 05 3f f9 61 0d 3f
       0.9328198 0.52498955 0.5195381 0.5522762
000370 f5 49 30 3f 2b 9a 49 3f 43 5a a8 3e d7 c9 4e 3f
       0.6886285 0.78750867 0.32881364 0.80776733
000380 4b 89 93 3f df c8 3c 3f d4 25 89 3f 9c 08 22 3f
       1.1526273 0.73744005 1.0714669 0.63294387
000390 5e ac 61 3f aa db 95 3f 00 03 4e 3f c3 fe 89 3f
       0.88153636 1.1707661 0.8047333 1.0780872
0003a0 9d 4b 0d 3f 86 fb 8a 3f f8 bf 0c 3f d1 90 1d 3f
       0.551935 1.0858009 0.5498042 0.615491
0003b0 ba 10 44 3f ff de 4e 3e 6e 41 fc 3e 11 79 2c 3f
       0.7658802 0.20202254 0.4926867 0.6737223
0003c0 2a 3f d6 3e 93 55 2e 3f a5 a4 75 3f 89 77 1f 3f
       0.41845065 0.68099326 0.9595435 0.6229177
0003d0 56 20 d2 3e 66 16 22 3f 31 11 ba 3e b5 b0 86 3f
       0.41040295 0.6331543 0.3634124 1.0522677
0003e0 51 cf 99 3e 84 2a 74 3f ae 3e 07 3f 46 28 1d 3f
       0.30040982 0.95377374 0.52830017 0.6138958
0003f0 2e 9b 20 3e da f5 80 3f 9f b0 6d 3e 62 c6 af 3e
       0.15684196 1.0075028 0.23211907 0.34331042

bn1.bias f4 [256]
000000 ba f7 b9 3c 9e 0f c2 3d 5e 8c 5b bc 68 0d 2a bd
       0.022701133 0.09475635 -0.013400165 -0.04151669
000010 f9 07 3e 3d dc 7f 68 bc ae 0b 25 bd fa 38 e4 3d
       0.046394322 -0.01419064 -0.04029434 0.1114368
000020 56 f9 32 bd 2b 07 5f bd 2c 56 01 bd 38 78 8c bc
       -0.043694817 -0.054450195 -0.03157632 -0.017147169
000030 58 b8 f0 bb 2e 65 2c bc a0 9d 27 bd 08 80 bd bc
       -0.0073461942 -0.01052217 -0.040921807 -0.02313234
000040 2b 90 5d bd 48 7b fe bb ec e5 25 3d 1e b1 84 3b
       -0.054092567 -0.007766161 0.040502474 0.0040494343
000050 43 ee b0 bb fa 72 86 bd df 67 0f bd df ca cf bc
       -0.0053994968 -0.06564899 -0.03501117 -0.025365291
000060 62 e4 2d bc 4e d3 15 bd 9d 43 74 3c 0d d4 ed 3a
       -0.010613533 -0.03657847 0.014908698 0.0018144861
000070 c0 70 48 bd 6e a7 f0 ba b1 e5 74 b9 eb 4a 64 bd
       -0.04893565 -0.0018360445 -0.0002335522 -0.05573551
000080 4e f6 0b bd 20 9b 19 bd 37 4c ec bd 99 ff 64 bb
       -0.03417044 -0.037501454 -0.11537974 -0.0034942387
000090 c0 51 8b bd 69 39 89 3d 03 db e8 bb 74 1d a7 ba
       -0.06802702 0.06700403 -0.0071061864 -0.0012749867
0000a0 4e cd 82 bc cc be e7 bc 76 0f 1b bc a4 78 4b bd
       -0.015967038 -0.028289221 -0.009464135 -0.0496756
0000b0 ab 85 f2 bc 9b ce 8e bd 4f 98 bc bd 4f 35 3b bd
       -0.029604753 -0.069730006 -0.09208738 -0.045705136
0000c0 89 6d 06 bc df 4d 0b bc d6 a7 1a bd 78 c6 85 bd
       -0.008204826 -0.008502453 -0.037757717 -0.065319955
0000d0 15 7c 33 3c a4 27 09 3b c5 9d 78 bd c8 39 de bd
       0.010954876 0.0020928169 -0.060697336 -0.10850865
0000e0 ae d4 1b bb 22 c8 33 3c 6e c9 c9 3c 53 aa 88 bd
       -0.002377789 0.010973008 0.024632182 -0.06673112
0000f0 a6 9a 73 3d 18 c5 70 3c 89 2f 93 bd bf a1 21 bd
       0.059473656 0.014695428 -0.07186801 -0.039460894
000100 dd 81 dd bc ef e2 e7 3b 0d 80 f5 bc 72 b1 cb 3c
       -0.027039463 0.007076613 -0.029968286 0.024864886
000110 01 64 ba bc 2d 47 ce bd 6c 86 53 3c 83 eb 3a 3c
       -0.022752764 -0.100721695 0.012910467 0.011408689
000120 16 6e 03 3d ef b9 1a 3d 17 70 81 bc 51 cf 16 3c
       0.032087408 0.037774976 -0.015800519 0.0092047015
000130 67 9b b2 bc ae fe 11 3c 9b 8b 4c bc 63 54 14 bc
       -0.021802617 0.008910818 -0.012484456 -0.0090533225
000140 80 24 7c bd e1 f9 23 bd b9 25 4e 3c 83 1c 63 bb
       -0.061558247 -0.040033225 0.012582236 -0.0034654445
000150 27 f9 d9 bc 5b 17 17 bd f1 70 0d bd c6 f8 07 bd
       -0.026608063 -0.036887508 -0.034531537 -0.033196233
000160 bd e9 9e bd ac 11 a3 bd b4 9a 10 bd 8b 72 5e 3c
       -0.07759426 -0.07962355 -0.035303786 0.013577114
000170 f5 0a e3 3b de 37 83 bc 74 dc f1 3c ac 60 71 bd
       0.0069287964 -0.01601785 0.029524066 -0.058930084
000180 70 7d 48 bc 34 4e 77 bc 29 36 61 3a 79 b5 9d bd
       -0.012236938 -0.015094329 0.00085911393 -0.07700629
000190 ed 78 96 bc eb 62 6c bd c5 ca fd bc d7 f7 35 3c
       -0.018368209 -0.057711523 -0.030980477 0.011106453
0001a0 e0 72 a9 3c 90 26 33 3b 2c f2 d5 bc 69 83 d1 bd
       0.02068466 0.0027336217 -0.026116453 -0.102301426
0001b0 e2 b7 c7 3c 48 84 2f bb dc 27 d3 bd 98 08 bf bc
       0.024379674 -0.0026781727 -0.10310337 -0.023319528
0001c0 ca 27 ac bc 3e e8 d7 bb c2 0a 4c bd 72 21 f3 bc
       -0.021015067 -0.0065889647 -0.049814947 -0.029679034
0001d0 c6 16 c6 3b 79 27 3a bd 71 f5 01 bb 02 b7 90 bb
       0.0060451953 -0.0454478 -0.0019830132 -0.0044163475
0001e0 d9 55 7e bd c1 69 3d 3c 2b c9 31 bd 57 a8 0e bd
       -0.06209359 0.011560858 -0.04340474 -0.03482851
0001f0 60 bb 4d 3d 0b 2f 96 bc ad 6a 04 3c bc 4a 81 bc
       0.050227523 -0.018332979 0.008082074 -0.015782706
000200 89 bd 1f bb 47 ff 8a bd 0f c1 81 bd b5 89 ec bd
       -0.0024374446 -0.067869715 -0.06335651 -0.11549703
000210 bb 24 81 bd 09 47 3e 3c 40 77 db bc 0c 21 de bc
       -0.06305834 0.011613616 -0.026790261 -0.027115367
000220 ad 8d 3a bc fc db 0b 3d a5 56 b2 bd 2c e6 b0 bd
       -0.011386317 0.03414534 -0.087079324 -0.08637652
000230 2c 8d 7a bd c2 8a 35 bd 0b c0 95 3d f2 5c ab bd
       -0.06116979 -0.044321783 0.0731202 -0.08367337
000240 1b e6 91 bc ac bb 9d bc 2d c7 99 3b b3 9e cc bd
       -0.017809918 -0.019254528 0.004692933 -0.09991207
000250 e6 ce fc bc 5d 52 da bb fd e0 dc 3c c1 0c ad bc
       -0.030860376 -0.0066626505 0.026962752 -0.021124246
000260 0a f2 d3 bd 23 53 a7 bc 04 5d 09 bd b7 23 5b bc
       -0.103489 -0.020425385 -0.033535972 -0.013375214
000270 1b 08 9e 3c 16 18 72 bc 0d c5 42 3a 6b 14 c1 bc
       0.019290974 -0.01477625 0.00074298755 -0.023569306
000280 8e d2 d6 bc ac aa 65 bc d2 4f bf bd 66 cc 01 3c
       -0.026223447 -0.014017742 -0.093413964 0.007922268
000290 4f d6 c9 bd 33 52 17 bd e3 1a db bc 69 e0 07 be
       -0.09855329 -0.036943626 -0.026746219 -0.132692
0002a0 3c fa 16 3d ba 04 b4 bd 3f b5 d2 3a 9a 4c 3c bc
       0.036859736 -0.08789964 0.0016075744 -0.011492873
0002b0 c5 60 cb bd 4b c8 ae bb c2 10 ac bc 0d 5a 24 bd
       -0.09930567 -0.0053339354 -0.021004084 -0.04012494
0002c0 df 9e 29 3c da 77 2e bd 5d cd e5 bc 1c 45 b4 bd
       0.010352819 -0.042594768 -0.028052026 -0.08802244
0002d0 85 7b 1d bd 4a 08 3b bd 15 03 36 bc 87 fd b7 bd
       -0.038447876 -0.045662202 -0.011109133 -0.089839034
0002e0 3d 78 80 bb dd 38 a2 bd 7f 91 96 bd 68 ac 11 bd
       -0.0039205835 -0.07921002 -0.0735197 -0.03556481
0002f0 86 8b 8b bd 34 7a 4c 3c 6c 3f 0e 3c 10 5b 05 bd
       -0.06813721 0.012480307 0.008682113 -0.032557547
000300 dc ec ef bd 78 dd 49 bc 56 33 8e 3d 2c f4 28 bd
       -0.11715099 -0.012320869 0.06943385 -0.041248485
000310 86 1a 5c 3d 71 9f ff bd b1 7a c4 bd 4a 18 d7 3b
       0.053736232 -0.12481583 -0.09593714 0.006564175
000320 9e cd 9a 3d 7d 77 8b bd 8f e3 7d bb 98 9c 76 bc
       0.075587496 -0.068099 -0.0038740372 -0.015051983
000330 8e 80 81 bd 10 00 e1 bc 7b 43 79 bd 4f c3 28 bd
       -0.06323348 -0.02746585 -0.06085537 -0.041201886
000340 00 24 18 bd 92 eb 41 3d b0 07 7d bc 21 24 1c bd
       -0.037143707 0.047343798 -0.015443727 -0.038120393
000350 bb 02 17 3d a1 c4 e8 ba 45 dd 54 b8 76 51 e0 bc
       0.03686784 -0.0017758795 -5.0750812e-05 -0.027382594
000360 38 61 7f bc 98 af 44 bc 8b 01 c8 bc 86 f5 e5 bc
       -0.015587144 -0.012004755 -0.024414798 -0.028071176
000370 66 34 12 bd 17 77 5d 3b 50 05 cd bc 10 d5 9f bb
       -0.035694502 0.0033792907 -0.025026947 -0.004877694
000380 e6 fc 24 3d 63 2d 32 bd 1f d9 92 bd a9 af 2c bd
       0.040280245 -0.043500315 -0.07170319 -0.04215971
000390 e6 bf 2b bd c1 d8 93 3c 41 6c 9b bc 36 81 94 bd
       -0.041931055 0.018047692 -0.018972518 -0.072512075
0003a0 5c 05 8d bc 82 16 1a bd e2 9b 13 bd 21 78 bc bc
       -0.01721447 -0.03761912 -0.036037333 -0.0230065
0003b0 40 21 aa bd 9b 0f 70 3d 03 ea 2d bd fe 35 74 3b
       -0.08307123 0.058608633 -0.0424595 0.0037263627
0003c0 4d da 8b bd 13 39 90 bd b0 98 16 bc ec 1e 2e bc
       -0.06828747 -0.07042136 -0.009191677 -0.01062749
0003d0 d2 ef b0 bd e7 33 0a 3e d6 98 b4 bd 87 5e 1f bd
       -0.08639492 0.13496362 -0.08818214 -0.038908508
0003e0 f1 43 f6 bc c5 6d 85 bd d3 fb 4a bd 3c 94 ee bd
       -0.030061694 -0.065150775 -0.049556565 -0.11649367
0003f0 6e 44 02 3d 32 45 4a 3d 99 86 af 3c 94 ca 56 3c
       0.03180354 0.049382396 0.021426486 0.013109822
