DRLND/P3_Collab_Compet/checkpoint_critic1.pth (torch_old, 301984 bytes, 13 tensors)

fcs1.weight f4 [256, 24]
0.041628204 0.05143988 0.022517757 0.03533799 0.008596079 0.047773764 -0.056477554 0.044994336
0.058192104 -0.0043193446 -0.033984292 0.049053248 0.053741068 -0.06558653 -0.061385833 -0.020857697
-0.03585771 -0.015084617 -0.056561254 0.0039405455 -0.0066068885 0.035958495 -0.013755936 -0.025442768
0.06671917 0.13320303 -0.03489329 -0.06726645 -0.012904013 0.02345734 0.010058215 0.040343814
-0.00724274 0.019924147 -0.041975662 -0.022926278 -0.07246635 0.08680119 -0.014058055 -0.00398611
0.001676989 0.05463598 -0.033807863 -0.013318239 -0.0056894165 0.14410077 0.013941776 0.035293218
-0.015576708 -0.0577794 -0.011736528 -0.010722089 -0.045189343 0.013237101 0.04822654 0.023228988
0.05823464 0.0047071865 0.0065450068 0.070139304 0.05383457 0.039200075 0.0050446563 -0.0016665743
-0.022060568 0.08193887 0.0421021 -0.0035375934 0.10707846 0.12501882 -0.008885887 -0.04883495
0.017723093 -0.09337129 0.0012118409 0.014735041 0.015317529 0.037479244 -0.02236598 0.029983178
-0.043668542 -0.07993964 -0.04531171 0.037579 0.048565138 -0.029057816 0.024934137 0.04322093
0.021478996 -0.033983666 0.053610336 -0.007664363 -0.13830157 0.04347284 0.0217969 -0.0012194454
0.06170575 -0.01595003 0.031942554 0.062631786 0.024679782 -0.14709663 -0.048244044 -0.046818532
-0.022587676 -0.019999137 0.0049052606 0.0031377634 -0.026752887 0.011462477 0.028787307 -0.01700622
-0.029477688 -0.09362754 -0.052357625 0.008055661 0.061447397 0.057927918 0.023594603 0.061923828
0.10763833 0.037458446 -0.02216903 -0.019446347 0.059664994 -0.018542878 -0.00057714444 0.038417965
-0.030616283 -0.0068190703 0.0005017953 0.06768573 -0.017682957 0.045696102 -0.0048747626 0.031120777
-0.04436541 -0.013854721 0.0043594292 0.03848585 0.061623417 0.13496771 -0.017817192 0.13674173
0.02336397 -0.020274214 -0.039840575 0.08319808 -0.09270386 -0.058991592 0.053786267 0.050192405
0.111107424 0.09306212 0.024085492 0.00553902 -0.094273835 -0.015431021 0.010509248 -0.03620119
0.080474414 0.08180753 0.011165401 0.06674467 -0.051607624 -0.023210539 -0.023005513 0.017344367
0.09371448 0.009911671 -0.007378202 -0.006737754 -0.08414195 -0.003907137 0.019214794 -0.0041021393
0.07317286 0.017925858 -0.021104308 -0.030441862 -0.11285432 0.005443516 0.034284733 0.025759803
0.11077691 -0.06747075 -0.012413137 0.0064120414 -0.07961079 -0.046805285 0.0030371046 -0.009970881
-0.010583464 -0.068709604 -0.041848455 -0.06504563 -0.04643852 -0.0662234 0.02732847 -0.06330784
0.030800497 -0.03312926 -0.040775977 -0.05086308 0.02282941 -0.11540241 -0.048241884 -0.09355645
0.02265972 -0.049640134 0.0024771753 -0.0021373339 0.09230366 -0.06832808 0.01285866 0.008732415
0.04946763 0.042207528 -0.007479768 -0.006113039 -0.063058294 0.032786753 0.01845429 -0.050478123
0.0622874 -0.06843004 0.067301065 -0.007299628 -0.006111508 -0.04536688 -0.019140752 -0.0059717163
0.048188243 -0.01626518 0.0058521 -0.08315159 -0.07897425 -0.10526773 -0.0068592713 -0.081169516
0.026814863 -0.018036637 0.03352323 -0.030816559 0.011500496 0.02120267 0.033300824 -0.022425437
-0.052139807 0.024086665 0.06281973 -0.043016993 0.05956731 -0.01030217 -0.00401694 0.04308949
00000000: 5682 2a3d a0b2 523d 2977 b83c 91be 103d
00000010: 92d6 0c3c 6cae 433d 0255 67bd fb4b 383d
00000020: d85a 6e3d 4a89 8dbb 1d33 0bbd 0fec 483d
00000030: 981f 5c3d 3b52 86bd b66f 7bbd c3dd aabc
00000040: 89df 12bd 7825 77bc c6ac 67bd b11f 813b
00000050: 997e d8bb 3749 133d 9460 61bc 5a6d d0bc
00000060: 0fa4 883d 6066 083e 44ec 0ebd fec2 89bd
00000070: 5a6b 53bc 9c29 c03c 36cb 243c 8e3f 253d
00000080: 8254 edbb f737 a33c acee 2bbd e4cf bbbc
00000090: 3d69 94bd d3c4 b13d c253 66bc ea9d 82bb
000000a0: 6ace db3a fac9 5f3d 1d7a 0abd be34 5abc
000000b0: 496e babb 278f 133e 0c6c 643c 9f8f 103d
000000c0: 7335 7fbc 18aa 6cbd 914a 40bc b3ab 2fbc
000000d0: 7618 39bd 6de0 583c 3189 453d b84a be3c
000000e0: 7287 6e3d be3e 9a3b 7f77 d63b 32a5 8f3d
000000f0: a381 5c3d 4290 203d a54d a53b f470 daba
00000100: 5db8 b4bc 91cf a73d 4073 2c3d f8d6 67bb
00000110: f44b db3d ef04 003e 1d96 11bc 2807 48bd
00000120: 0530 913c 7239 bfbd a2d6 9e3a 3e6b 713c
00000130: 60f6 7a3c d683 193d dc38 b7bc 489f f53c
00000140: c9dd 32bd 65b7 a3bd c698 39bd 70ec 193d
00000150: 3dec 463d a80a eebc ad42 cc3c 6e08 313d
00000160: b8f4 af3c 7532 0bbd 8396 5b3d 5625 fbbb
00000170: ed9e 0dbe 9410 323d 6a8f b23c ccd5 9fba
00000180: 2bbf 7c3d a3a9 82bc 32d6 023d 1845 803d
00000190: 412d ca3c 80a0 16be 8c9b 45bd cac4 3fbd
000001a0: ca09 b9bc 3bd5 a3bc 4fbc a03b efa2 4d3b
000001b0: df28 dbbc 1dcd 3b3c 5cd3 eb3c a150 8bbc
000001c0: 317b f1bc ccbf bfbd f374 56bd e4fb 033c
000001d0: 44b0 7b3d d345 6d3d 7849 c13c d7a3 7d3d
000001e0: 7c71 dc3d 076e 193d d39b b5bc f24d 9fbc
000001f0: 4863 743d 3ce7 97bc 824b 17ba 285c 1d3d
00000200: 00cf fabc 8272 dfbb ea8a 033a d19e 8a3d
00000210: d9db 90bc d62b 3b3d 79bc 9fbb 00f1 fe3c
00000220: 81b8 35bd e9fe 62bc 8bd9 8e3b 57a3 1d3d
00000230: d668 7c3d fa34 0a3e 5cf5 91bc 0606 0c3e
00000240: cc65 bf3c 1c16 a6bc df2f 23bd c163 aa3d
00000250: 85db bdbd 2ba1 71bd fd4e 5c3d 8d96 4d3d
00000260: 4a8c e33d 5a97 be3d f04e c53c ab80 b53b
00000270: a412 c1bd 65d2 7cbc fb2e 2c3c b347 14bd
00000280: c5cf a43d b58a a73d 16ef 363c 6eb1 883d
00000290: 8462 53bd 0724 bebc 0f76 bcbc c615 8e3c
000002a0: 61ed bf3d 9064 223c d8c4 f1bb 61c8 dcbb
000002b0: 9d52 acbd 7107 80bb 5868 9d3c 3d6b 86bb
000002c0: a7db 953d 40d9 923c f1e2 acbc 3661 f9bc
000002d0: 2a20 e7bd 865f b23b 266e 0c3d 3906 d33c
000002e0: 01df e23d 1b2e 8abd 7860 4bbc 1a1c d23b
000002f0: fb0a a3bd e6b6 3fbd 290a 473b e85c 23bc
00000300: 4466 2dbc 9fb7 8cbd 4969 2bbd a536 85bd
00000310: 5136 3ebd 22a0 87bd f5df df3c 8aa7 81bd
00000320: 5351 fc3c 8cb2 07bd b604 27bd ce55 50bd
00000330: be04 bb3c 1958 ecbd 4899 45bd 869a bfbd
00000340: e1a0 b93c 7453 4bbd 1b58 223b 8312 0cbb
00000350: b409 bd3d 98ef 8bbd 21ad 523c 6712 0f3c
00000360: 929e 4a3d cde1 2c3d d718 f5bb e34f c8bb
00000370: b524 81bd 674b 063d 742d 973c 26c2 4ebd
00000380: 1321 7f3d 0c25 8cbd 24d5 893d b831 efbb
00000390: 0b43 c8bb 9fd2 39bd 11cd 9cbc 63ae c3bb
000003a0: 0961 453d 8e3e 85bc f9c2 bf3b 614b aabd
000003b0: 40bd a1bd 9c96 d7bd bdc3 e0bb 343c a6bd
000003c0: d8aa db3c 92c1 93bc a84f 093d 0273 fcbc
000003d0: 946c 3c3c 39b1 ad3c 7266 083d 8db5 b7bc
000003e0: 8d90 55bd 6651 c53c a1a7 803d 9632 30bd
000003f0: dafc 733d 6fca 28bc 89a0 83bb 9b7e 303d

fcs1.bias f4 [256]
-0.10290433 0.0875829 0.02908804 0.062591985 -0.093544826 -0.25076467 -0.24035728 -0.036410596
-0.23028895 -0.10812143 0.0823968 -0.009734944 0.13399248 -0.14002368 0.046471216 0.16101423
0.0035126866 0.01561928 -0.16324769 -0.086621836 0.075470425 -0.17816891 -0.06338632 -0.19937588
-0.008835893 -0.1441793 0.064424396 -0.0037751324 -0.09856532 -0.08767562 -0.16186431 -0.10379571
-0.029577466 -0.035458975 -0.19228947 -0.042603165 -0.18610227 0.23643143 -0.09572954 -0.053481616
-0.19377871 -0.2556484 -0.035798144 -0.07566496 -0.0402902 -0.025551742 -0.07718027 -0.15871309
0.1867676 0.075021565 -0.06610165 0.13407926 -0.034386806 -0.17397584 0.03374032 -0.14551204
0.10430338 -0.047571022 -0.28026772 0.19573258 0.050073203 0.0912537 0.04920848 -0.23606184
0.021062495 0.04094654 -0.20803717 0.11232785 -0.22715795 -0.18229383 -0.041846536 -0.2380328
-0.16275044 -0.07685069 -0.013229848 0.010925579 0.08397249 0.160202 0.034163754 0.014974943
-0.021574384 -0.072691545 -0.26331487 -0.19032747 0.0063573513 -0.14940208 -0.10052016 0.060756687
-0.07956246 0.08674156 -0.05207683 0.0033800642 -0.09577767 0.12196594 -0.1947386 -0.3221247
0.13723269 -0.13346756 0.1804773 0.07403164 0.06098515 -0.028402193 0.037179187 0.04723699
-0.10708414 0.05940463 0.15350235 -0.024884626 0.035159428 0.0016150601 -0.1249754 -0.19259016
-0.062687404 -0.15107903 -0.20091914 0.08210779 0.19015966 -0.16328031 -0.10690623 0.17166926
-0.14868334 0.025653897 0.13581891 0.1942392 0.062218893 0.049616598 -0.05926108 -0.04058698
0.051831722 -0.09599486 -0.1810135 0.073035665 -0.22174862 0.14141165 0.13320953 0.13191245
0.050202433 0.03359085 0.1525789 0.058752526 0.026554363 -0.25749415 0.22106867 0.038603995
0.1354857 -0.1400827 -0.04205614 -0.11955172 0.022649664 0.21076636 0.012726685 0.22292505
0.12129846 -0.13934681 0.14013228 -0.024832005 0.19563675 0.005980965 -0.038191617 0.1515762
-0.2290568 -0.012169921 -0.082685135 -0.026505297 -0.038517233 0.16973968 -0.056646474 0.084512495
-0.0028149185 0.21886152 0.08636845 -0.2632147 -0.18105675 -0.2492245 -0.22764248 -0.17999762
-0.033784624 0.20213811 -0.06985058 0.11491782 -0.088183366 0.14853679 0.12438186 0.08331868
0.21196084 -0.19415973 -0.19431654 -0.1717964 0.0096968645 0.16472857 0.09865092 -0.020111613
-0.05226041 -0.14988929 0.21414872 -0.18838114 -0.14988303 0.109479636 0.06540406 0.06312058
0.025294947 -0.0408885 0.033174664 -0.1252836 0.29811656 0.1711752 -0.16640651 0.15377463
-0.014783904 -0.16199625 -0.104435116 -0.003162166 0.2422011 0.05161193 -0.040455293 -0.12468096
0.15221131 0.09665085 -0.0056492244 0.070866406 -0.12350283 0.027197609 0.1613865 -0.10451344
0.0668875 -0.17848724 0.049603716 -0.15567116 -0.16609748 -0.08980202 0.11865839 0.11620052
-0.045234744 -0.15564783 0.016835285 0.08216189 -0.12897685 0.082561366 0.015071882 0.113405734
-0.2645286 -0.09690575 0.08106304 -0.027483752 -0.11324668 0.18441558 -0.04357607 -0.12898865
0.0134170465 -0.122827396 -0.04524533 -0.19723783 0.17910902 0.17727014 -0.25424483 0.13478
00000000: 81bf d2bd aa5e b33d 0b4a ee3c 3a30 803d
00000010: 6e94 bfbd 3a64 80be 3820 76be 4723 15bd
00000020: ded0 6bbe c56e ddbd a7bf a83d 517f 1fbc
00000030: 5335 093e 5e62 0fbe 9a58 3e3d eae0 243e
00000040: 1a35 663b 02e8 7f3c 672a 27be ca66 b1bd
00000050: 3d90 9a3d e971 36be b0d0 81bd 3129 4cbe
00000060: 6cc4 10bc bda3 13be f0f0 833d 3668 77bb
00000070: 9ddc c9bd 478f b3bd c2bf 25be d892 d4bd
00000080: 714c f2bc 6e3d 11bd 88e7 44be a880 2ebd
00000090: 9891 3ebe 151b 723e d90d c4bd 8a0f 5bbd
000000a0: ed6d 46be 59e4 82be 13a1 12bd 3bf6 9abd
000000b0: 5607 25bd e351 d1bc b010 9ebd af85 22be
000000c0: 0140 3f3e e8a4 993d 4d60 87bd 134c 093e
000000d0: 2ed9 0cbd b926 32be 4a33 0a3d 1c01 15be
000000e0: 039d d53d d5d9 42bd 407f 8fbe 1f6e 483e
000000f0: 8f19 4d3d 38e3 ba3d d58e 493d 32ba 71be
00000100: 418b ac3c 8fb7 273d b207 55be 250c e63d
00000110: 189c 68be 3cab 3abe 4667 2bbd dfbe 73be
00000120: 0da8 26be e563 9dbd 01c2 58bc 3301 333c
00000130: c5f9 ab3d fe0b 243e 4bef 0b3d 7759 753c
00000140: c3bc b0bc 4edf 94bd 35d1 86be 34e5 42be
00000150: 5451 d03b dcfc 18be 83dd cdbd 01dc 783d
00000160: a5f1 a2bd 8fa5 b13d 844e 55bd 1184 5d3b
00000170: 1527 c4bd 47c9 f93d 8e69 47be 87ed a4be
00000180: ba86 0c3e b8ab 08be 0bcf 383e e79d 973d
00000190: 91cb 793d b7ab e8bc 3449 183d 937b 413d
000001a0: ee4e dbbd 4552 733d b82f 1d3e d8da cbbc
000001b0: 5503 103d 6db0 d33a 1af3 ffbd 5b36 45be
000001c0: 4162 80bd 76b4 1abe bfbd 4dbe 2128 a83d
000001d0: 37b9 423e f432 27be a7f1 dabd 11ca 2f3e
000001e0: 7240 18be 1f28 d23c 1d14 0b3e a4e6 463e
000001f0: 3dd9 7e3d c63a 4b3d bfbb 72bd 883e 26bd
00000200: 804d 543d f498 c4bd 9a5b 39be b993 953d
00000210: 1212 63be 37ce 103e 1468 083e 0f14 073e
00000220: 11a1 4d3d 8f96 093d a53d 1c3e 7da6 703d
00000230: 8988 d93c 46d6 83be d35f 623e 391f 1e3d
00000240: c3bc 0a3e d771 0fbe 0f43 2cbd 88d7 f4bd
00000250: ca8b b93c 23d3 573e 9683 503c 7746 643e
00000260: 546b f83d eeb0 0ebe d67e 0f3e 7d6c cbbc
00000270: 0055 483e f9fb c33b d06e 1cbd cb36 1b3e
00000280: de8d 6abe 5964 47bc d356 a9bd a321 d9bc
00000290: 3fc4 1dbd 3dd0 2d3e 2206 68bd e314 ad3d
000002a0: 7f7a 38bb 3c1d 603e f1e1 b03d 14c4 86be
000002b0: f166 39be b534 7fbe 1c1b 69be 4c51 38be
000002c0: bf61 0abd 4bfd 4e3e d20d 8fbd 095a eb3d
000002d0: 7b99 b4bd 071a 183e ebbb fe3d fca2 aa3d
000002e0: 430c 593e cfd1 46be eafa 46be 65eb 2fbe
000002f0: 99df 1e3c 9bae 283e 7e09 ca3d 1cc1 a4bc
00000300: 030f 56bd 947c 19be cd49 5b3e fce6 40be
00000310: f07a 19be dc36 e03d 90f2 853d 5d45 813d
00000320: 5937 cf3c b37a 27bd 28e2 073d 584a 00be
00000330: bca2 983e 8d48 2f3e 7866 2abe 1977 1d3e
00000340: 3038 72bc 58e2 25be 14e2 d5bd 583c 4fbb
00000350: 9103 783e 0867 533d 73b4 25bd bb58 ffbd
00000360: 48dd 1b3e e1f0 c53d 211d b9bb 6822 913d
00000370: 0def fcbd 85cd de3c 8142 253e 240b d6bd
00000380: 50fc 883d 5cc5 36be 442d 4b3d 4368 1fbe
00000390: 7515 2abe 1fea b7bd 2c03 f33d 8afa ed3d
000003a0: 1148 39bd 2562 1fbe 27ea 893c 7e44 a83d
000003b0: 8212 04be ef15 a93d 0ef0 763c 4441 e83d
000003c0: 4b70 87be 8676 c6bd 6104 a63d 9b25 e1bc
000003d0: e0ed e7bd 70d7 3c3e d27c 32bd 9a15 04be
000003e0: 2cd3 5b3c ee8c fbbd 2b53 39bd b7f8 49be
000003f0: 5b68 373e 4e86 353e 612c 82be c503 0a3e

fc2.weight f4 [256, 258]
-0.008713841 0.011536593 0.0075348867 0.048867658 -0.07212744 -0.037970055 0.025033304 0.00852126
0.02772013 -0.039897148 0.033126514 -0.04856167 0.032871813 -0.028176747 -0.01781835 0.04995753
-0.06510835 0.005391939 -0.0040931865 -0.039844844 0.026899979 0.030916736 0.0279939 0.03257709
-0.054744527 0.026805652 0.06226125 0.0048448755 -0.00685017 0.025621116 -0.023202362 -0.014608512
-0.05179335 0.015517899 -0.06428277 -0.065838546 0.020722056 -0.041374903 -0.054093275 0.023968887
-0.003061404 0.043568894 0.034193575 0.033077847 0.049265087 0.007686421 0.028769538 -0.045119546
-0.05467844 -0.032988988 -0.06598993 -0.057145875 0.058424484 -0.049909633 -0.0020174892 -0.048150394
0.00038687393 -0.006510471 0.042970013 -0.03912671 0.048602417 0.0039456966 0.017487254 -0.042392466
-0.05171683 -0.055920947 -0.04553933 -0.037674066 -0.038818546 0.019282438 0.010985505 -0.06724914
-0.012816051 -0.05157263 -0.018468767 0.025578847 0.067987226 0.022123722 -0.043494377 0.04153363
0.03899976 0.045242976 0.023997243 -0.031011922 0.016540239 -0.023364797 -0.02744907 -0.029754568
-0.043611407 -0.0042374167 -0.01019416 -0.02644708 -0.007948675 -0.062271044 0.037328336 -0.03618694
-0.017902518 0.0467451 0.04430762 -0.060642503 -0.024183989 -0.013423625 0.02442412 -0.034273338
0.046060257 -0.10242936 0.059719723 -0.046628322 0.059454557 -0.052908424 -0.03725388 -0.0320528
-0.09299973 -0.005324069 0.028019086 -0.011592904 -0.0464183 0.032549452 0.059148524 0.025663396
0.02829431 -0.0360589 0.009426817 -0.0045872335 0.012291557 0.05437877 0.028805384 0.006158543
-0.044082303 -0.053120237 0.006671588 -0.05272526 0.028719794 -0.040947802 0.056183334 0.017800936
-0.005717049 -0.03742039 0.04411942 -0.0023366495 0.051226754 -0.039240237 -0.0006525785 -0.055608682
-0.019951286 -0.031657565 0.06606941 0.030837096 0.05395238 -0.014961563 -0.023479661 -0.020867592
0.09642655 -0.08822853 -0.047599003 0.113707334 0.008599056 -0.014488605 -0.068628296 -0.08175035
0.013931993 0.0010212301 -0.043211687 0.041968934 0.013143741 -0.046088208 0.029459523 0.017921237
-0.074279785 0.051327534 -0.023553083 0.023660516 -0.038930453 0.020413306 0.060287237 -0.013307569
-0.00086470065 0.013881837 0.036289044 -0.05694322 -0.021279482 -0.032114606 0.063448004 -0.025560303
-0.008415913 0.031297423 -0.044853847 -0.003010375 -0.05208727 0.05200983 -0.03445948 -0.007224084
0.02922039 -0.034752663 -0.029522803 0.014056533 0.017140074 0.018177712 -0.050515648 -0.043954123
0.032113526 0.015131971 -0.01735985 0.011139167 0.08138915 -0.087661326 0.016229605 0.031131033
-0.042120498 -0.0051761456 -0.01486685 -0.03148797 0.03759268 -0.01416623 0.0047112997 0.009530606
-0.02965193 -0.030190691 -0.034535553 -0.020510748 -0.06254408 -0.04908131 -0.022603149 0.014840417
0.0060958797 0.0026802728 -0.0036367595 -0.06773192 0.027789846 0.020533208 0.029355414 -0.005875954
-0.029951321 0.05247089 -0.013612018 0.0012801862 -0.05178377 -0.04580769 0.010095066 0.038731974
-0.049939696 -0.010756781 -0.0029561683 -0.04118763 0.017614368 -0.074355245 0.022665756 -0.014072505
-0.004465349 -0.009342419 -0.015313563 -0.086126395 0.074674495 -0.00085955544 -0.08763663 -0.002874681
00000000: 80c4 0ebc fa03 3d3c 36e7 f63b 7429 483d
00000010: 8db7 93bd 7d86 1bbd a512 cd3c c19c 0b3c
00000020: 5315 e33c 316b 23bd abaf 073d 9ae8 46bd
00000030: 98a4 063d ecd2 e6bc caf7 91bc 44a0 4c3d
00000040: 8757 85bd ddae b03b 2320 86bb 5934 23bd
00000050: 585d dc3c 1845 fd3c 7753 e53c 8e6f 053d
00000060: cc3b 60bd 8797 db3c a705 7f3d c3c1 9e3b
00000070: 6477 e0bb 60e3 d13c e112 bebc 8a58 6fbc
00000080: 4425 54bd c93e 7e3c afa6 83bd 5cd6 86bd
00000090: 4dc1 a93c bb78 29bd e990 5dbd 665a c43c
000000a0: d6a1 48bb 4c75 323d 900e 0c3d a37c 073d
000000b0: 30ca 493d 5fde fb3b 18ae eb3c 46cf 38bd
000000c0: 80f6 5fbd 761f 07bd ba25 87bd cb11 6abd
000000d0: 834e 6f3d 0b6e 4cbd da37 04bb 5939 45bd
000000e0: 57d5 ca39 ca55 d5bb 5301 303d 5443 20bd
000000f0: 5413 473d e74a 813b 6e41 8f3c b9a3 2dbd
00000100: 07d5 53bd 5d0d 65bd 7387 3abd 1f50 1abd
00000110: 3200 1fbd 34f6 9d3c 8cfc 333c ebb9 89bd
00000120: 6afa 51bc d23d 53bd d04b 97bc bb8a d13c
00000130: e33c 8b3d cf3c b53c 2927 32bd 2b1f 2a3d
00000140: 36be 1f3d b350 393d de95 c43c b70c febc
00000150: 657f 873c 8867 bfbc dfdc e0bc dabf f3bc
00000160: e0a1 32bd 07da 8abb 6805 27bc 8ca7 d8bc
00000170: 293b 02bc ec0f 7fbd 99e5 183d c238 14bd
00000180: 4da8 92bc ca77 3f3d e87b 353d 4664 78bd
00000190: 801d c6bc c4ee 5bbc 1815 c83c 3362 0cbd
000001a0: aea9 3c3d 7cc6 d1bd ab9c 743d 57fd 3ebd
000001b0: 9f86 733d 81b6 58bd 8697 18bd cc49 03bd
000001c0: a476 bebd 8775 aebb 4888 e53c 2af0 3dbc
000001d0: 1e21 3ebd 9352 053d b945 723d 0b3c d23c
000001e0: 78c9 e73c 7fb2 13bd f072 1a3c 8150 96bb
000001f0: 8762 493c 46bc 5e3d 45f9 eb3c 9acd c93b
00000200: a58f 34bd 9b94 59bd 569d da3b 71f6 57bd
00000210: c645 eb3c e2b8 27bd 7f20 663d 45d3 913c
00000220: 1556 bbbb 1f46 19bd 91b6 343d 7922 19bb
00000230: 25d3 513d 5fba 20bd cd11 2bba eec5 63bd
00000240: e170 a3bc 5dab 01bd 664f 873d 149e fc3c
00000250: 2cfd 5c3d 5821 75bc 6b58 c0bc 83f2 aabc
00000260: 487b c53d 29b1 b4bd 2cf7 42bd 64df e83d
00000270: 0ee3 0c3c 9d61 6dbc fe8c 8cbd ba6c a7bd
00000280: 0443 643c ccda 853a bdfe 30bd 9ee7 2b3d
00000290: d858 573c fdc6 3cbd 1955 f13c 8fcf 923c
000002a0: 0020 98bd d23c 523d 65f2 c0bc b3d3 c13c
000002b0: 8a75 1fbd ce39 a73c c0ef 763d fd07 5abc
000002c0: 14ad 62ba a570 633c d2a3 143d 4b3d 69bd
000002d0: 4f52 aebc 9b8a 03bd 07f1 813d d763 d1bc
000002e0: e6e2 09bc ba31 003d abb8 37bd b649 45bb
000002f0: 7659 55bd 4208 553d 6225 0dbd 02b8 ecbb
00000300: 995f ef3c cf58 0ebd ced9 f1bc 5f4d 663c
00000310: 5769 8c3c 6de9 943c 7fe9 4ebd 3d09 34bd
00000320: 7989 033d 16ec 773c 3f36 8ebc 0d81 363c
00000330: 5baf a63d c887 b3bd f3f3 843c 8206 ff3c
00000340: 8b86 2cbd a89c a9bb 1794 73bc 88f9 00bd
00000350: c8fa 193d 7a19 68bc 3f61 9a3b 4226 1c3c
00000360: 9be8 f2bc 7852 f7bc 2775 0dbd 2806 a8bc
00000370: 1c17 80bd 7c09 49bd 3d2a b9bc 3825 733c
00000380: f2bf c73b 84a7 2f3b b356 6ebb 08b7 8abd
00000390: 88a7 e33c 4235 a83c c47a f03c 138b c0bb
000003a0: 795c f5bc b7eb 563d f104 5fbc eccb a73a
000003b0: 381b 54bd d8a0 3bbd c765 253c 6ba5 1e3d
000003c0: 918d 4cbd 363d 30bc 46bc 41bb 5cb4 28bd
000003d0: 024c 903c 9047 98bd 89ad b93c 5d90 66bc
000003e0: 1052 92bb f210 19bc bde5 7abc 0963 b0bd
000003f0: f1ee 983d ca53 61ba d57a b3bd 2565 3cbb

fc2.bias f4 [256]
-0.0015386284 -0.09334585 -0.00837719 -0.12717278 -0.031674676 -0.08847341 -0.10713546 -0.065091535
-0.0961589 0.039096724 -0.086232476 -0.036707293 -0.060451634 0.035413817 -0.12754901 -0.027595859
-0.024342936 -0.055951312 -0.021429388 -0.10408414 -0.05665282 -0.060426578 -0.0138891665 -0.0013757675
-0.092498854 -0.02732376 -0.111940145 -0.035901625 -0.06338043 0.0618059 -0.06994857 -0.075556286
-0.05850749 -0.11579089 0.04074791 -0.03294034 -0.01932377 -0.02301212 -0.10404854 0.034141194
-0.13468967 -0.017742513 0.025641534 -0.03735903 -0.081685305 -0.113474995 -0.07671223 0.018546574
-0.0071821325 0.044937547 -0.07255933 -0.062787004 -0.053881552 -0.088761106 -0.026473656 -0.09438313
-0.119693354 -0.110939234 -0.07450039 -0.09038612 -0.05195581 -0.086543046 0.007118349 -0.0038005277
-0.13113776 -0.0723996 0.056419935 -0.08941019 -0.012784538 -0.053347293 -0.05388243 -0.06573955
-0.10849571 -0.091068834 -0.068871446 -0.05256014 -0.0822267 -0.057597328 -0.09172507 -0.029261062
-0.08716596 -0.006012088 -0.13156089 -0.004679985 -0.06603714 -0.08948127 -0.054830078 -0.055917557
-0.10041532 -0.097493455 -0.08886466 0.047432415 -0.09446745 -0.121995136 -0.0721411 -0.07500493
-0.09825195 -0.08556229 -0.11944378 -0.0411972 -0.015611148 0.06603003 0.019831918 -0.06732224
-0.01587319 -0.07267495 -0.049553417 -0.10861073 0.0310744 0.011842642 -0.09205662 -0.046099287
0.014340085 0.013448742 0.049067516 -0.05121088 0.044404663 0.020005813 -0.11016088 -0.035069954
-0.025989965 -0.09403562 0.043470748 -0.03474947 -0.06575764 -0.03752787 -0.045039847 -0.10610949
-0.017477507 0.011266498 -0.020297302 -0.06266359 -0.042637594 -0.08206897 -0.08496194 -0.10192992
0.03676827 -0.047805563 0.014648894 -0.06701516 -0.058098853 -0.06855448 -0.024719933 -0.112827435
-0.050302494 0.046390664 -0.080453336 -0.074600175 -0.09390923 -0.11993708 -0.093413025 -0.042810906
-0.0053207106 -0.05509532 -0.07353827 -0.01525736 -0.13455075 -0.1030121 -0.034623444 -0.06737065
-0.07261788 -0.0016056364 0.00018505254 0.034354102 -0.049340222 0.008964996 -0.026764415 -0.06440417
0.019645883 -0.13319151 0.021897547 -0.10177249 0.036280118 -0.06776481 0.05829123 -0.06339218
-0.12213489 -0.1364891 -0.08476267 0.028080987 -0.11122299 -0.023849776 -0.017646285 0.040743284
-0.03650174 -0.08046612 0.020229481 -0.13210732 -0.04842007 -0.044111807 -0.14779478 -0.05422178
0.02255201 -0.07173583 -0.10316677 -0.05551057 -0.11898916 -0.08120351 -0.032952517 -0.050820254
-0.095137686 -0.14861159 -0.018936705 -0.06816632 0.10617483 -0.07260226 -0.0021470604 -0.11300425
-0.11321747 -0.109465815 0.039880082 -0.11144397 -0.057262275 -0.068736725 -0.09097179 0.023747826
-0.079880476 -0.08752331 -0.0977196 0.034805905 -0.09649714 -0.07296039 0.019882888 0.06030961
0.055991698 -0.026737113 -0.021698952 -0.14711843 -0.099871404 0.036467556 -0.00016140647 -0.08062786
-0.12997401 -0.045661617 -0.08056077 0.032244813 -0.03614456 -0.007965982 -0.03198882 -0.031095186
-0.0533364 0.041812494 -0.053527977 -0.038166504 0.0033568216 -0.051060412 -0.030982127 -0.007462341
-0.038011346 -0.12551975 -0.06763476 -0.06780397 -0.09279995 -0.044252742 -0.11273763 -0.10186616
00000000: cdab c9ba 1c2c bfbd 7b40 09bc 9539 02be
00000010: 4ebd 01bd 8c31 b5bd d669 dbbd b64e 85bd
00000020: f5ee c4bd e323 203d a79a b0bd 635a 16bd
00000030: 229c 77bd 140e 113d 359c 02be b610 e2bc
00000040: d66a c7bc 342d 65bd af8c afbc 112a d5bd
00000050: ca0c 68bd dc81 77bd 638f 63bc 1953 b4ba
00000060: 0a70 bdbd 14d6 dfbc e040 e5bd 950d 13bd
00000070: 99cd 81bd 2f28 7d3d 3241 8fbd 41bd 9abd
00000080: 8da5 6fbd c623 edbd 48e7 263d 73ec 06bd
00000090: e24c 9ebc ea83 bcbc 6717 d5bd a3d7 0b3d
000000a0: 17ec 09be bf58 91bc 320e d23c c805 19bd
000000b0: a04a a7bd 9465 e8bd 4d1b 9dbd fcee 973c
000000c0: 1858 ebbb 6f10 383d fc99 94bd 7996 80bd
000000d0: e7b2 5cbd 62c8 b5bd 48df d8bc f14b c1bd
000000e0: ca21 f5bd 1c34 e3bd a993 98bd 5c1c b9bd
000000f0: 9ecf 54bd 7b3d b1bd 0a41 e93b 4612 79bb
00000100: fa48 06be 3e46 94bd 9718 673d b11c b7bd
00000110: 3d76 51bc b182 5abd d3b3 5cbd 75a2 86bd
00000120: 0033 debd 4c82 babd 790c 8dbd 4d49 57bd
00000130: 7966 a8bd 2deb 6bbd 5ada bbbd e5b4 efbc
00000140: 1184 b2bd 0d01 c5bb e6b7 06be 8f5a 99bb
00000150: 7b3e 87bd f541 b7bd 8195 60bd cf09 65bd
00000160: 8ca6 cdbd a6aa c7bd adfe b5bd 7e48 423d
00000170: 2778 c1bd 96d8 f9bd b7be 93bd 2f9c 99bd
00000180: 5238 c9bd 483b afbd f19e f4bd 65be 28bd
00000190: e7c5 7fbc c13a 873d 8c76 a23c 3ee0 89bd
000001a0: 7e08 82bc 9bd6 94bd 86f8 4abd 4d6f debd
000001b0: bd8f fe3c a407 423c 2e88 bcbd 9bd2 3cbd
000001c0: adf2 6a3c 1d58 5c3c 05fb 483d 80c2 51bd
000001d0: aae1 353d 3be3 a33c 079c e1bd 83a5 0fbd
000001e0: e8e8 d4bc bf95 c0bd 620e 323d 7655 0ebd
000001f0: f1ab 86bd d3b6 19bd b47b 38bd ef4f d9bd
00000200: fd2c 8fbc 1e97 383c 8746 a6bc c555 80bd
00000210: c2a4 2ebd c713 a8bd 8700 aebd a2c0 d0bd
00000220: 539a 163d c4cf 43bd ea01 703c 3f3f 89bd
00000230: 10f9 6dbd 4b66 8cbd 7581 cabc 1212 e7bd
00000240: fd09 4ebd 2304 3e3d b8c4 a4bd fac7 98bd
00000250: 7b53 c0bd 92a1 f5bd 544f bfbd 7d5a 2fbd
00000260: 5b59 aebb a1ab 61bd 3c9b 96bd 02fa 79bc
00000270: acc7 09be 02f8 d2bd 50d1 0dbd a0f9 89bd
00000280: afb8 94bd 3874 d2ba aa0a 4239 e3b6 0c3d
00000290: f918 4abd ebe1 123c 0c41 dbbc 55e6 83bd
000002a0: 67f0 a03c 5b63 08be 7c62 b33c 186e d0bd
000002b0: 769a 143d 47c8 8abd c9c2 6e3d c2d3 81bd
000002c0: db21 fabd ccc3 0bbe 0d98 adbd 190a e63c
000002d0: e1c8 e3bd 9b60 c3bc f18e 90bc 6ee2 263d
000002e0: d982 15bd 6ccb a4bd 4cb8 a53c 2447 07be
000002f0: 2054 46bd 95ae 34bd 8457 17be a817 5ebd
00000300: febe b83c 3cea 92bd 1949 d3bd 0d5f 63bd
00000310: 97b0 f3bd 074e a6bd 38f9 06bd e628 50bd
00000320: 8cd7 c2bd a32d 18be 2621 9bbc c99a 8bbd
00000330: 3072 d93d 7eb0 94bd b2b5 0cbb c66e e7bd
00000340: 90de e7bd 9d2f e0bd 4c59 233d bc3c e4bd
00000350: d98b 6abd d7c5 8cbd 6b4f babd cd8a c23c
00000360: 6098 a3bd 6c3f b3bd 3721 c8bd a390 0e3d
00000370: 4ba0 c5bd 426c 95bd 70e1 a23c 3607 773d
00000380: 8d57 653d ca07 dbbc 00c2 b1bc 37a6 16be
00000390: 6189 ccbd 015f 153d 383f 29b9 3820 a5bd
000003a0: e817 05be ad07 3bbd 0cfd a4bd 2313 043d
000003b0: 510c 14bd c083 02bc b506 03bd 55bb febc
000003c0: 4577 5abd 9443 2b3d 2740 5bbd 7b54 1cbd
000003d0: 1ffe 5b3b b924 51bd 3bce fdbc a786 f4bb
000003e0: c9b1 1bbd 4088 00be 1884 8abd cfdc 8abd
000003f0: e60d bebd 5d42 35bd fde2 e6bd 359f d0bd

fc3.weight f4 [1, 256]
0.009771374 -0.041514277 0.005969609 -0.015135763 0.01283989 -0.010953853 0.008781931 0.019974245
0.11931933 0.010845219 0.008758078 0.0066931727 0.046349563 -0.025642317 -0.018158915 0.014005405
0.010261653 0.0419083 -0.011796084 0.011495445 -0.02832131 -0.013367306 0.014009733 0.0057843593
-0.01942056 0.0073541636 -0.011851465 -0.056652196 -0.0014628662 0.00556631 -0.013262021 -0.033252485
0.014540247 -0.039717127 0.0112156635 -0.029797496 0.027738687 0.006538537 0.015740285 0.01013966
0.012505888 0.010627996 0.0041714874 -0.023634385 -0.087847926 -0.037142336 -0.09657641 0.005197478
0.011052908 0.019894604 0.020465419 -0.016352458 0.017224109 -0.044495195 0.007293659 0.027459009
-0.08126574 -0.051286288 -0.025330326 0.016548388 0.023686485 0.058715384 0.0031204731 0.008588499
0.015062075 0.0041611386 0.009472188 -0.023095032 0.0053719124 0.012680659 0.031872064 -0.004067638
-0.022337215 -0.013317324 0.0060907756 -0.005707123 -0.011219078 -0.025452822 -0.0141850365 -0.015647849
-0.04083065 0.008036363 -0.0539059 -0.012301733 -0.023958288 -0.009953592 -0.014660364 0.019608812
-0.015293418 0.018531747 0.0133829545 0.014020241 -0.009607336 0.033804026 -0.025290845 -0.04133758
-0.017088488 0.016249163 0.020996058 -0.009080337 0.014363298 0.0083624665 0.011387861 -0.010840862
0.010825033 -0.022464644 -0.015369197 -0.033042435 0.008362585 0.009571968 -0.01575062 -0.006654904
0.0021337904 0.011099862 0.011829271 -0.011666774 0.0062911604 0.011819333 -0.081887566 -0.01667544
0.0017085164 -0.022080718 0.0047187936 -0.0299697 0.002272409 -0.017495332 -0.01765256 -0.033394903
-0.007944256 0.019337913 0.006426271 0.01137934 -0.018531544 0.010981353 0.0073960605 -0.009954724
0.012857907 0.014015595 0.0041437005 -0.017539857 0.021834627 -0.016285418 0.020352192 0.052801542
0.07328737 0.0123134395 0.028495802 -0.008369907 -0.01198662 -0.018544825 -0.011702849 -0.038343772
0.008914092 -0.013622054 -0.03407322 0.01409822 0.026782038 -0.005831503 -0.029221123 0.024958923
-0.005009716 0.011620705 0.008473364 0.0079260925 -0.013314435 0.0081416145 -0.012258575 -0.11564458
0.012937488 0.04069465 0.0051778913 0.009247 0.012097143 -0.015022743 0.012762071 0.013907948
-0.016542712 0.09658156 0.011066047 0.01621187 -0.019821852 0.006911163 0.0076063625 0.014094824
-0.015722167 -0.029157793 0.0063459417 -0.02365462 -0.035508983 -0.010568874 0.10020155 0.024933005
0.008004263 0.036641356 0.01832349 -0.05571491 -0.017201921 0.036281634 -0.008639387 0.017052995
-0.019918883 -0.027554307 0.0050654737 -0.011540032 0.024413005 -0.006286763 0.005830922 0.029323528
0.003058892 0.014683728 0.0021518022 -0.011524801 0.016341312 0.03555903 -0.007892911 0.019016424
-0.032658532 -0.013369015 -0.011579434 0.0048272996 -0.015692769 0.006956327 0.005013533 0.0041866656
0.010229271 0.013224671 0.0056051393 -0.028703406 -0.032802124 0.015753942 0.023442464 0.010545164
-0.029204909 0.014410981 -0.023182735 0.0062798355 0.0026187822 0.017055964 0.012547683 0.0027964115
-0.013011358 0.011200706 0.0069614504 -0.008685596 0.0036731686 0.0089137545 -0.038467694 0.0060476824
0.014412715 0.022733837 -0.007979527 0.14585295 -0.02125563 -0.030421723 -0.016883625 -0.013273129
00000000: 1d18 203c e00a 2abd b69c c33b fefb 77bc
00000010: 675e 523c ca77 33bc 17e2 0f3c 07a1 a33c
00000020: b15d f43d 25b0 313c 0b7e 0f3c 6752 db3b
00000030: 0ad9 3d3d d60f d2bc 01c2 94bc ed76 653c
00000040: 7e20 283c 0aa8 2b3d 5d44 41bc 6457 3c3c
00000050: 1802 e8bc 8c02 5bbc 1489 653c b98a bd3b
00000060: de17 9fbc 32fb f03b a62c 42bc 220c 68bd
00000070: a5bd bfba 9865 b63b f348 59bc c233 08bd
00000080: 373a 6e3c 6dae 22bd e7c1 373c e119 f4bc
00000090: 3e3c e33c 3941 d63b c5f1 803c d120 263c
000000a0: 7fe5 4c3c 0c21 2e3c f9b0 883b e69c c1bc
000000b0: 9de9 b3bd 9022 18bd dac9 c5bd 9b4f aa3b
000000c0: 4217 353c 02fa a23c 18a7 a73c 97f5 85bc
000000d0: 9319 8d3c 9840 36bd a5ff ee3b b7f1 e03c
000000e0: a76e a6bd 9211 52bd 8b81 cfbc 7c90 873c
000000f0: 290a c23c 8b7f 703d da80 4c3b c7b6 0c3c
00000100: ecc6 763c 295a 883b 3c31 1b3c cb31 bdbc
00000110: de06 b03b 8ac2 4f3c 488c 023d d249 85bb
00000120: 89fc b6bc e830 5abc 2195 c73b d102 bbbb
00000130: 39d0 37bc 7082 d0bc 5b68 68bc eb2f 80bc
00000140: 0a3e 27bd f3aa 033c 6fcc 5cbd 358d 49bc
00000150: 2c44 c4bc 6414 23bc 0632 70bc a9a2 a03c
00000160: 3f91 7abc e4cf 973c 2e44 5b3c 27b5 653c
00000170: 1668 1dbc 1776 0a3d bf2e cfbc 9851 29bd
00000180: 28fd 8bbc f71c 853c edff ab3c b2c5 14bc
00000190: 0a54 6b3c ba02 093c 2794 3a3c df9d 31bc
000001a0: 7b5b 313c c607 b8bc 16cf 7bbc 8157 07bd
000001b0: 3903 093c bed3 1c3c 7207 81bc 6211 dabb
000001c0: 10d7 0b3b 32dc 353c 8fcf 413c ff25 3fbc
000001d0: 1426 ce3b e0a5 413c abb4 a7bd ef9a 88bc
000001e0: 4cf0 df3a 9fe2 b4bc 1ca0 9a3b 0483 f5bc
000001f0: b2ec 143b 5f52 8fbc 1a9c 90bc 18c9 08bd
00000200: a028 02bc 8b6a 9e3c 7893 d23b 6970 3a3c
00000210: 77cf 97bc 22eb 333c a75a f23b 2419 23bc
00000220: f9a9 523c aba1 653c e1c7 873b bfaf 8fbc
00000230: 88de b23c ff68 85bc a4b9 a63c 6e46 583d
00000240: b017 963d 4fbe 493c 0770 e93c ef21 09bc
00000250: 8763 44bc 51eb 97bc 4ebd 3fbc 5c0e 1dbd
00000260: 690c 123c 092f 5fbc 5c90 0bbd 38fc 663c
00000270: 0166 db3c 3116 bfbb 2361 efbc a876 cc3c
00000280: 8b28 a4bb c564 3e3c ddd3 0a3c 71dc 013c
00000290: ca24 5abc 6864 053c 31d8 48bc 11d7 ecbd
000002a0: c2f7 533c 6faf 263d 4dab a93b bb80 173c
000002b0: 1833 463c f321 76bc 0118 513c 29de 633c
000002c0: 9584 87bc 8ecc c53d 5d4e 353c c1ce 843c
000002d0: 7061 a2bc 0a77 e23b cb3e f93b faed 663c
000002e0: c6cb 80bc 53dc eebc 9ef1 cf3b 55c7 c1bc
000002f0: de71 11bd 1229 2dbc 7836 cd3d 4d40 cc3c
00000300: 5024 033c 3f15 163d 251b 963c 5135 64bd
00000310: 0beb 8cbc 0d9c 143d 378c 0dbc b9b2 8b3c
00000320: ed2c a3bc 92b9 e1bc 46fc a53b 6712 3dbc
00000330: c8fd c73c 3101 cebb 5211 bf3b e537 f03c
00000340: b177 483b 0594 703c 4005 0d3b 85d2 3cbc
00000350: 37de 853c 58a6 113d 4551 01bc 55c8 9b3c
00000360: f4c4 05bd b709 5bbc abb7 3dbc 532e 9e3b
00000370: 1f8e 80bc e6f1 e33b 9048 a43b 4c30 893b
00000380: ac98 273c 4aac 583c 51ab b73b 6823 ebbc
00000390: 855b 06bd 690e 813c 690a c03c a0c5 2c3c
000003a0: 223f efbc 091c 6c3c b8e9 bdbc 14c7 cd3b
000003b0: e09f 2b3b f3b8 8b3c cc94 4d3c 0044 373b
000003c0: 972d 55bc 2a83 373c e11c e43b 084e 0ebc
000003d0: 8bb9 703b ff0a 123c 4d90 1dbd a32b c63b
000003e0: 4f23 6c3c 503c ba3c 90bc 02bc 7a5a 153e
000003f0: 4920 aebc fa36 f9bc 874f 8abc 8a77 59bc

bn1.weight f4 [256]
0.10493057 0.60153973 0.7718101 0.2431214 0.45001742 0.43861914 0.18537492 0.42295763
0.25689584 0.47813976 0.5999746 0.5722902 0.28291002 0.42496786 0.31462467 0.65204346
0.45084983 0.3465671 0.33725983 0.30808154 0.38352647 0.6138896 0.6258362 0.71628433
0.23141912 0.831132 0.6009755 0.65702116 -0.0122673465 0.69033414 0.13019434 0.09141343
0.76551 0.47302002 0.8287 0.41828004 0.105233625 0.57581866 0.70554864 0.44623893
0.45959455 0.13070022 0.7255178 0.65814614 0.65556717 0.5624348 0.2924046 0.9144605
0.55266374 0.31578174 0.4732106 0.20088343 1.0764829 0.5865699 0.39357832 0.6504038
0.37025762 0.42944068 0.4178794 0.39753583 0.30077216 0.8163151 0.66051644 0.21245915
0.25692627 0.17043172 0.045779977 0.58296996 0.08178502 0.6564803 0.462505 0.94345707
0.38695395 0.11769316 0.30273902 0.08742204 0.14630793 0.6745421 0.6499961 0.051549874
0.84159136 0.053200074 0.09159965 0.42798236 0.18979773 0.06493964 0.20685072 0.024811005
0.6365686 0.745764 0.92118704 0.5083085 0.9791943 0.48537213 0.8847131 0.331567
0.59751266 0.38124973 0.06697035 0.5668278 0.2823833 0.6445663 0.6257274 0.86837435
0.13959152 0.91367865 0.020806402 0.6966625 0.65895 0.09620091 0.6091309 0.27668792
0.3721389 0.6015944 0.6644442 0.8608831 0.23973852 0.3623639 0.37256503 0.77843267
0.0865532 0.59434247 0.19775361 0.015563526 0.35619903 -0.036732152 0.74854 0.42467865
0.60903287 0.61924905 0.7366586 0.8646108 1.0108643 1.0788362 0.6055807 0.7193899
0.4130356 0.7250681 0.80618453 0.7030614 0.73170924 0.8120727 0.61156124 0.070001155
0.24283901 0.5433264 0.06705147 0.44133535 0.56614834 0.02140968 0.48795485 0.853471
0.44844192 0.19778505 0.13636677 0.3211675 0.4204649 0.25855944 0.26789683 0.089651525
0.36160973 0.63874865 0.6952006 0.8475409 0.42185286 0.024150345 0.1764639 0.11610103
0.21391442 0.41379416 0.84071064 0.21236229 0.7411256 0.16058114 0.30024892 0.23899421
0.17251799 0.48917645 0.24399635 0.39444625 0.32937104 0.26432514 0.42524996 0.04758454
0.43329704 0.12717995 0.2686951 0.041493595 0.19324437 0.658387 0.0030362178 0.78158027
0.548028 0.05037377 0.49484575 0.0942845 0.43677375 0.46617627 0.3734227 0.76031005
0.6565026 0.15058362 0.37958485 0.2906615 0.29364634 0.7578926 0.061270397 0.73393065
0.09932514 0.37941855 0.81095386 0.35958254 0.45089567 0.7297472 0.5630895 0.19487587
0.5064582 0.12653412 0.6146614 0.6867602 0.6502626 0.8224418 0.73263156 0.37059253
0.62675345 0.69965833 0.11002874 0.79355276 0.88982666 0.4542549 0.32810152 0.4434493
0.21369837 0.85447735 0.7444369 0.6004431 0.74040246 0.045202576 0.046588015 0.30138505
0.46127653 0.6366925 0.5187751 0.21455646 0.4557765 0.4940216 0.16291231 0.21946362
0.6757939 0.0067352704 0.544666 0.16414478 0.2254069 0.27540874 0.20549174 0.86105615
00000000: d7e5 d63d 82fe 193f 5995 453f d1f4 783e
00000010: af68 e63e b092 e03e ecd2 3d3e e78d d83e
00000020: da87 833e bcce f43e ef97 193f 9c81 123f
00000030: 95d9 903e 6395 d93e 7c16 a13e 52ec 263f
00000040: cad5 e63e 3e71 b13e 52ad ac3e ddbc 9d3e
00000050: 955d c43e de27 1d3f cd36 203f 695e 373f
00000060: 22f9 6c3e 11c5 543f 88d9 193f 8a32 283f
00000070: fbfc 48bc bdb9 303f aa51 053e f736 bb3d
00000080: 77f8 433f ae2f f23e af25 543f cd28 d63e
00000090: ba84 d73d da68 133f d69e 343f 6e79 e43e
000000a0: fa4f eb3e 47d6 053e 89bb 393f 447c 283f
000000b0: 40d3 273f bafb 0f3f 0eb6 953e 151a 6a3f
000000c0: 5f7b 0d3f 25ae a13e a948 f23e 63b4 4d3e
000000d0: 31ca 893f 7229 163f 1983 c93e dd80 263f
000000e0: 6892 bd3e a6df db3e 4af4 d53e d189 cb3e
000000f0: cffe 993e 07fa 503f 9b17 293f e48e 593e
00000100: d78b 833e a785 2e3e c983 3b3d 853d 153f
00000110: e87e a73d 180f 283f 75cd ec3e 6786 713f
00000120: d41e c63e 1d09 f13d 9c00 9b3e 540a b33d
00000130: bfd1 153e cbae 2c3f 2566 263f f625 533d
00000140: 8872 573f 52e8 593d 9998 bb3d 8120 db3e
00000150: 565a 423e 13ff 843d add0 533e 7340 cb3c
00000160: 29f6 223f 64ea 3e3f ead2 6b3f 8120 023f
00000170: 7aac 7a3f b282 f83e 8f7c 623f 26c3 a93e
00000180: 97f6 183f 2a33 c33e c027 893d a01b 113f
00000190: 8b94 903e 4c02 253f ac2f 203f c84d 5e3f
000001a0: 14f1 0e3e d8e6 693f 3072 aa3c 7958 323f
000001b0: f2b0 283f fc04 c53d 01f0 1b3f 0aaa 8d3e
000001c0: fd88 be3e 1702 1a3f 0419 2a3f d662 5c3f
000001d0: 047e 753e c387 b93e d8c0 be3e 5d47 473f
000001e0: ce42 b13d d426 183f ec7f 4a3e 29fe 7e3c
000001f0: b85f b63e 7474 16bd 51a0 3f3f 7b6f d93e
00000200: 94e9 1b3f 1b87 1e3f a895 3c3f 2257 5d3f
00000210: 0064 813f 4e17 8a3f 5607 1b3f f029 383f
00000220: 6779 d33e 109e 393f 1c62 4e3f d5fb 333f
00000230: 4c51 3b3f ffe3 4f3f 478f 1c3f c45c 8f3d
00000240: caaa 783e 7017 0b3f 4852 893d b5f6 e13e
00000250: 19ef 103f 5a63 af3c 38d5 f93e 137d 5a3f
00000260: 2e9a e53e 2a88 4a3e bba3 0b3e 1170 a43e
00000270: 2d47 d73e e761 843e c629 893e 389b b73d
00000280: e924 b93e 0885 233f abf8 313f 71f8 583f
00000290: 19fd d73e f2d6 c53c f4b2 343e 60c6 ed3d
000002a0: 620c 5b3e d4dc d33e d038 573f 8075 593e
000002b0: 68ba 3d3f 626f 243e 3aba 993e e6ba 743e
000002c0: 8ea8 303e 5675 fa3e 2eda 793e dcf4 c93e
000002d0: 52a3 a83e a055 873e 5dba d93e 02e8 423d
000002e0: 1cd9 dd3e 763b 023e 6792 893e 30f5 293d
000002f0: dae1 453e 0d8c 283f 48fb 463b a515 483f
00000300: 904b 0c3f ba54 4e3d 6c5c fd3e 3b18 c13d
00000310: cfa0 df3e a8ae ee3e 4331 bf3e aea3 423f
00000320: 8e10 283f 9832 1a3e f258 c23e 96d1 943e
00000330: d058 963e 4005 423f abf6 7a3d e1e2 3b3f
00000340: fb6a cb3d 2643 c23e ac9a 4f3f 341b b83e
00000350: ccdb e63e b6d0 3a3f a226 103f 8a8d 473e
00000360: 3fa7 013f 2992 013e 735a 1d3f 84cf 2f3f
00000370: 9c77 263f 8c8b 523f be8d 3b3f 4ebe bd3e
00000380: ea72 203f cf1c 333f bf56 e13d 4626 4b3f
00000390: aecb 633f 1994 e83e ecfc a73e c90b e33e
000003a0: bfd3 5a3e 07bf 5a3f 6b93 3e3f a4b6 193f
000003b0: 048b 3d3f 5626 393d 13d3 3e3d 244f 9a3e
000003c0: 702c ec3e 48fe 223f 72ce 043f b0b4 5b3e
000003d0: 8a5b e93e 66f0 fc3e 7cd2 263e 12bb 603e
000003e0: d400 2d3f 8bb3 dc3b 3b6f 0b3f 9215 283e
000003f0: 11d1 663e 6002 8d3e 6d6c 523e 2d6e 5c3f

bn1.bias f4 [256]
0.07998954 -0.014421664 0.041853365 0.09929824 0.050334852 0.1272953 0.1096249 -0.0015408939
-0.062264435 -0.019844627 -0.011354681 -0.029147262 -0.002667957 -0.020758504 0.083917014 -0.08432714
-0.07537582 -0.12430892 0.018900303 0.048586864 -0.00043567605 0.05322703 -0.0003909356 0.041763667
-0.02010302 -0.0015221303 -0.0040937434 0.043459434 0.16179591 0.034683067 0.02061114 0.04272288
0.18060751 -0.063494034 0.064792454 0.010598583 -0.044654366 0.021458227 0.05035126 -0.062108077
0.0509089 0.076514974 -0.05661176 -0.04781183 0.049369063 0.097044274 -0.020196792 0.10951511
0.04501067 0.037687372 0.038827498 -0.021235602 0.02632298 -0.11626197 0.099680215 0.07473993
-0.009423958 -0.22286499 -0.00967516 -0.015118612 0.03779862 0.055382464 0.0660695 0.12754034
0.08287282 0.04672974 -0.010322337 0.104245305 0.026359845 -0.06651605 -0.010112837 -0.019034367
0.012344928 0.13564712 -0.10343902 -0.060885716 0.13575889 -0.08903136 0.07732873 0.15974069
0.13011487 0.054946594 -0.03582099 0.12883627 -0.024382502 0.17430028 0.10870534 -0.11900413
-0.048369735 -0.06756804 0.1159126 0.020633271 0.05504321 -0.048102614 0.049750883 0.013830783
0.0907893 0.033341616 0.15058213 -0.040252175 0.060568865 0.063630454 -0.0845226 0.053497802
0.10998409 0.09732037 0.16313678 0.031413343 0.036052827 0.2656058 0.058427297 0.2016024
-0.002907048 0.047362328 0.015836872 -0.072953455 0.07497242 0.15178405 0.067597106 0.08352243
0.052542586 0.02639013 -0.117868274 0.12059097 0.087304465 0.14563796 0.012733486 0.082574055
-0.10011493 -0.017272746 -0.030097423 0.042020354 0.03087377 -0.015590362 0.016770713 0.0589429
0.04582486 0.05736347 -0.034517705 0.01806738 0.096037716 -0.05819556 -0.11426099 -0.10054327
-0.17982113 0.07071528 0.020492967 0.11075142 0.011239853 -0.12191694 0.10637193 -0.029993244
0.06045725 -0.10102893 0.020576647 0.04913517 -0.063483626 0.052125633 0.012505252 -0.0074867858
0.048120808 -0.016297612 -0.011786199 0.07934441 0.059873372 -0.107439294 -0.022244498 0.046078473
0.009847055 -0.05896717 -0.076652 0.13844852 0.21116224 0.056833953 0.14985344 -0.09032287
0.006505543 0.23454852 -0.0003747868 -0.05907376 -0.09218624 0.077783555 0.017271033 0.13851908
0.039814446 -0.0792943 0.036867574 -0.13088186 -0.10725259 0.09729038 0.1934155 -0.065741345
0.03369817 -0.13376099 0.010918406 -0.025243273 -0.054283325 -0.0064880364 0.000875222 0.02790206
0.09912488 -0.001998076 0.046816673 0.0962775 0.16584921 0.059569124 0.030403782 -0.033372004
0.044725884 0.050157398 0.038745616 0.06624237 0.017800141 -0.059685666 -0.041436072 0.010075556
0.10746125 -0.025763221 -0.006396028 0.07246623 0.023506874 -0.013150311 0.040883735 0.054378256
-0.013981127 -0.08263764 0.062023345 -0.007789302 0.088787645 0.1417537 -0.031685717 0.013973834
-0.014972637 0.020680998 0.090369314 0.12127372 0.03494132 -0.11292457 0.15072183 -0.019181153
0.08133157 -0.025007688 0.045545653 -0.014914665 -0.043151937 0.05046114 0.029566066 0.15086289
-0.123655416 0.110613376 -0.045397695 0.06255615 -0.0062311757 -0.044909112 -0.0028293654 0.062326983
00000000: 8ed1 a33d d848 6cbc 6f6e 2b3d e05c cb3d
00000010: eb2b 4e3d b359 023e 0583 e03d d2f7 c9ba
00000020: fe08 7fbd 3391 a2bc fc08 3abc 3dc6 eebc
00000030: e4d8 2ebb bd0d aabc afdc ab3d b5b3 acbd
00000040: a35e 9abd ad95 febd cfd4 9a3c 0503 473d
00000050: 736b e4b9 9604 5a3d 7df6 ccb9 6110 2b3d
00000060: 17af a4bc 3882 c7ba cf24 86bb 8502 323d
00000070: d4ad 253e d50f 0e3d b2d8 a83c 30fe 2e3d
00000080: 2df1 383e 2909 82bd e8b1 843d aea5 2d3c
00000090: 7fe7 36bd 2ac9 af3c 1f3d 4e3d 0a65 7ebd
000000a0: da85 503d e2b3 9c3d bce1 67bd 56d6 43bd
000000b0: 3737 4a3d 26bf c63d be73 a5bc 7549 e03d
000000c0: 1c5d 383d 135e 1a3d 9509 1f3d 49f6 adbc
000000d0: 4aa3 d73c c11a eebd 2425 cc3d 4011 993d
000000e0: f266 1abc b836 64be 9084 1ebc 0eb4 77bc
000000f0: bad2 1a3d b9d8 623d 724f 873d ef99 023e
00000100: 3ab9 a93d af67 3f3d 051f 29bc 907e d53d
00000110: 9af0 d73c 9139 88bd 50b0 25bc f6ed 9bbc
00000120: 6242 4a3c 14e7 0a3e d6d7 d3bd 4d63 79bd
00000130: 6104 0b3e 1356 b6bd 865e 9e3d 1093 233e
00000140: d53c 053e ae0f 613d 08b9 12bd a8ed 033e
00000150: d0bd c7bc c67b 323e e8a0 de3d 70b8 f3bd
00000160: 581f 46bd 1d61 8abd 9663 ed3d 1b07 a93c
00000170: fd74 613d 3f07 45bd 95c7 4b3d 829a 623c
00000180: beef b93d 3891 083d 3432 1a3e 77df 24bd
00000190: 0f17 783d af50 823d 2f1a adbd 8320 5b3d
000001a0: 573f e13d e74f c73d 540d 273e 47ab 003d
000001b0: 21ac 133d 7cfd 873e 7651 6f3d dc70 4e3e
000001c0: 2c84 3ebb 00ff 413d 54bc 813c 9f68 95bd
000001d0: 248b 993d 476d 1b3e 5a70 8a3d cf0d ab3d
000001e0: e536 573d 1d30 d83c ec64 f1bd 66f8 f63d
000001f0: afcc b23d 1e22 153e 1ca0 503c 961c a93d
00000200: 0e09 cdbd 937f 8dbc df8e f6bc 891d 2c3d
00000210: fdea fc3c b86e 7fbc bc62 893c 1c6e 713d
00000220: d9b2 3b3d f5f5 6a3d 7062 0dbd 0b02 943c
00000230: 6caf c43d 785e 6ebd aa01 eabd a1e9 cdbd
00000240: 0823 38be 2cd3 903d dee0 a73c a4d1 e23d
00000250: 5c27 383c 97af f9bd 87d9 d93d 64b4 f5bc
00000260: 05a2 773d 41e8 cebd 5b90 a83c f641 493d
00000270: b403 82bd b081 553d d4e2 4c3c b653 f5bb
00000280: 531a 453d 9282 85bc e71a 41bc 527f a23d
00000290: c83d 753d 2209 dcbd 183a b6bc c8bc 3c3d
000002a0: 8b55 213c 8f87 71bd b9fb 9cbd 73c5 0d3e
000002b0: ea3a 583e b8ca 683d 2e73 193e 32fb b8bd
000002c0: 732c d53b 7d2d 703e 087f c4b9 54f7 71bd
000002d0: 24cc bcbd fc4c 9f3d fb7b 8d3c f2d7 0d3e
000002e0: 7914 233d 0d65 a2bd 7402 173d e505 06be
000002f0: 3fa7 dbbd 2e40 c73d b60e 463e 66a3 86bd
00000300: 1807 0a3d a4f8 08be 1de3 323c fbca cebc
00000310: 3158 5ebd 9899 d4bb 276f 653a dc92 e43c
00000320: fc01 cb3d 27f2 02bb d7c2 3f3d 232d c53d
00000330: 60d4 293e c1fe 733d 5a11 f93c 15b1 08bd
00000340: 7d32 373d d871 4d3d b9b3 1e3d 14aa 873d
00000350: 9ad1 913c f578 74bd dfb8 29bd f213 253c
00000360: a514 dc3d 640d d3bc c695 d1bb 2d69 943d
00000370: 7d91 c03c 6774 57bc b475 273d bcbb 5e3d
00000380: 1911 65bc ec3d a9bd 310c 7e3d 673d ffbb
00000390: 4cd6 b53d e227 113e e2c8 01bd 82f2 643c
000003a0: cb4f 75bc 326b a93c 8c13 b93d 5b5e f83d
000003b0: a11e 0f3d ff44 e7bd d356 1a3e cb21 9dbc
000003c0: 2b91 a63d ecdc ccbc 148e 3a3d a45c 74bc
000003d0: 16c0 30bd 57b0 4e3d 8934 f23c cd7b 1a3e
000003e0: 0d3f fdbd 4489 e23d eff2 39bd 701d 803d
000003f0: e42e ccbb 9ef2 37bd e06c 39bb 944a 7f3d

bn1.running_mean f4 [256]
0.71816194 0.81803447 1.0921613 1.184901 0.21058546 0.554028 0.05225643 0.04308437
0.44524217 0.25176865 1.2158531 1.0749999 0.25748587 0.27391326 0.34513187 1.4801381
0.9406957 0.7884215 0.6139778 2.6094005 1.2473623 0.54851377 0.0047010947 0.77966505
1.1861696 0.6442523 0.7279392 0.33359942 0.44968128 3.2012808 1.1993088 0.4435846
1.6711966 0.2762245 1.8037891 0.55869323 0.30184287 0.31546992 1.1579171 1.7970157
1.4969171 1.094888 2.1840138 0.7605708 0.41517675 1.1052517 0.37823808 0.74616617
1.229802 0.58562857 1.0609608 1.1852517 0.019662835 1.6790738 0.21834956 1.2984027
1.0660155 1.042951 0.18239109 1.007013 0.76221067 1.1637094 1.032802 0.561504
0.21067503 2.1735857 1.2770606 0.1617198 0.18522063 0.93014723 0.83569753 0.038255315
0.0021602714 0.66022694 1.7150211 1.6199851 0.94629186 1.0817168 1.0614868 1.4311763
0.1167113 0.3774245 0.07711418 0.79280573 0.3025005 1.2812287 0.29817098 0.30884928
0.3704179 0.53501785 1.011086 0.8133741 1.7856569 1.2300731 0.9456597 1.0110742
0.4162811 0.53208715 1.1882325 0.32503 0.94124055 1.4495797 1.2099915 1.6872321
0.035243135 0.25022718 1.5097841 1.0427289 2.2438219 1.1020428 0.12414092 0.6184427
0.05387028 0.94884604 0.22564486 1.7871107 0.9691236 0.8008701 2.6191103 1.5373799
0.91415775 0.047723133 0.5091072 0.9395059 0.77395487 1.8022758 0.3479408 0.9515437
1.249843 1.2556947 0.47479144 1.5841764 0.97356105 0.06178727 0.45628858 0.03025567
0.15820135 1.0564346 2.1284888 1.1761298 1.286551 0.34369427 2.6536212 2.3252163
1.4280623 0.3218493 0.4875589 1.2226818 0.7193821 1.2201111 0.62687474 1.4616395
1.1432871 1.1403965 0.7115675 0.003615719 2.2843628 1.403088 0.025620325 0.45818856
0.1925329 0.9658588 0.2650594 1.3549432 0.95579916 0.94769526 0.54099274 2.2007086
0.4602853 0.89737177 1.103992 0.34373295 1.0648326 0.058705647 1.7622367 0.260874
0.2181702 1.1166638 2.1961067 1.2680897 0.4419463 0.22294606 1.8945851 1.2884307
0.47560227 0.77944195 0.40409413 0.3154684 0.09710845 0.16938311 1.2818545 0.76306784
1.778203 0.69943637 1.6187809 1.7589791 0.36385515 0.42022023 0.047652278 1.0460279
1.2526481 0.5981453 0.617165 0.102869056 0.418558 0.08324832 0.90041506 1.1792948
0.36216477 0.0007611265 0.30734634 0.5740267 1.4838244 0.19067712 1.6990154 1.4637967
1.0002528 0.4427783 0.037497517 0.33068642 0.48255882 0.46136323 0.24432166 0.4563675
0.73277164 1.734392 1.4692872 0.48262945 0.20423552 1.7037982 1.1601537 0.39693505
0.40111914 2.0353982 0.87098205 1.2805243 1.593125 0.72703767 1.3809632 0.32757798
0.28254843 0.5874684 1.4752274 0.12560083 0.8108425 0.56510466 0.9655764 0.89829916
1.3663161 1.0160557 0.47874546 0.045521665 0.9401082 1.2292825 0.060596075 0.12363557
00000000: 76d9 373f b56a 513f f1cb 8b3f d6aa 973f
00000010: b7a3 573e c7d4 0d3f d70a 563d 3d79 303d
00000020: c8f6 e33e d2e7 803e 13a1 9b3f 9999 893f
00000030: 30d5 833e 5c3e 8c3e 20b5 b03e 2a75 bd3f
00000040: 6fd1 703f fed5 493f a62d 1d3f 6b00 2740
00000050: 91a9 9f3f 666b 0c3f a40b 9a3b 2198 473f
00000060: 68d4 973f b8ed 243f 395a 3a3f 8bcd aa3e
00000070: a03c e63e c9e1 4c40 f382 993f 851d e33e
00000080: c5e9 d53f 4c6d 8d3e 90e2 e63f 8506 0f3f
00000090: 268b 9a3e 4685 a13e a136 943f 9c04 e63f
000000a0: fb9a bf3f 4a25 8c3f e2c6 0b40 c5b4 423f
000000b0: 0c92 d43e e378 8d3f 6ca8 c13e bf04 3f3f
000000c0: 276a 9d3f c1eb 153f 90cd 873f 54b6 973f
000000d0: f413 a13c e4eb d63f 0797 5f3e 0f32 a63f
000000e0: 3273 883f 6b7f 853f bbc4 3a3e cde5 803f
000000f0: 3d20 433f 6ef4 943f db32 843f babe 0f3f
00000100: 32bb 573e 071c 0b40 b976 a33f e099 253e
00000110: 7aaa 3d3e 211e 6e3f 46f0 553f 9bb1 1c3d
00000120: 5793 0d3b a204 293f d085 db3f ac5b cf3f
00000130: 2f40 723f b275 8a3f cdde 873f c930 b73f
00000140: 5606 ef3d c93d c13e 0aee 9d3d 51f5 4a3f
00000150: 58e1 9a3e 4dff a33f dea9 983e 7e21 9e3e
00000160: 6aa7 bd3e eef6 083f 446b 813f 4939 503f
00000170: 6890 e43f 0973 9d3f c116 723f e16a 813f
00000180: cc22 d53e dd36 083f 0118 983f 556a a63e
00000190: 24f5 703f d48b b93f 00e1 9a3f 39f7 d73f
000001a0: 1b5b 103d c71d 803e 9b40 c13f 2478 853f
000001b0: c79a 0f40 bd0f 8d3f 983d fe3d 4352 1e3f
000001c0: 15a7 5c3d 93e7 723f 720f 673e 0bc0 e43f
000001d0: 7c18 783f d305 4d3f 819f 2740 ddc8 c43f
000001e0: 3e06 6a3f 5579 433d d954 023f 7583 703f
000001f0: e821 463f f9b0 e63f 4c25 b23e 5e98 733f
00000200: dbfa 9f3f 9bba a03f dd17 f33e 4bc6 ca3f
00000210: 4c3b 793f a614 7d3d a89e e93e bdda f73c
00000220: 89ff 213e 4039 873f 2939 0840 6c8b 963f
00000230: b4ad a43f b2f8 af3e eed4 2940 58d0 1440
00000240: bfca b63f 6ec9 a43e 52a1 f93e d680 9c3f
00000250: 6d29 383f 9a2c 9c3f dd7a 203f 0117 bb3f
00000260: 3b57 923f 83f8 913f 4a29 363f b3f5 6c3b
00000270: 0033 1240 6398 b33f b7e1 d13c b197 ea3e
00000280: 5827 453e 8642 773f deb5 873e c76e ad3f
00000290: 41af 743f 289c 723f 807e 0a3f 69d8 0c40
000002a0: 84aa eb3e 28ba 653f 9c4f 8d3f c4fd af3e
000002b0: 6f4c 883f 5575 703d f990 e13f 4791 853e
000002c0: 0268 5f3e d7ee 8e3f 038d 0c40 c350 a23f
000002d0: c946 e23e f94b 643e c481 f23f 4ceb a43f
000002e0: 2482 f33e 8289 473f 6de5 ce3e 1385 a13e
000002f0: cce0 c63d c472 2d3e cf13 a43f 6a58 433f
00000300: 289c e33f 430e 333f 3634 cf3f 3a26 e13f
00000310: 394b ba3e 1b27 d73e 092f 433d 3ee4 853f
00000320: c656 a03f 0d20 193f 87fe 1d3f 03ad d23d
00000330: 3c4d d63e 187e aa3d 9a81 663f 22f3 963f
00000340: a96d b93e 5686 473a 805c 9d3e 6af3 123f
00000350: f5ed bd3f dd40 433e 5679 d93f b15d bb3f
00000360: 4908 803f d6b3 e23e ff96 193d bb4f a93e
00000370: f311 f73e cd37 ec3e 752f 7a3e 00a9 e93e
00000380: ec96 3b3f 8f00 de3f 9a11 bc3f 351b f73e
00000390: 1e23 513e 0f16 da3f eb7f 943f 123b cb3e
000003a0: 7d5f cd3e f743 0240 aef8 5e3f 38e8 a33f
000003b0: 85eb cb3f 241f 3a3f 67c3 b03f 4db8 a73e
000003c0: 30aa 903e 5464 163f 40d4 bc3f 819d 003e
000003d0: 6093 4f3f b3aa 103f 0430 773f eff6 653f
000003e0: 72e3 ae3f 1d0e 823f 201e f53e ed74 3a3d
000003f0: eeaa 703f 2159 9d3f 9733 783d a534 fd3d
