DRLND/P3_Collab_Compet/checkpoint_actor1.pth (torch_old, 300961 bytes, 14 tensors)

fc1.weight f4 [256, 24]
00000000: 9ff3 49bd efde e23d b9a2 d73c 84b8 6c3d
00000010: 6c70 ab3c 4aed 29be 4378 4fbc 719d 3f3d
00000020: e855 75bb c4a6 2c3e 313b b2ba f30d b83c
00000030: 83c0 353d 5f78 60bd 7269 babb b8f0 a33d
00000040: 6328 8ebd ce99 033e 9f96 d73b 9192 f0bc
00000050: 6918 dc3c 0201 d0b9 2fed 6c3b f3be a03c
00000060: b18a 143e 8d43 893d 6508 843b 624c a0bc
00000070: d023 093d 8719 41be d5b5 e33b b3c2 49bd
00000080: bdff e43d ef2a 573d ac07 d0bb 04f7 513c
00000090: d046 943c 86d0 3cbe 20a2 60bc 32f2 62bd
000000a0: dadf 8e3d 8e89 863c 86b7 d7bb a47d fbbc
000000b0: c638 87bd 008c 52bd 813e c5ba 79dd ccbc
000000c0: 2014 1e3d bf1d 613d 8f47 413d 1a62 913c
000000d0: 6a58 a63d 3003 49bc 174d 65bd 3f91 463d
000000e0: 2ae7 ce3d 3ec5 ab3d 99b1 0e3d 7108 96bd
000000f0: 1012 053d fac2 c5bc 3ae7 90bd 7c03 b7bb
00000100: b2ad 283d 8fee 013d 74ae 1dbd bff8 dabd
00000110: 36be 99bd c921 cc3c 7ed6 103d 10a6 bebc
00000120: 202a bb3c d45c 253d 1734 d43c 8a56 0e3d
00000130: 59b3 c33d 8dc2 943c 03f9 f7bc b4bd b03d
00000140: 3d20 183c 7286 0f3e 4b9b 29bc d858 fb3c
00000150: b300 ae3d 590b 8ebc 62ea 743d d108 993d
00000160: a501 0dbc 67f2 203e 970b 123b 8bdb 5b3d
00000170: 03ec e53c 536f 2a3b 9c8c 8fbc 2d26 92bb
00000180: 9be2 e1bb aab3 033a c79f 59bb dd7b 913c
00000190: 4b36 ef3c 3c38 543c b8bc f53b 67ce d3bc
000001a0: f998 913d 3d69 9ebd 155c cdbc 6738 623d
000001b0: b446 ab3d 2f6e a7bd 6ec5 033c 6fa6 253d
000001c0: 046a c03d 50e6 2c3c 952b 24bc 00e0 683d
000001d0: 1788 903d cdab 0cbd 9e51 92bb fa8f 353b
000001e0: 4c21 be3a 8fd8 fbbc ee31 56bb 046b 583b
000001f0: e9f1 233d 5b23 1cbd 3ecf 523d 0d9d c93c
00000200: 741f 5d3d 779f 96bd 82fc cdbc 2f9d 463d
00000210: 4a31 22bc 2583 003a b43b c0bd 17e7 323d
00000220: 9e8f 43bc 6483 0c3d 207a 923c 9f11 8fbc
00000230: c218 a8bd 5966 283d 68a9 d9bc fde2 89bc
00000240: b69c 903c 6ff8 04bd f856 1d3d c199 f93c
00000250: c2a4 0abd ce24 273c 4ed0 e53b 9364 b53d
00000260: 324a ce3c e1aa 463d 6fcf 393b a97c c53d
00000270: 59f1 243b 34f1 debd c7ee 073d 3d97 47bc
00000280: cc83 e8bc dbd4 58ba db78 363c d98e c23c
00000290: 02c5 aebd dec7 e83d 587b 953a 65ae 3a3d
000002a0: 859f 973d bc0c 4c3d 1fb8 2dbc d958 19bb
000002b0: 6f09 813c 8cbb f9bc edd9 913c f075 a0bd
000002c0: 4cc5 bc3d 8386 8b3d 8bae 5aba 1e5a a63c
000002d0: 2e50 b5bc 8b9c e0bd 4350 10bb 2b2e 283d
000002e0: cbb9 543d 08d3 b3bc 2c62 92bd 879e 67bc
000002f0: 5cc6 023d 3cda 4bbd 969f 333c 0dd4 cb3d
00000300: 68a5 68bd 3c88 93bc 04b3 703c efcd 3c3c
00000310: c64a 633d 1967 9ebd c967 69bc 2d34 303b
00000320: dbb8 cabc 1866 4dbd 1c9d 8ebb f08f 133b
00000330: b401 7abd 7679 a2bd 54d6 3dbc 6cc6 da3c
00000340: 19c7 9a3d 92c0 2239 edea 803d 3dd0 2fbd
00000350: f79b fdbd 498f 07bd 8f2d ddbc 8aad e53b
00000360: 2bb4 863c b32d 993d eea8 dcbc 8f54 dabc
00000370: 7bd8 dc3c a381 8d3c 338a 9dbd a474 93bd
00000380: f9b3 cf3d 085b 4c3d 3530 8cbb 5f57 863d
00000390: aea3 493d 8c6f f1bc 887a 2abd 8c5a 9a3b
000003a0: 0b6c 4e3d 231a 843d 49e9 8bbc 5bfa dcbc
000003b0: bae0 aa3c 2c23 66bd be6f 52bc 6cc4 52bd
000003c0: 4405 4f3c efff cfbc 71d1 11bd 54b2 54bd
000003d0: 291a 4d3d c334 95bd e644 7dba f192 76bc
000003e0: 6736 b1bd fc26 0f3b d61e c0bc df9e 24bd
000003f0: 7291 8f3c 888e 73bd 4519 4c3d 49aa 333c
-0.0493046 0.110776775 0.02632271 0.057793155 0.02092763 -0.16594425 -0.01266295 0.046781007
-0.0037435237 0.16860491 -0.0013597963 0.022467589 0.044373047 -0.054802295 -0.0056888396 0.08004898
-0.06941297 0.1285164 0.0065792347 -0.029366763 0.026867108 -0.00039673602 0.0036152115 0.019622302
0.14506032 0.067023374 0.004029321 -0.019567672 0.03348142 -0.18857394 0.0069491663 -0.049257945
0.11181591 0.05253118 -0.006348571 0.012815241 0.018100172 -0.1843892 -0.013710529 -0.055406757
0.0697629 0.016423013 -0.006583157 -0.030699559 -0.066026255 -0.051403046 -0.0015048535 -0.02500795
0.03859341 0.05496001 0.047187384 0.017746974 0.081223324 -0.012268826 -0.05598172 0.04847836
0.10102685 0.0838723 0.03483734 -0.07325829 0.03248793 -0.024140824 -0.07075353 -0.005585132
0.041181274 0.031721648 -0.03849645 -0.10691976 -0.07506983 0.024918454 0.035360806 -0.023272544
0.022847235 0.04037173 0.025903745 0.0347505 0.09555692 0.018159175 -0.030270105 0.08629933
0.00928503 0.1401613 -0.010351966 0.030682012 0.08496227 -0.017339395 0.059793837 0.07472385
-0.008606349 0.15717469 0.002228474 0.05367617 0.02806664 0.0026006296 -0.017523102 -0.0044601173
-0.0068934686 0.00050240254 -0.0033206807 0.017759258 0.029200694 0.01295286 0.0074993037 -0.025855256
0.07109255 -0.07734916 -0.025068322 0.05522957 0.08363095 -0.08175313 0.008042676 0.040441927
0.09395221 0.010552958 -0.010020156 0.056854248 0.07057207 -0.03434353 -0.004465296 0.0027704225
0.0014505773 -0.030742912 -0.003268357 0.003302277 0.040025625 -0.038119655 0.051467173 0.02461102
0.053985074 -0.07354634 -0.02514482 0.048489746 -0.009899447 0.00049023546 -0.093863875 0.043677416
-0.0119360965 0.03430499 0.0178805 -0.017464457 -0.08207847 0.04111323 -0.026570037 -0.01683187
0.01765285 -0.032463487 0.038413018 0.030468823 -0.03384853 0.010201646 0.0070133572 0.08857074
0.025181863 0.048502807 0.00283524 0.09642918 0.0025168268 -0.108858496 0.0331867 -0.012182054
-0.028383158 -0.0008271464 0.011137213 0.023749756 -0.0853367 0.11366247 0.0011404557 0.04557647
0.07403473 0.049816832 -0.01060298 -0.0023398905 0.015751569 -0.030484937 0.01780411 -0.07834995
0.09217319 0.068127654 -0.0008342049 0.020306643 -0.02213296 -0.10967358 -0.0022020496 0.041059654
0.051935 -0.021951213 -0.07147631 -0.014136917 0.03192745 -0.04976867 0.010963341 0.09952555
-0.05679837 -0.018009298 0.014691118 0.011523708 0.05549123 -0.07734508 -0.014245936 0.0026886568
-0.02474635 -0.050146192 -0.004352225 0.0022516213 -0.06103678 -0.07933323 -0.011586744 0.026705943
0.07557506 0.00015521262 0.062948085 -0.0429232 -0.123832636 -0.03309563 -0.026999263 0.007009213
0.016443333 0.074794196 -0.02693602 -0.026651649 0.026958695 0.01727373 -0.07692375 -0.07199982
0.10141749 0.0498915 -0.0042782077 0.065596335 0.049228363 -0.029472135 -0.04162076 0.004710501
0.050396007 0.06450298 -0.017079012 -0.026974848 0.020859111 -0.056185886 -0.012844024 -0.051456854
0.012635533 -0.025390593 -0.03560013 -0.05192788 0.050073776 -0.07285454 -0.0009661451 -0.015049682
-0.086529545 0.0021843305 -0.023452204 -0.040190574 0.017525408 -0.0594621 0.049828786 0.010965892

fc1.bias f4 [256]
00000000: c407 e0bd 755c 8a3d 6add fa3c 2906 c13d
00000010: 0418 33bd 7ebc 34be ef34 76be 2d45 42bd
00000020: 6fdd 8ebe 5700 6dbe 4531 ec3d 18f9 dabd
00000030: 4ce0 ea3d a189 55be 3232 ac3b 7a43 e33d
00000040: cc95 ae3c 1fd8 4b3b 06a3 65be 8763 e7bd
00000050: ec59 cd3d 5366 80be e26b 2fbd efd3 2ebe
00000060: df31 63bd 016d 3cbe d192 d93c be53 b43d
00000070: 1654 55be e63c 02be 8dc9 17bc 2f7a 0fbe
00000080: 022d 90bd 2c5e e83c e5d8 b1be 6fa9 d43d
00000090: dcf8 8dbe 279c 573e 8ea6 28be a533 f53b
000000a0: a3a1 18be c026 83be b707 b03c 551e 59be
000000b0: 206a b6bd 6a34 e9bd 4849 40bd 9652 6abe
000000c0: a89c 203e c6e6 033e caf2 10be 2c6e d13d
000000d0: 752c 30be af1d 49be 252b eabb b88a 43be
000000e0: 6a7f 9e3d 8870 febd d779 7cbe a020 9f3d
000000f0: 459d 563d 4306 5bbd 1ef2 93bd 7a4f 66be
00000100: f1b8 f2ba 98ec f6bc 9f6f 35bd a4ab cd3d
00000110: d634 5cbe 0d12 1fbe 5455 1bbe 93a8 86be
00000120: 1a67 75be 374f d3bd fcdf c4bc 3b7c 593d
00000130: 8481 cf3d a54c e43d 1603 833d c217 23bd
00000140: fd02 c23c ba90 14be cffb 7ebe e388 50be
00000150: 8841 ce3d 2476 2abe b9cb 33be 43f3 80bd
00000160: 640b e4bd 191e 753d 4058 b4bd 25af 4b3d
00000170: fce5 58be 9712 0c3d 442a a0be f756 40be
00000180: 4963 883d 352d 40be 7de3 323d 8d97 3d3c
00000190: 91c8 283e 0209 82bd 73b1 1abd aba0 df3d
000001a0: cf8d 9dbd e9be d33d 2e10 4a3c ed4a 7e3d
000001b0: 1e42 4d3d a62f b4bd d206 f0bd 6da0 4cbe
000001c0: 8726 8cbe 51f2 68be 0b53 99bd dd29 123e
000001d0: 0c39 583e 7965 85be 47c1 69be 2167 9a3d
000001e0: f895 0ebe 0c18 d7bc 1b74 1d3d 812a 053e
000001f0: 8cbc 533c 9588 033d b474 80bb f014 583c
00000200: 7ddc a6bc 8cbf 87be a6da 91be a2a4 a73d
00000210: f5cc 4dbe 488b 2c3e f4cf aa3d e1b3 283e
00000220: 6956 b33c 0a2d be3d 1c88 cebd 2bcd 863d
00000230: 89db 4ebd 224a 4cbe 3608 833d 940d f1bc
00000240: 5bcb c93d 4649 14be 54ac 99bd 2a92 43be
00000250: 823e a33c 3823 ab3d 2bd9 e53c e66c 383e
00000260: 8673 f33d 92a8 88be 79f2 eb3d 243c 133c
00000270: 034e 3b3d bc58 4fbc 7401 01be 4c21 c93d
00000280: d204 07be d97a c3bd b46f d0bd 0471 eebd
00000290: 6f65 f9bd 15b7 de3d 1721 cabd 9d8d f5bc
000002a0: fdfc 013d f12a 533e 6e1a e6bc 2f6a cdbd
000002b0: d63c 4dbe a7f5 91be c1ec 81be e7e8 20be
000002c0: 4200 97bd b71f cf3d 621c 36be ccee e93d
000002d0: 897b ccbd a19d aa3d 7a1d cc3d 8d5b 413d
000002e0: 3f9c e43d cab0 07be bab3 89be cc9a 29be
000002f0: f5fb c33d 565a de3d a0dc fe3d 2dc8 21bd
00000300: e0a7 94bd a3e2 6fbe c9c7 7c3e b6c3 72be
00000310: 0ecc 3abe 1764 c53d 2e72 a13d d9f2 4a3c
00000320: d597 3dbd ddf3 b33b 697a 0bbe ac06 01be
00000330: 1892 5a3e 802f 3e3e fafd 21be 2f74 c0bc
00000340: 5365 debc 79d3 5abe 180a 833b a674 e2bd
00000350: 1fcd be3d 5219 57bc b813 37bd f1b8 dbbd
00000360: c44b a93d b6fa 8a3d 07e1 9d3d 2085 81bc
00000370: c921 17bc 2186 ab3d fc5b 243d a50e 93bc
00000380: 416d 49bd fe64 17be e72b 813c b7ee 36be
00000390: 3226 3ebd 5bb8 4abe 92d3 403e d668 ec3d
000003a0: 0ec8 19be f1ae a4bd fa1b 983c 5a70 e2bb
000003b0: 6f2c 9dbd badd d8bc 0b31 07bd 14f8 abbc
000003c0: 1a53 12be c4b9 e6bd e98e 503b 100e d2bd
000003d0: 2d66 c4bd 0ec7 223e 2aa8 343d f2f8 10be
000003e0: 8695 5fbd 2347 33be ffb0 7dbd d559 5ebe
000003f0: 5f35 dd3b f673 0e3e 6d14 3dbe 6157 903d
-0.10938981 0.06755916 0.030623157 0.09425003 -0.043724075 -0.17650029 -0.2404363 -0.047429252
-0.27903315 -0.23144661 0.11532835 -0.10692042 0.114685625 -0.20853283 0.005255007 0.110968545
0.021311663 0.003110416 -0.2242547 -0.1129828 0.10026917 -0.25078067 -0.042827494 -0.17073034
-0.055467483 -0.18400957 0.026559265 0.08805035 -0.20832857 -0.12718543 -0.009264362 -0.14011453
-0.070398346 0.028365217 -0.3473579 0.103838794 -0.27728927 0.21055661 -0.16469786 0.007482963
-0.1490541 -0.256155 0.021488054 -0.21202977 -0.089069605 -0.1138695 -0.046944886 -0.22883067
0.1568476 0.12881002 -0.14155117 0.10226092 -0.17204459 -0.1964023 -0.0071462565 -0.19095886
0.07739146 -0.124238074 -0.24655853 0.077698946 0.052396078 -0.05347277 -0.072239146 -0.22491255
-0.0018518252 -0.030142114 -0.044295903 0.100425035 -0.2150453 -0.1553423 -0.15169269 -0.26300487
-0.23965111 -0.103178434 -0.024032585 0.05309699 0.10132125 0.11147431 0.06397073 -0.03981758
0.023683066 -0.14508334 -0.24900745 -0.20364718 0.10071093 -0.1664663 -0.17558183 -0.062963985
-0.11134985 0.059843156 -0.08805895 0.049727578 -0.21181482 0.034197416 -0.31282246 -0.18783174
0.06659562 -0.18767245 0.04367398 0.011571777 0.1648276 -0.06349374 -0.037766885 0.10919317
-0.076930635 0.103391476 0.012332959 0.062083174 0.050111882 -0.08798151 -0.11720051 -0.19983073
-0.27373144 -0.22748686 -0.07486542 0.14273782 0.21115512 -0.2605398 -0.22827636 0.075392015
-0.13924396 -0.026256584 0.038440805 0.13004495 0.012923371 0.032112677 -0.003920162 0.013188586
-0.020368809 -0.26513326 -0.28487128 0.08185698 -0.20097716 0.16850007 0.08340445 0.16474868
0.02189179 0.09285934 -0.100845546 0.065821014 -0.050502334 -0.19950154 0.063980505 -0.02942542
0.0985324 -0.14481077 -0.07503572 -0.19098726 0.019927267 0.08356327 0.028057655 0.18010291
0.11887269 -0.2669111 0.11520857 0.008986507 0.045728695 -0.012655433 -0.1259821 0.09820804
-0.13185433 -0.09544916 -0.10177556 -0.1164265 -0.1217755 0.10874764 -0.09869593 -0.029974753
0.03173541 0.2062185 -0.028088775 -0.100300185 -0.20042738 -0.2850773 -0.2537594 -0.15713845
-0.07373096 0.10113471 -0.17784265 0.114225 -0.099845 0.083308466 0.0996656 0.04720645
0.11162614 -0.13251033 -0.26894933 -0.16562957 0.09569541 0.10857074 0.12444425 -0.039497543
-0.07258582 -0.23426299 0.24685587 -0.2370747 -0.18241903 0.09638231 0.07883106 0.012387001
-0.046287376 0.0054917173 -0.13620915 -0.12600201 0.21344793 0.18572807 -0.1581954 -0.0234929
-0.027147925 -0.21369733 0.003999006 -0.11057405 0.093164675 -0.013128595 -0.04469654 -0.10728634
0.08266404 0.067861006 0.07708936 -0.01581055 -0.009224364 0.083751924 0.040126786 -0.017951319
-0.04917646 -0.14784619 0.015768005 -0.178645 -0.046423145 -0.19796889 0.18830708 0.11543433
-0.15017721 -0.0804118 0.018568028 -0.006910366 -0.07674491 -0.026472915 -0.033005755 -0.020992316
-0.14289513 -0.11265901 0.0031823462 -0.102565885 -0.09589801 0.15896246 0.044105686 -0.14157465
-0.054585956 -0.17507605 -0.061936375 -0.21713956 0.006750747 0.13911423 -0.18464823 0.07047916

fc2.weight f4 [256, 256]
00000000: c278 2f3d 7755 62bd ed35 833d eab6 c63d
00000010: 1f56 58bc 346a d03d f5b6 2ebd 868b 023e
00000020: fa3b 87bc a426 0cbd 7b00 7e3c bfcb 21be
00000030: 52b9 f1bd d73b 273e f04f 0e3c 954d 6abd
00000040: 23a1 c03b d462 07be 7d26 d0bd ad6a 03be
00000050: 0a75 abbc d0b1 763c 1575 803d 7619 773b
00000060: 0b90 b13c 47db 103e b5a2 64bd 738c 30bc
00000070: dbd1 c03c 56bf e0bd 12a9 2dbd 0e9a 233e
00000080: 49dc b43a 37f7 7f3d 0cc9 e4bc d98d 18bd
00000090: 8aad 273d 3962 0a3e 5faa afbc a8d3 80bc
000000a0: 22d8 5c3d 68b2 49be 5a18 d9bc 7ef0 923d
000000b0: 9757 a1bd 1407 4d3d b0a4 ff3c 5693 833e
000000c0: 730d 5dbc 2549 bfbd 6d3b 973d 3fea 2f3d
000000d0: 461e 4c3d d447 db3b a683 10be 82ff 7d3d
000000e0: b72f c2bd 176c c7bb 2eb3 9abd 5212 49bb
000000f0: 6ae0 17be f609 dabd 21b8 37be 73df d3bd
00000100: 6007 173d 7ef1 953d d763 94bc 0ea6 ffba
00000110: 0168 983d 96a7 283d 0617 0fbe 0f97 ea3c
00000120: 47e4 2abd 6325 53bd 3c08 b9bd f765 8d3c
00000130: b9c0 353c 93d1 adbd 8632 d53d 1cbf 8dbd
00000140: 783b 0abe 1636 e53d f62e 1ebe 965a cfbd
00000150: 399f 4e3c 37cd 65bc c6af 17bd 4553 2abe
00000160: b2b7 663d 7a0b 9bbd 7a99 41bc 102e bdbd
00000170: fb70 303e 4605 9dbd 33c8 bdbd 6791 a23d
00000180: a6a4 a9bc 3845 123d 698d f7bc f7b4 34be
00000190: a8e5 8e3c f3fa 84bd 9ace dd3d bb3f 2a3d
000001a0: 65ea 2dbd 1c8b 053d ede0 593d ee6e 4a3d
000001b0: afcb 3ebd db6c 10bb 9c8e e6bd 543c 283d
000001c0: 3ca3 88bd a814 11ba 7b4c 9e3d 47fa 813d
000001d0: a7ea e0bd 8c31 fa3c 7d29 7dbc 0521 24bd
000001e0: 4167 513d e81c 7c3b 45d6 763d 74bd 063e
000001f0: b114 44bc 7ca6 5d3d b2cf 38be a8a6 273d
00000200: 02c0 a23d 91ca 0fbd f542 a83d 536a 88bd
00000210: e3ac 2bbe 35e8 86ba 0c27 9bbd bc9e 80bd
00000220: 6be3 19bc d25e 40bb a016 103d f1f0 ab3c
00000230: 9602 0c3d b709 9bbd e475 fe3d 744e e03d
00000240: bcb3 e7bd 948a c0bc cfa4 373d 5bef 40bd
00000250: 9dd4 923d 6cd9 813c 5835 033c f41f 843c
00000260: f8a4 9cbb cf77 83bd f858 9cbd 3d38 c23d
00000270: 82dd 1b3d e5b9 b3bd 075c e3bc 8989 30bd
00000280: e8e7 a43d 2d18 0f3c 77cd 5c3d 473d be3d
00000290: 9d1a 9f3c e750 99bd 683f 2ebd 2c6f e9bd
000002a0: b036 25bd 34e1 e0bd 8293 443e 3e9b 9cbd
000002b0: 6770 8cbd 4e88 45bb 3123 c33d 4461 d93c
000002c0: 30d3 fd3b 6203 c13d df62 3fbe 916e 2bbd
000002d0: 89b7 183e 5628 b3bd 61e5 b93c cc57 f7bd
000002e0: 11e6 ddbd 9d86 3e3e 867d d5bd 9066 87bd
000002f0: a721 2dbd e061 54bd 2410 203d 41e7 4bbd
00000300: a45c 153d 6290 a33d f8f5 14bd 72c8 b13c
00000310: 3536 6fbd 4595 353e 121e 083d a51a 543d
00000320: 0a01 ff3d cddf 213d 8eea 5dbd cc5e 3e3d
00000330: 7bc1 11bd 5127 4abd d393 95bd 6079 28bd
00000340: eee3 503e 4a9e d2bd eb10 8fbd f2f1 63bd
00000350: ae3a 17be c323 8d3d 0d43 083d 1451 69bd
00000360: ebbb 94bd 4620 2ebe a27a 8dbd 05ac c6bd
00000370: 263e 49bd 5c13 b03d 191d 783d bf3b c03d
00000380: 8d13 49bc ae39 9b3d 391f 25be a90e aabd
00000390: 1a3c 103c 3acd 26be 8b81 21b9 f86b 0b3d
000003a0: 89b0 dc3d 154c 353d 26cb 00bc 91ca 64bd
000003b0: 7ae4 44be 3eaa 883d f2cc 40bd a3c4 99bd
000003c0: 1634 6ebd a8ac 143e 38f9 febc 74be 8ebd
000003d0: 44c5 a5bb 1041 ffbc dab9 343e b8ff b73c
000003e0: ba30 8b3d 899d 1ebd cbbb ec3c 9a8c adbb
000003f0: 5928 033e 37e6 6a3d 4f75 c33d 69e2 1b3c
0.042839773 -0.055257287 0.0640677 0.09702857 -0.013204127 0.10176507 -0.04265495 0.12748536
-0.016508091 -0.034216538 0.015503044 -0.15800379 -0.11802925 0.16331421 0.008686051 -0.057202894
0.005878584 -0.13221294 -0.10163591 -0.12833662 -0.020929832 0.015057042 0.062723316 0.0037704385
0.02167513 0.14146148 -0.055819232 -0.010775673 0.023537567 -0.109739944 -0.042397566 0.15976736
0.001379856 0.06249162 -0.027927898 -0.03724465 0.040936984 0.13514031 -0.021443544 -0.015725926
0.053917058 -0.19696963 -0.02650087 0.071747765 -0.078780346 0.05005558 0.031206459 0.25698346
-0.013491976 -0.09340123 0.073843814 0.042948004 0.04983356 0.006691912 -0.1411272 0.06201125
-0.09481757 -0.0060858834 -0.07553707 -0.0030681086 -0.14831701 -0.10646431 -0.17941333 -0.10345354
0.036872268 0.073214516 -0.018114014 -0.0019504444 0.07441712 0.041175447 -0.13973626 0.028636483
-0.04172161 -0.051549327 -0.09034774 0.017260535 0.011093312 -0.08487239 0.10410027 -0.06921217
-0.13499248 0.11191957 -0.15447602 -0.101247 0.012611204 -0.014025978 -0.037032865 -0.16633327
0.05632753 -0.07570548 -0.011816377 -0.09237301 0.17230599 -0.076670215 -0.092667006 0.079378895
-0.020708393 0.035710543 -0.030218797 -0.17647158 0.017443493 -0.06493177 0.10830422 0.041564684
-0.042459864 0.03260337 0.05319302 0.049422197 -0.046580967 -0.002203754 -0.11257669 0.04107316
-0.066717595 -0.0005534389 0.07729431 0.06346565 -0.109822564 0.030541204 -0.015451786 -0.040070552
0.05112386 0.0038469378 0.060262937 0.13158208 -0.011967824 0.05411385 -0.1804798 0.04093042
0.07946779 -0.03510529 0.08215896 -0.06660905 -0.1676517 -0.0010292592 -0.07575807 -0.06280276
-0.0093926 -0.0029353392 0.035177827 0.020988913 0.034182154 -0.07570212 0.124248296 0.10952464
-0.113135785 -0.02350358 0.044834908 -0.047103267 0.07169459 0.015850745 0.008008324 0.016128518
-0.004780408 -0.06419336 -0.07634157 0.09483383 0.038053043 -0.08775691 -0.027753843 -0.043099914
0.08052045 0.008733791 0.053906884 0.092890315 0.01942187 -0.07486134 -0.042540938 -0.113981575
-0.040335357 -0.10980454 0.19196895 -0.076467976 -0.068573765 -0.0030141058 0.095281966 0.026535638
0.007746123 0.09424473 -0.1869006 -0.04185349 0.14913763 -0.08747928 0.022692384 -0.12077293
-0.10834897 0.18606038 -0.10424332 -0.06611359 -0.04226842 -0.051851153 0.039077893 -0.049781088
0.036465302 0.07986523 -0.036367387 0.021702025 -0.058401305 0.17732723 0.033231802 0.051783223
0.1245137 0.039520074 -0.054178767 0.046477124 -0.035584908 -0.0493539 -0.07303586 -0.041131377
0.20399448 -0.102840975 -0.06985649 -0.05565066 -0.14768478 0.06891587 0.03326707 -0.056962088
-0.07262405 -0.17004499 -0.06908156 -0.09700779 -0.049131535 0.085974425 0.060574625 0.09386396
-0.012272728 0.07579361 -0.16125192 -0.083035775 0.008803392 -0.16289225 -0.00015402415 0.034038514
0.10775859 0.04426201 -0.007860934 -0.055857245 -0.19227782 0.06673096 -0.04707045 -0.075082086
-0.05815514 0.14518988 -0.031124696 -0.0696992 -0.0050589163 -0.031158954 0.17649022 0.022460803
0.06796403 -0.038724456 0.02889814 -0.005296302 0.1280836 0.057348456 0.09543859 0.00951443

fc2.bias f4 [256]
00000000: 3ec4 b73d 9102 b63d f3af 243d 5e82 2a3d
00000010: 0eb8 26bd 7d04 88bb c214 cd3d 35d0 0a3c
00000020: e134 ac3b d72c 4abc 7fb9 41bc df24 533d
00000030: 0108 103e 9b22 e03d 2ab2 973c fd62 7d3b
00000040: bc7f 3d3d 43c7 963c d133 8b3d b19e f73d
00000050: badc 963d 7ae5 cb3c a97f 80bc d4d7 193d
00000060: 8412 e33d 6c2b 8b3d 4c48 e8bc 9dd7 923b
00000070: f746 8d3d 4fef b5bb 09d4 6f3d 607b 1abc
00000080: ce92 4b3d 2a9e 723d d2e0 ea3c 5456 993d
00000090: 8d66 873d c6b3 b63d d5bd 19bc faf1 703d
000000a0: 5da3 333d 29de 1bbd 74e5 aa3d c9a2 513c
000000b0: 5c59 0abc a5c8 613d 527d 1d3a cbe9 e03d
000000c0: 92de 4a3d ba73 a63d d2fc b13d a369 d53c
000000d0: 4292 a43c acb8 7d3c 4885 bb3d 5f78 973d
000000e0: de89 60bc 4dd5 21bc 3c46 b13a a52e 2c3c
000000f0: f96d 573d 3228 f23d 9032 443c 2071 803d
00000100: 4197 2e3d d386 553d 7794 4a3c 580c 6a3d
00000110: e961 753d d80c 6a3d 40cb 9b3d 32d3 023e
00000120: 4e59 2bbc 8f33 273d 9a16 f7bc 1e87 c63d
00000130: ede5 c43d cfde 833d 6f01 463d af31 7bbc
00000140: 6bab f83c dcb9 233d 250f 6dbc b76d 613c
00000150: 256c 0c3d eac7 b03d a9cc 00bd 49e3 f23a
00000160: b956 013d 8351 5b3d 661d 2ebd fcb1 b13c
00000170: de17 39bd 0931 e03d 0d1a 853c 0412 8dbd
00000180: c86a edbc 73de 09bd c508 3f3d 9dca acbd
00000190: 7b3c 853d d03d 0f3d 70bb 0e3c 585a 00bd
000001a0: f58d b93c c5d8 7b3d 70f0 3bbc 73c9 38bc
000001b0: 2261 c83d d0fe da3b b37f 0c3c 6c0f b33d
000001c0: d3fd 0a3e e783 1cbd 23ad 263d 3ab9 503d
000001d0: f4be f63c 1ffd d83b bc29 fc3d 50f9 da3d
000001e0: 927b cc3d 1f4e 983d 52ba 323d 5bfc bf3b
000001f0: ceaf 6b3d 137d 0a3d 55ff 063d 9492 0a3b
00000200: ad99 ba3c ab4a a0bc f8fc 623c 84a0 e83d
00000210: 40ee 543d 6abd b6ba 4270 f43c 892f 613d
00000220: 7064 603d ea69 4a3c d743 403d d101 8b3d
00000230: 966a 73bc 39ac aa3b 61d1 4b3d 13fe 503d
00000240: 3d78 873d 4758 633d d399 8b3d d0f6 21bb
00000250: 6de7 473c c0cc e33d f117 583d 7d6a f53c
00000260: c292 f7bc efad 66bd b597 7c3d ed2b dc3d
00000270: baa4 feba c4d3 543d a047 d63d 39a2 763c
00000280: 3be5 413d 39ce bb3d 5329 8e3d 0ca8 4d3d
00000290: f595 de3c 6e1b e93c 2839 d73d 5152 a33d
000002a0: 18d2 ee3d 6e51 c83d 07b8 faba f6af a93d
000002b0: c49f 123d c61e 6c3d cb62 273c 3dee 0a3c
000002c0: c615 e73c 6dd8 993c 71e0 723d 8ca9 a23d
000002d0: 0518 123d 399a 853d 3c89 503d 4f51 a33d
000002e0: 58d3 e93d 46f3 983d d364 483d f14d 733c
000002f0: 3c9c d43d f1dc eb3d a46e c03c 8d78 a13d
00000300: 2656 603d ee23 c2bb f118 473d f31b 013d
00000310: 87e0 c53d cad2 163d a3ec 7b3d b4f0 c13d
00000320: d950 013c 5b21 a03c f697 933d 83df ba3d
00000330: 9eee 603d b7ea 14bc 23a3 213d 2619 113d
00000340: b5b1 a63c 3a89 123e 95fa 8d3d ac25 953c
00000350: 6dbb 693b 1c01 673d 0959 2a3c 76ce 703c
00000360: 301b c13c 94f5 34bd 6aaf 0d3e fa38 003d
00000370: c102 8e3d c66e 2a3d 7eda d73c 6e01 753d
00000380: 9c32 4d3b 6b7a c23d b9f3 093e 4c9e fb3c
00000390: 3d18 cf3c 9358 863d 8b14 503d edee 3a3d
000003a0: 2598 c9bb 7f7f 273c f8f5 ba3c ba73 803d
000003b0: f06e e63c b227 983d 478f 383e e0fd 503d
000003c0: 02e1 2ebd 65aa 51bd 414c b73d 19c2 dd3d
000003d0: 088c d33d 8647 aa3c 4b48 cfba ba02 023e
000003e0: 7c21 ab3d 87c3 0e3d d31f e73c 6bb9 813d
000003f0: 74a0 6bbb f285 823d fa50 b53d 0764 903d
0.08972977 0.08887208 0.04020686 0.041628234 -0.040702872 -0.0041509257 0.10013725 0.008472492
0.005255327 -0.012339792 -0.011824011 0.051548835 0.14065553 0.109441005 0.018517572 0.0038663738
0.046264395 0.018405562 0.067969926 0.12090815 0.07366319 0.024889696 -0.015685873 0.037559345
0.11087516 0.067953914 -0.028354786 0.0044812695 0.06898301 -0.0055522094 0.05855182 -0.009428829
0.04970055 0.05923287 0.028671656 0.07487169 0.06611357 0.08921008 -0.009383638 0.058824517
0.043856967 -0.038053665 0.08344546 0.012795159 -0.0084441565 0.05512299 0.0006007749 0.109820925
0.049528666 0.08127542 0.086908 0.026051348 0.020089272 0.015485924 0.09156281 0.07396006
-0.013704745 -0.009877515 0.001352496 0.010509168 0.052595112 0.11824073 0.011974946 0.06271577
0.042624716 0.05213053 0.012364498 0.05714068 0.059907828 0.057141155 0.07607126 0.12775877
-0.010458304 0.040820654 -0.030162144 0.0969374 0.09614167 0.06438982 0.04834121 -0.01533167
0.030355176 0.03997217 -0.014468943 0.013759068 0.034282822 0.086318806 -0.03144518 0.0018530871
0.031576846 0.053544533 -0.042508505 0.021691315 -0.045188777 0.10946853 0.016247774 -0.06888202
-0.028981581 -0.03365941 0.046639223 -0.08437083 0.06505676 0.03497106 0.008711681 -0.03133616
0.022650698 0.061486024 -0.011470899 -0.011278498 0.097841516 0.006683208 0.008575368 0.08743176
0.13573389 -0.03821173 0.04069246 0.050957896 0.03012035 0.0066219713 0.12312648 0.10692084
0.09984507 0.074367754 0.04363472 0.0058589405 0.057540707 0.033810686 0.032958347 0.0021144496
0.022778356 -0.019566854 0.013854258 0.11358741 0.051985025 -0.0013941948 0.029838685 0.054976974
0.054783285 0.012354353 0.046939697 0.06787456 -0.014856955 0.005208519 0.049760226 0.051023554
0.066147305 0.05550411 0.06816449 -0.0024713762 0.012201172 0.11123037 0.052757207 0.029958004
-0.030221347 -0.05631822 0.061668117 0.10750566 -0.0019427754 0.051959768 0.1046288 0.015053325
0.04733775 0.09170193 0.06941476 0.05020909 0.027171114 0.028455462 0.105089486 0.07974685
0.11661166 0.097811565 -0.0019128331 0.08285515 0.035796896 0.057646535 0.010216425 0.008479652
0.028208625 0.018779958 0.059296075 0.07942495 0.035667438 0.06523556 0.050912127 0.07974493
0.11417264 0.07468276 0.04892428 0.014850126 0.10381362 0.115167506 0.023490258 0.07884321
0.054769658 -0.0059246933 0.04860777 0.031520795 0.09661966 0.036822118 0.06150497 0.094697386
0.007892811 0.019547155 0.072067186 0.09124663 0.054915063 -0.0090891635 0.03946222 0.035424374
0.02034841 0.1431016 0.0693256 0.01820644 0.0035664693 0.056397542 0.010397204 0.014697662
0.023572534 -0.044179514 0.13836446 0.031304337 0.06934119 0.041609548 0.026349302 0.059815817
0.0031310683 0.094960056 0.13471879 0.03071513 0.025280112 0.06559863 0.05080084 0.045638014
-0.0061521702 0.0102232685 0.022822365 0.06272073 0.028129071 0.07429446 0.18023406 0.051023364
-0.042695053 -0.05118789 0.08950091 0.10828037 0.10329443 0.020786058 -0.0015814392 0.12696353
0.08355996 0.03485444 0.028213417 0.06334194 -0.0035953792 0.06373204 0.08853336 0.07050329

fc3.weight f4 [2, 256]
00000000: 44bb 25bd ca42 15be 217e 03be b969 89bc
00000010: c32f a7bd 8451 2ebe 7ed6 fd3c fa10 163e
00000020: a1ac 0ebe afd0 03be bdf4 823e bc67 5cbe
00000030: d82a a93c ad1d cb3d b6fa 8e3d 94d0 963d
00000040: 9de3 0abe c247 e83d c0ad 4cbd 12a0 b43d
00000050: 12c5 4fbd 3a8f 153e c188 47be 1844 743d
00000060: 13cc f93d a34f 9cbd 2061 bcbd 1603 d7bd
00000070: 328c 813d 65d1 093e 7a2d 8bbd 0d3d 5ebe
00000080: 53b2 083e 6045 f6bd ea53 2c3e 8163 4a3d
00000090: 2878 f5bd 82d1 8a3d 714d 2abe 4623 dd3d
000000a0: aa4f 903d 77cd fb3d 76a9 0e3d 2370 b03d
000000b0: 7ab5 9dbd 057e f3bd 068f d7bd d206 283d
000000c0: cdb7 adbd f4f2 b2bd 9fa5 c8bd 6f37 99bd
000000d0: 330a 9abd a6eb 143e 6cb8 21be ad41 e73d
000000e0: 50b3 f43d 87ca e7bd 298a 0e3e 0758 053d
000000f0: 3a0c 1e3e eaac 0b3e 85e8 db3d abb7 d73d
00000100: 7b4d 29be ac62 2dbe 5727 e6bd d045 f1bd
00000110: 8089 0cbe 54bd 183d cd84 21be a4aa 543c
00000120: ea64 d73d 054e 473c f9c9 19be 0308 c03d
00000130: 45f9 a1bd cd45 163e c982 9cbd f984 903d
00000140: 61ed 033e bee6 d13d 364d e7bd d518 bc3d
00000150: 00f9 233e 8518 1bbc 3878 73bd 9075 823e
00000160: 7451 07bd b4fe 8fbb 0dbc 08be 6049 2a3e
00000170: 8148 0bbe ae63 cabc 9ac5 14be 24eb 40be
00000180: 7718 39be c077 f2bc 8609 29ba 738e c5bd
00000190: 974b 263e 618c dcbd c2d4 fc3d 2401 aeba
000001a0: 4eb6 fbbb bcd8 0cbd 9cd4 13be e159 d03d
000001b0: 3190 ba3d 882c 92bd 5f47 733d 4887 d7bd
000001c0: 0991 dd3d a6e9 c1bd 9a65 70bd f0ed 4ebd
000001d0: 5556 07be d716 a8bd d6aa db3d 2f5d 08bd
000001e0: 3458 bebc 5227 f63d f9ad c93d a0de 17be
000001f0: 459e 533e d27b 25bd 1829 d43c 226f a7bb
00000200: 68c4 89bd 81bb 02bd 24ae 22be 11db 9c3d
00000210: f86c fdbc e86b 58bd 14d9 4a3d ced8 bcbd
00000220: 2450 87bc 465a 67be 3a6b 02be 9347 bbbc
00000230: 9a31 af3c 860d babd e141 b33d 07cb d0bc
00000240: 1c85 12be 6da1 d83d 0474 11bd 87c4 2fbe
00000250: 34c0 5b3e 7131 f93d 23b1 293e 8c95 7a3d
00000260: 3e12 80bd 636e 1fbe fca4 cbbd 0fb3 933d
00000270: f386 10be 486b 083d 6a74 d73d 622d 8c3d
00000280: d39d 2ebe 7cc9 b8bd a63b 84bd 048a 193e
00000290: 2a6f 09be 7abf d03d 2d38 9ebd 81c6 3e3d
000002a0: 6c17 55bd b2fb 34be abc7 363e 3ed1 cc3d
000002b0: c053 d9bd b506 02be bc2d 9dbd 84a7 443d
000002c0: 5ac5 4cbe e5a7 1abe 16c1 dc3d 35ab d1bc
000002d0: afb5 523e ff2a 0dbe b065 153e 81e5 e83d
000002e0: 11a8 14be dec1 cebd e983 1ebd f38a c43d
000002f0: f48a a03d 61fc 6d3d 62e0 e33a a007 213e
00000300: 7baa 193c 25ab 0c3e 8875 21bc 0d2e ca3d
00000310: ba43 b4bd bd79 3ebe 5d5f 15bd ac71 61be
00000320: 8eb4 95bd e50f 103e 6ff5 133e 2f56 00be
00000330: 8c14 073e e85e bc3c ed34 e3bd 4997 033e
00000340: 6415 16be 8e9b c7bb d9d1 cdbd 2f77 033e
00000350: 67dc edbd c74f ca3d 70a6 723d 223e 4d3e
00000360: 17e1 6abe 42e0 553e 1960 0c3c 260a 603d
00000370: 34e0 833d 5f06 10be cca7 e3bd 26e5 a8bd
00000380: e529 1d3e a3ca 073e f4dc f23d 5289 bf3d
00000390: 5ef2 1b39 0a91 483e ad2b 693d 05c6 62bd
000003a0: cf53 67be a5f1 f8bd 6501 7ebe fd97 1f3e
000003b0: 24ef d2bd 7ce6 1dbe e44d babc b169 7dbe
000003c0: 2e6a 1f3e e969 453e d187 ddbd fbe1 3939
000003d0: c29d 5abd f863 4dbd de66 2c3e 56de dfbd
000003e0: e7cf a6bd 9b7e 34bd 2bed 7bbe be30 e13d
000003f0: f82a 423e f63f 0bbe 3b5d d2bd dfff 4fbe
-0.040461794 -0.1457626 -0.12841083 -0.016774045 -0.08163407 -0.17023283 0.030986067 0.14654914
-0.1393304 -0.12872575 0.25577345 -0.21523947 0.020650312 0.099177696 0.06981413 0.07364002
-0.1356339 0.11341812 -0.04997039 0.088195935 -0.05072505 0.14605418 -0.19485761 0.05963525
0.12197127 -0.07632377 -0.091982126 -0.104986355 0.06325568 0.13458784 -0.06795783 -0.21702977
0.13349275 -0.12024951 0.16828886 0.0494113 -0.119858086 0.06778242 -0.16631104 0.107977435
0.07046445 0.12295049 0.03482958 0.086151384 -0.077006295 -0.11889271 -0.105253264 0.04102213
-0.08482323 -0.08737746 -0.09797215 -0.07481276 -0.075214766 0.14543018 -0.15793008 0.112918235
0.11948264 -0.11317926 0.13919891 0.032554653 0.15434352 0.1364018 0.10737709 0.10533079
-0.16533463 -0.16932172 -0.11237972 -0.11780894 -0.13724327 0.037289932 -0.15773316 0.012980137
0.10517295 0.012164597 -0.15018453 0.09376528 -0.079088725 0.14675064 -0.07642133 0.070566125
0.12883522 0.10249089 -0.11294024 0.09184424 0.16012955 -0.009466295 -0.05944082 0.25480318
-0.033036664 -0.0043943767 -0.13352986 0.16629553 -0.13601877 -0.024705734 -0.14528504 -0.18839699
-0.18075739 -0.029598117 -0.00064482575 -0.09646311 0.16239773 -0.10768963 0.12345268 -0.0013275486
-0.0076816445 -0.03438638 -0.14436573 0.10173393 0.091095336 -0.071374 0.059394237 -0.1052385
0.10818679 -0.09468393 -0.058690645 -0.050519884 -0.13216527 -0.08207481 0.10725944 -0.03329199
-0.023235418 0.120192185 0.09847636 -0.14831018 0.20665844 -0.040401287 0.025898501 -0.0051096836
-0.06726915 -0.0319171 -0.15886742 0.07658971 -0.03093575 -0.052837282 0.049523428 -0.0922104
-0.016517706 -0.2259303 -0.12736216 -0.022861278 0.021385957 -0.09084611 0.087528 -0.025487436
-0.1430859 0.105776645 -0.03551103 -0.17164813 0.21460038 0.12167633 0.16571479 0.061177775
-0.062534794 -0.15569453 -0.09943578 0.07211887 -0.14113979 0.033305436 0.10520251 0.068445936
-0.17052393 -0.09022805 -0.064566895 0.14994055 -0.13421312 0.10192771 -0.077255584 0.046576027
-0.05202429 -0.17674139 0.17849605 0.10000847 -0.10611677 -0.12697871 -0.07674739 0.048011318
-0.19997159 -0.15103109 0.10779016 -0.025594333 0.2057712 -0.13785933 0.14589572 0.113718994
-0.14517237 -0.10095571 -0.038700018 0.09596815 0.07839003 0.058102015 0.0017385597 0.15725565
0.009379025 0.13737161 -0.009854682 0.09872065 -0.0880198 -0.18601127 -0.0364679 -0.22016019
-0.07309829 0.14068563 0.14449094 -0.12532876 0.13191432 0.022994474 -0.11094079 0.1285068
-0.14656597 -0.0060915416 -0.10049791 0.12838434 -0.11614304 0.098784976 0.05924076 0.20043233
-0.22937427 0.20886329 0.008567833 0.05469718 0.06439248 -0.1406493 -0.11115989 -0.082468316
0.15348013 0.13260894 0.1185855 0.09352364 0.0001487224 0.19586578 0.056926418 -0.055364627
-0.22590564 -0.12155465 -0.2480522 0.15585323 -0.10299519 -0.15419954 -0.02274222 -0.2474735
0.15567848 0.19278683 -0.108169205 0.00017727159 -0.053373106 -0.050144166 0.16836116 -0.10931079
-0.08145123 -0.044066053 -0.24602191 0.10995625 0.18961704 -0.13598618 -0.102716886 -0.20312451

fc3.bias f4 [2]
00000000: 80be 313d b771 acbd
0.043394566 -0.08420127

bn1.weight f4 [256]
00000000: 2662 903f 3a9f 113f 3965 3b3f 8656 833f
00000010: 51ef 563f f1de df3e b838 8d3f cec1 823e
00000020: c28f 213f de65 7b3f 8aab c93e af97 293f
00000030: 1476 a73e 651b cf3e e83a 263f fe11 c63e
00000040: 7d3e 233f 9ad1 3d3f 7c0b f63e 894a a73e
00000050: d92f f53e 3ffa 253f 1403 af3e b98f 6a3f
00000060: 21aa 5f3f e57b e83e 29e6 793f 0ed5 7b3f
00000070: f262 5c3f d20d fe3e 0d27 563f 7945 a53e
00000080: 1803 233f e569 753e 6db5 813f 1af9 8c3f
00000090: 843c 953f 4834 653f 18e2 213f ce7e 843e
000000a0: 1e98 ff3e d942 043f 9f5a 8b3f 65ed 833e
000000b0: 8375 913f 42ae 5f3f 1ea0 0c3f 6a4d e53e
000000c0: f97d d33e 60c0 663f dfdd f93e cf7f fd3e
000000d0: 480c 723f a3f8 7a3f 7b54 623f 2a74 d53e
000000e0: 20e8 253f ec7d 603f d2ff 4c3f 7433 d93e
000000f0: b65f 4d3f 6c4d 1a3f 6c2f db3e 89fb ba3e
00000100: 2343 833f 43d9 ea3e 9ad6 b23e 018a 283f
00000110: d08b 2d3f 519e 723e 5dcf 8b3f 2b2d 283f
00000120: 1250 703f 472e 863f ceab da3e 5294 df3e
00000130: 46b9 503f 786a 063f fd33 643f 59a8 eb3e
00000140: 019b 843e 1f4b 023f 6392 cc3e 3fe3 d73e
00000150: 9195 663f c1a1 2f3f efe7 523f c06d cd3e
00000160: 0fe4 c83e 7a19 373f 3a00 ec3e 77d0 783f
00000170: 642a 9d3e 4c83 853e 3adb 033f 0032 143f
00000180: 8505 dc3e b38f 493f 4c1a 7d3f ab5c ce3e
00000190: 5c18 8a3f 0b45 893f 5246 103f 55c8 da3e
000001a0: 8572 163f affb d33e af92 363f 3138 743f
000001b0: 5d5f 8c3f 948c 7c3f 6722 103f 3442 643f
000001c0: bf53 943e d464 bf3e 9832 863f 74d1 a13e
000001d0: 46b3 083f 0091 083f 0c57 843f 9135 963f
000001e0: 5f6f 813f 1ebe 5a3f 0a8f 873f 8510 863f
000001f0: 1306 0f3f cfd6 623f 9361 7f3f 4c15 613f
00000200: 2b9a 683e 1538 993e cfeb c93e caa8 193f
00000210: e7b2 873f e02b 7f3f 15f0 323f b229 5b3f
00000220: 8329 7c3f 5d9b 803f 82cb 443e 6177 623f
00000230: b538 6f3f 3362 523f 4b06 ae3e f59c 003f
00000240: 0973 da3e 6b11 df3e 3714 d23e 39af 243f
00000250: 7757 8e3f 340e 073f 9023 943e 5bad 8b3e
00000260: 7f82 783e 2b95 b13e d7d4 e53e 1fe1 8a3e
00000270: 903e 7a3f 8f73 2e3f 1083 1a3f c166 393f
00000280: d87c f13e 629e 443f 362a 7f3e 7726 6a3f
00000290: 3ac6 a23e 773a 4f3f 5c8b 3c3f 4baa e33e
000002a0: f938 403f 0795 913e 2b6b 3f3f c43d 8d3f
000002b0: ce63 1a3f 998e 633f 4c2a 533f 299e 8d3f
000002c0: d534 453f e40b 8c3f 5dd4 833f 172c 613f
000002d0: ce51 cf3e 4b1d d63e ecd4 003f 5021 683f
000002e0: 4139 a73e 12f8 6f3f e2d4 9a3e f5be be3e
000002f0: 3abb 8e3e 6f20 e23e 26b8 903f 8d49 bf3e
00000300: a91e 763f 5b03 323f ad4c 823f f461 5b3f
00000310: 926d 633f 5186 a53e f87c 7f3f 52be 6b3f
00000320: a00d a2be 158e 113f 1cbd 123f 8d9c 233f
00000330: 4da9 843f d0f1 7e3f 35e3 873f 0996 2e3f
00000340: 9641 6f3f 26af a13e 0098 273f 6a9a 403f
00000350: c3fd 8c3f 21bf 863f d533 7c3f 9aa9 cc3e
00000360: 8a3b 713f 7b67 183f 69e0 023f 5496 033f
00000370: 0d27 353f 8cd4 533f 0a0c da3e 746b 523f
00000380: 1d04 6e3f e0f5 463f 9716 923f a4f5 323f
00000390: 96ad 5d3f 1da8 8b3f 6e46 3d3f 73ea 7d3f
000003a0: 7304 263f 5abf 853f 192e 1e3f 72ac 213f
000003b0: 1091 473f eb6c 823e c072 f13e 873a 383f
000003c0: 7095 fe3e bf90 163f deee 853f 91be 3a3f
000003d0: d282 cc3e 89b3 163f 8393 093f 8482 873f
000003e0: 77c3 b43e ae11 7d3f 7f69 0d3f 0e3c fc3e
000003f0: 8047 c53e c1b9 853f 40d4 383e 4342 9c3e
1.1279953 0.56883585 0.7320133 1.026078 0.8395892 0.43724778 1.1032934 0.25538486
0.6310998 0.9820231 0.39388686 0.66247076 0.32707274 0.40450588 0.64933634 0.38685602
0.63767225 0.7414795 0.48055637 0.32674053 0.47888067 0.6483497 0.34182036 0.91625553
0.8736897 0.45407024 0.9761682 0.9837197 0.8608848 0.4961992 0.83653337 0.32279566
0.63676596 0.23966177 1.0133492 1.101352 1.1659093 0.895329 0.63235617 0.25877994
0.49920744 0.516645 1.088703 0.25767055 1.1363987 0.8737527 0.5493182 0.44785625
0.41307047 0.9013729 0.48802087 0.49511573 0.9454999 0.9803564 0.88410157 0.4169019
0.6480732 0.8769214 0.8007785 0.42422068 0.8022417 0.60274386 0.42809618 0.3652003
1.0254864 0.45868883 0.34929353 0.6583558 0.6779146 0.23693205 1.0922657 0.6569392
0.9387218 1.0482873 0.42709202 0.43667847 0.81532705 0.5250621 0.8914183 0.46026877
0.2589951 0.50895876 0.39955434 0.42165563 0.9007197 0.6860619 0.8238515 0.40122795
0.39236495 0.7152325 0.46093923 0.9719309 0.30696404 0.26076734 0.5150639 0.57888794
0.4297296 0.7873489 0.9886825 0.40305075 1.0788684 1.0724195 0.563573 0.42730966
0.5876849 0.41402957 0.7131757 0.9539824 1.0966603 0.98652005 0.56302494 0.8916352
0.28970143 0.37381613 1.048419 0.31605113 0.5339855 0.5334625 1.0339065 1.1735097
1.0112113 0.85446346 1.0590527 1.0473791 0.55868644 0.8860902 0.9975826 0.8792312
0.2271506 0.299256 0.3943772 0.60023177 1.0601472 0.9967632 0.69897586 0.85610497
0.9850084 1.0047413 0.19218257 0.8846341 0.93445903 0.8218109 0.33989176 0.502395
0.4266589 0.43567976 0.41031048 0.6432987 1.1120442 0.5275605 0.28933382 0.27280697
0.2426853 0.3468412 0.44888946 0.2712488 0.9775171 0.6814508 0.60356236 0.72422415
0.4716556 0.76804173 0.24918446 0.9146494 0.3179186 0.80948585 0.73650146 0.4446586
0.75086933 0.2843401 0.747729 1.1034474 0.6030854 0.8888946 0.82486415 1.1063892
0.7703374 1.0941129 1.0299183 0.879579 0.404921 0.41819224 0.50324893 0.9067583
0.3266087 0.937379 0.30240542 0.37255064 0.27877218 0.4416537 1.1306198 0.37360802
0.96140534 0.6953637 1.017965 0.8569634 0.88839066 0.32329038 0.9980006 0.9208728
-0.3165102 0.56857425 0.5731981 0.6391075 1.0364166 0.99587727 1.0616213 0.68197685
0.9345945 0.3157894 0.6546631 0.7523562 1.1014942 1.0527078 0.9851659 0.39973146
0.94231474 0.595329 0.5112367 0.5140126 0.7076271 0.82746196 0.4258731 0.8219521
0.92975026 0.77718925 1.1413144 0.6990607 0.86592996 1.0910679 0.7393559 0.99185866
0.6485054 1.0449021 0.6178909 0.63153756 0.7795572 0.25473723 0.4715786 0.71964306
0.49723387 0.58814615 1.0463521 0.7294703 0.39943558 0.588677 0.5374071 1.0586705
0.35305378 0.988551 0.552391 0.49264568 0.38531113 1.0447313 0.18049717 0.30519304

bn1.bias f4 [256]
00000000: 5109 0abd 8cc0 4fbc d1d2 5d3d fded 5bbc
00000010: cc8d 513d b3b0 dfbb 213e 103c ed8f c73d
00000020: d86d dbbc ef77 a4bb abe2 2ebd 2588 a63c
00000030: 5805 0a3d 9482 f2bc 20e1 68bd a19e 1abd
00000040: 4e4f 7abd e0c7 82bd 9786 22bd d6ff c0bd
00000050: 16fe c6bd a20b 78bd b6f2 08bd 4901 a4bb
00000060: da9f 0ebc bd62 acbd cede 643c 84dd babc
00000070: b28e 85bd ed65 24bd 87d8 08be 5cfa 833d
00000080: 0c79 79bd 0633 c2bd d792 8fbd e7b6 93bd
00000090: 41d1 3ebd 77a2 43bd 9d02 e4bc a5ef a63c
000000a0: 1ad9 8cbd 6aee cdbc 1075 e53b e046 53bd
000000b0: 21e0 6cbd f52c 3cbd eae5 0cbd 4779 66bd
000000c0: 7c15 ccbb 0d44 b93c 3722 0abd 025c 973c
000000d0: 3d17 d4bc 2301 0bbc b9ab e9bd 8986 38bd
000000e0: 896a 81bd 1fa4 10bc 8bc7 8cbd 390f 8bbd
000000f0: fabb b83b 91e7 c9bb 4afd adbd c21b 0ebd
00000100: ba30 d0bd eeaf 8d3b 4b0c 9fbc af09 8fbc
00000110: 8dad 10bd 6f87 dfbd f10e 143d 6c58 05bc
00000120: c110 fabc cd01 ca3a f600 2f3c c0cd 023c
00000130: 9314 2fbd a2ee 2ebd 5095 52bd fe01 cabb
00000140: dfd8 93bd 216d 83bd ddb6 b5bb 29db 9fbc
00000150: 5738 28bd efbf d83c 5529 2ebd 0fe9 a1bc
00000160: 1a55 2abd bf70 f63b 2c04 76bc d0ba db3c
00000170: 9f35 01bd 2932 203b 33a0 9e3c 5628 81bc
00000180: a0eb 5bbd 4df8 06bd 8ebc 323d 2396 a0bd
00000190: b48e 82bd 9f71 25bd 1c15 0dbc 4943 883b
000001a0: 2b0f c1bd 1c22 fbbc 95e8 0abc 9c3d c1bd
000001b0: 4522 dd3c 7f0d 46bd 73d6 55bd 669e 58bc
000001c0: b111 acbd f01e 24bd a993 10bd 7494 8cbd
000001d0: 5717 203d 1b0a a3bd 2264 6a3c ac52 69bd
000001e0: a1dd 93bd edad 9f3c 857a 23bd caae 19bd
000001f0: ff54 50bd e68a 993c 0f5e ae3c fb6f 783a
00000200: f701 d0bc 5ddb 02be 1eb2 47bd b098 f4bd
00000210: 03a1 aa3b 12e5 46bd 017f 85bc c415 9abd
00000220: ae73 4fbd 1e23 073c b4b1 b0bd e57c 39bd
00000230: 0b94 dcbd 09e8 a1bc 0e0f 6f3d e614 5cbd
00000240: 2277 32bd fb5c 3fbd b014 183d 3a19 86bd
00000250: e3fc 99bc 4856 cd3c c45a ae3a ff6b c7bd
00000260: 083c ec3c b31c 05bd 5acc 05bd 6102 babd
00000270: 9c7e 85bd bb59 cfbc 4316 a2bb 72bb e9bc
00000280: d4a3 c7bd db1b c23b cfa1 a9bc 5fc1 3bbd
00000290: 0253 54bd 8b37 52bb d024 a3bd 1761 febd
000002a0: 34a1 30bb 4314 45bd f4f8 a3bc 5385 7c3c
000002b0: ad9c 31bd b155 363a a4db dabc 6706 48bd
000002c0: a4b8 9c3c 5cac 8cbc e4bd 923c 6547 66bc
000002d0: 06df e7bd 7cee babd 33b6 9cbc 6686 cbba
000002e0: ea9d 46bd 8261 1cbd 2d5b 91bd 8807 023d
000002f0: f173 c7bd b3fa 1e3c 6102 0fbd 5410 bcbd
00000300: 48ef 50bd eb76 6c3a 6681 03be db03 69bd
00000310: b61f efbc 9047 f7bd d064 46bd ad2a 1ebd
00000320: 24cd 9a3d bd15 7dbd f61e 2f3d 04c1 febc
00000330: 2542 843d 4496 003d b43b 5fbd 6f03 3dbc
00000340: 9009 b1bd 29db ae3c fcc0 98bc 71e6 49bd
00000350: bcd7 febb 3b85 5ebd 6c88 16bd 05b7 83bd
00000360: d39e 85bd fbd5 493d 57ba 35bd 6aef 3abd
00000370: 782c e4bc 127e 9f3c 476c 673d 08d1 203c
00000380: a424 25bc 35eb 98bd 0463 64bd d7cf 91bd
00000390: eab0 723d 504b 46bc 21f6 37bd 4a73 19bc
000003a0: 0bab a6bc 424d 08bc a4b6 8cbd 1adc 2dbd
000003b0: b98f 27bb 754d 833d 157f c93b b5d8 c1bc
000003c0: 92b2 e7bc 636d 89bd 4f42 0fbd ae37 82bc
000003d0: 6b54 b7bc 4473 5cbd fc81 c7bd 00e5 51bd
000003e0: ab5f 063d 80cc efbd 2aea a9bc c91a 82bd
000003f0: ebc3 9dba 3843 aa3c 4acc abbd f7d3 fabc
-0.03370029 -0.012680184 0.05415613 -0.01342344 0.05116062 -0.006826484 0.008803875 0.097442485
-0.026785776 -0.00501918 -0.042696636 0.02032859 0.033696502 -0.02960328 -0.05685532 -0.037748937
-0.061110787 -0.063857794 -0.039679136 -0.09423797 -0.09716432 -0.06055797 -0.033434592 -0.005005036
-0.008705104 -0.0841727 0.013969136 -0.022810705 -0.065213576 -0.040136266 -0.13363849 0.06444237
-0.060906455 -0.09482388 -0.07010429 -0.0721262 -0.04658628 -0.04776236 -0.027833277 0.020377943
-0.06877346 -0.025138099 0.0070024803 -0.051581264 -0.057830933 -0.045941312 -0.03439895 -0.056268003
-0.006228147 0.022615457 -0.033724036 0.01847649 -0.025889987 -0.008484158 -0.114097066 -0.045050178
-0.06319148 -0.008828192 -0.06873997 -0.06790013 0.005637643 -0.006161638 -0.08495577 -0.03469444
-0.10165544 0.004323951 -0.019415041 -0.017460672 -0.03532176 -0.10914504 0.03614706 -0.008138757
-0.030525567 0.0015411914 0.010681381 0.007983625 -0.04274423 -0.042708047 -0.051411927 -0.0061647883
-0.07219099 -0.06417299 -0.0055454806 -0.019513683 -0.041069355 0.026458709 -0.042519886 -0.019764451
-0.041585065 0.0075207646 -0.015015643 0.026822478 -0.031545278 0.002444396 0.019363498 -0.015766304
-0.053691506 -0.03295164 0.04363685 -0.07841136 -0.06374875 -0.04039156 -0.00861099 0.0041584116
-0.09426721 -0.030655913 -0.008478303 -0.09435579 0.02699388 -0.048352715 -0.052206468 -0.013221359
-0.08401812 -0.040068567 -0.03529707 -0.06864253 0.03908476 -0.07960912 0.0143061 -0.056963608
-0.07220007 0.019492114 -0.039911766 -0.037520207 -0.05086231 0.01874299 0.021285085 0.00094771356
-0.025391562 -0.12778993 -0.04875385 -0.11943185 0.0052071824 -0.048558302 -0.016295912 -0.07523683
-0.05064743 0.008248119 -0.08627644 -0.045285124 -0.107704245 -0.019763963 0.058363967 -0.053730868
-0.043570645 -0.046719532 0.037129104 -0.0654778 -0.018797344 0.025065556 0.0013302197 -0.097373955
0.028837219 -0.032498073 -0.032665588 -0.09082485 -0.065182894 -0.025311342 -0.0049465015 -0.028531764
-0.097480446 0.005923731 -0.02070704 -0.04583871 -0.051836975 -0.0032076563 -0.07966006 -0.12420862
-0.0026951553 -0.048115026 -0.020016171 0.015412646 -0.04336231 0.0006955518 -0.026716061 -0.04883423
0.019131012 -0.017172031 0.017912813 -0.014055108 -0.11321835 -0.091275185 -0.019129848 -0.0015527725
-0.048490442 -0.03817893 -0.070974685 0.031745464 -0.09738911 0.009703326 -0.034914378 -0.09182802
-0.051009446 0.00090204057 -0.1284233 -0.056888442 -0.029189926 -0.12074196 -0.048435986 -0.038614918
0.07558659 -0.06178831 0.042754136 -0.031097896 0.064579286 0.031393304 -0.054500297 -0.011536463
-0.08644402 0.021344738 -0.01864671 -0.04929203 -0.0077771824 -0.054326277 -0.036751196 -0.064313926
-0.06524434 0.049276333 -0.04436716 -0.04563848 -0.027853236 0.019469295 0.056499746 0.009815462
-0.010079537 -0.07466737 -0.05575849 -0.071197204 0.05925075 -0.012102917 -0.04491246 -0.009365866
-0.020345232 -0.008319201 -0.068707734 -0.042446233 -0.0025567843 0.06411258 0.0061491826 -0.023662904
-0.028283391 -0.06710317 -0.034975346 -0.01589569 -0.02237912 -0.053820863 -0.097415894 -0.051243782
0.03280608 -0.11708927 -0.020741541 -0.06352765 -0.0012036538 0.020784006 -0.083885744 -0.03061865

bn1.running_mean f4 [256]
00000000: 4e95 b33e a207 5238 b0cd 9c3d 4757 2f3f
00000010: e119 f63d efa4 5b3f 3536 283f 311a ac3d
00000020: 2bc5 233e 7c2c 9d3e 6416 463f 4418 143f
00000030: d58d 2940 8064 933a d0f2 ad3f f85b 0a3a
00000040: bd1c 993f 19ee 253f c08c de3e 1034 1440
00000050: 6f41 7d3f 9e31 ab3d a571 4d3e cc77 843f
00000060: ab59 543e 0745 b13d 94c0 593e 65e5 cc3e
00000070: b54f 143e b7f6 ed3c c7d2 103f ffd2 1e3e
00000080: b82e e43e 0bd7 bf3e 4c7e b63e 466e 4a3e
00000090: 9524 773e 082a df3a 4da1 d435 fba9 a33d
000000a0: 1141 7a3a 51ea 193f 514c 903f 2c33 c93c
000000b0: bc41 d53d e8dc 8d3e 1933 4d3f c265 b139
000000c0: 71c6 6f3f 2aab f93f 020b a03e 55f2 1340
000000d0: ec44 1940 dadc 4e3f edfa 173f 484f a03e
000000e0: 16a9 d23e bae5 2d3d 1e70 2b3f fe7d c13f
000000f0: 39c4 ca3f e09a 813f a33d 153e a2e6 0e3f
00000100: 19d6 123f d3c6 703e 88b6 d03f 2f75 0340
00000110: 43b2 453f 5ef5 0e3c 7cb7 653d 7d6c 1a3d
00000120: d5c9 bd3e ce70 523f a08b 9d3c 87f6 9c3e
00000130: 0378 1f3f 3c83 cb3f 546a 2d3e 1b6e fc3e
00000140: 0deb 3e3f 371d d93d 02db 043e 080e 7e3f
00000150: dc9f a73f 567f 253d 66ce 073e 0bc1 e83d
00000160: 7658 1f3f 7677 813f 2d64 663f e91c 703f
00000170: 7f42 b738 9057 b93e feae 173f d76e 1c40
00000180: c655 163e 4455 be3c 5a44 873f 00a4 d531
00000190: eb54 b53f 1ebc 2240 1899 b03e a5ff f63e
000001a0: b28f 593f 2bc7 4e40 811d 503d 1aa2 963f
000001b0: 687c b03d 8b6b 0940 0689 7e3e 7b67 f13e
000001c0: b90f 823e 3dc4 023f 5466 0f3f 734c be3e
000001d0: 31ed 2c40 6a8e 0a3c 5b4b 873f 0560 013f
000001e0: 2956 cb3e 4037 e33d 8a34 da3e c11d 7c3f
000001f0: 2d3a 193e 94a2 a63e af31 913c 4195 003e
00000200: 89c9 d13d 0400 0000 265c 4f3d c2e1 003f
00000210: b91c 1d3e 2025 053f 9b8c 6f3f 7a2f 553f
00000220: 65d3 1e3e d6e4 8c3f f56f 5c3e 21eb 853f
00000230: 6eea 0a3d 07b2 063f aefe a03c 9374 503c
00000240: 590d 523e d8d3 f33f f533 ab3f 2cb1 9c3e
00000250: 1712 153e 40ee 943f 0400 0000 0b4b 973e
00000260: b659 a73e 6e2a df3c 49ca b63f e3b5 a53d
00000270: 0a64 5a3f 02bc 1b3f 6910 d93d 30b8 243e
00000280: 6001 0c40 2109 7b3c c393 3e3e cc17 013d
00000290: e60e 6c3f 0986 e43e 9664 c43e e1f3 b93d
000002a0: 8e4e d13f 481b aa3f 3acd bd3d be6b ec3f
000002b0: 0400 0000 2552 703e 9096 923f 6223 0a40
000002c0: 0400 0000 a804 023e c7f6 aa3e f41f 0740
000002d0: f5aa e73b e6db 4c3f da3c 1c3e 3e19 e33d
000002e0: 09ab 863e 8994 b83c 80f9 693e b740 0e3d
000002f0: fd2f e43e 0a90 083e 47f6 503f 2a65 653d
00000300: 396f d339 01df 253e d2d3 963f 162f 363f
00000310: 003b 433f bb00 883b 01f9 283f b445 0640
00000320: f7a8 cc3d 0848 5d3f 40d0 6e3e a76a 673f
00000330: 1b06 1140 e7db e23f ee3b af3e 7bfb 423e
00000340: 9f49 463a 1ff9 343f f8c0 853e 79ec d23d
00000350: 63c3 073f 1d72 023e d5fe b93d 89ff 5d3f
00000360: f3ed 133f be55 a13f 0f70 093f b3db d43f
00000370: 781d 023e 5108 773f 27fe 883e 8cc0 5c3f
00000380: 3918 663f 1174 2b3e cd1d 563d 5541 c73e
00000390: 5ef4 2a3f 3b62 143f 0136 d13e 33d2 0c3e
000003a0: 63c5 112a 3ceb b33f 7024 9c3f 6caf 943e
000003b0: ed36 c63d 5f16 5c3f 958a 943d 1cc6 c13d
000003c0: 3d0b a93e f139 013e 203e 1b3f 244b b53d
000003d0: c5a7 9b3f d240 ae3e 6373 bf3c e37d 593e
000003e0: 8c32 4b3f fb19 d23d ec20 563e ea60 8e3e
000003f0: 9fbb b23d 6f74 0b3f 7ae1 8a3f 89cf 983e
0.35074848 5.007501e-05 0.07656419 0.6849255 0.12016655 0.85798544 0.65707713 0.08403433
0.15993182 0.30698 0.77377915 0.57849526 2.6492817 0.0011245161 1.3589725 0.00052779866
1.1961895 0.64816433 0.4346676 2.3156776 0.9892797 0.08359073 0.20062883 1.0349059
0.2073733 0.08655744 0.21264869 0.40018764 0.14483531 0.029048307 0.5657162 0.15510176
0.44566894 0.37468752 0.35643232 0.19768628 0.24135049 0.0017026076 1.5842176e-06 0.079914056
0.0009546439 0.60123163 1.127329 0.024560533 0.104129285 0.277076 0.80156094 0.00033835886
0.9366217 1.950536 0.31258398 2.3116658 2.3948317 0.8080574 0.5936726 0.31310487
0.41144627 0.042455412 0.6696795 1.5116575 1.5841132 1.0125389 0.14574294 0.5582067
0.5735794 0.23513345 1.6305704 2.0540273 0.7722513 0.008725492 0.056083187 0.03770112
0.37068048 0.82203376 0.019231617 0.30656835 0.622925 1.5899425 0.16935092 0.49302754
0.7457741 0.106012754 0.1297417 0.9924016 1.309566 0.04040464 0.13262329 0.11364945
0.62244356 1.0114582 0.89996606 0.93794113 8.738506e-05 0.36199617 0.5925139 2.4442651
0.14681157 0.023234017 1.0567734 6.2177605e-09 1.416654 2.5427318 0.344918 0.48241916
0.84984887 3.2309062 0.050809387 1.176822 0.086174786 2.147189 0.24856958 0.47149262
0.2540262 0.51080686 0.56015515 0.371677 2.701977 0.008456806 1.0569872 0.5053714
0.39714172 0.110945225 0.4261821 0.984829 0.14963599 0.32545912 0.017723886 0.12556936
0.10243518 6e-45 0.05062499 0.5034448 0.15342988 0.52009773 0.9357392 0.8327557
0.15510328 1.1007335 0.21527083 1.0462381 0.033914976 0.526154 0.01965269 0.012723106
0.20512904 1.9049025 1.3375231 0.3060392 0.14557682 1.1635208 6e-45 0.2954944
0.32685632 0.027241912 1.4280483 0.08091333 0.853089 0.6083375 0.10598833 0.16085887
2.187584 0.015322001 0.18611054 0.031516835 0.92210233 0.4463351 0.3835799 0.09079719
1.6352098 1.3289576 0.092676595 1.847038 6e-45 0.23468836 1.1452198 2.1584096
6e-45 0.12697089 0.333914 2.1113253 0.00706994 0.8002304 0.15257588 0.11088799
0.26302364 0.022531765 0.22849083 0.034729686 0.44567862 0.13336197 0.8162579 0.05600468
0.00040327923 0.1619835 1.1783392 0.711656 0.762619 0.0041504777 0.6600495 2.0980043
0.09993165 0.86438036 0.23321629 0.90397114 2.2659976 1.7723359 0.3422541 0.19041245
0.0007564071 0.7069263 0.26123786 0.1029901 0.5303251 0.12738843 0.090818085 0.8671804
0.57784957 1.2604291 0.5368661 1.6629547 0.12706554 0.96497065 0.26756403 0.86231303
0.8988071 0.16743495 0.052274514 0.38917032 0.66779125 0.5796239 0.40861514 0.1375206
1.294707e-13 1.4056163 1.219862 0.29040086 0.09678445 0.85971636 0.07252995 0.094616145
0.33016387 0.12619759 0.6064167 0.088522226 1.2160574 0.3403383 0.02337045 0.21239428
0.79374003 0.10258862 0.20910996 0.27808315 0.08727192 0.5447454 1.085006 0.29845837
